top3_models/h12_ep50_bs64.pth (torch, 38493 bytes, 6 tensors)

net.0.weight f4 [32, 13, 3]
000000 f0 34 5e 3e 7a b4 13 3e b2 37 0b 3e f8 47 88 be
       0.21699882 0.14424315 0.13595465 -0.26617408
000010 d9 5f 07 be 30 ba 00 3c 4f 13 79 3e a0 48 7a 3c
       -0.13220157 0.007856891 0.24323772 0.015276104
000020 8e b1 04 3e a8 56 8b bd 50 ec a5 bc 14 b4 51 bd
       0.12958357 -0.06803638 -0.020254284 -0.051197127
000030 31 2d bf bd 60 72 49 3d 20 8f be 3c 98 6b ae 3d
       -0.093347915 0.049181342 0.023261607 0.08516616
000040 c0 80 89 3b c2 f5 81 3d 04 3e 16 3e c2 d0 47 bd
       0.0041962564 0.06345703 0.14672095 -0.04878307
000050 8e fd 02 3e f9 ac 7e 3f 70 de e6 bd c8 66 22 be
       0.12792036 0.99482685 -0.11272895 -0.1585952
000060 90 b6 dc 3d 19 c7 03 be 5e 4c 22 3e 00 68 98 3d
       0.107770085 -0.12868918 0.15849444 0.074417114
000070 c8 77 c9 3d 50 a8 da 3c da de a1 3d 00 a5 e4 3c
       0.098372996 0.026691586 0.07903834 0.02791071
000080 74 60 0e bd 4a 84 25 be 84 03 1f 3e 27 e5 1b be
       -0.034759954 -0.16163746 0.15528685 -0.15224133
000090 9d 67 24 3c b4 ea 0b 3d 50 0b b9 3c a6 7f ce bd
       0.010034469 0.034159377 0.022588402 -0.10082941
0000a0 b6 58 b4 3d f2 90 75 bd 4a cf 19 bf 3a 3f f5 bd
       0.08805983 -0.059952684 -0.60081923 -0.1197495
0000b0 4f 46 dc bd f7 d6 8e be 1e 45 1f 3e 64 3c e3 3d
       -0.10755598 -0.2789838 0.1555371 0.11095503
0000c0 5e 72 b8 3d 60 ff 8f bc 28 e5 8a bd b8 3d 7a be
       0.09006189 -0.017577827 -0.06781989 -0.24437606
0000d0 68 68 1f 3e 90 ef 20 be da 79 c2 bb 44 17 ee 3d
       0.15567172 -0.15716386 -0.005934936 0.11625531
0000e0 30 64 4f 3d 4b 90 8b be d6 38 09 be 90 bd b0 bc
       0.050632656 -0.27258524 -0.13400587 -0.021574765
0000f0 69 1d 05 bf 5a 7a 04 be ee 3a 7f bd 92 6e 13 be
       -0.51998 -0.12937298 -0.06231206 -0.14397648
000100 e2 e7 49 bd 28 1c 08 3e 78 72 e6 3e 20 b8 1f 3e
       -0.049293406 0.13291991 0.45009208 0.15597582
000110 24 c3 f5 bd 1f fe 2b be fa 47 96 3d be 42 97 3d
       -0.12000111 -0.16796158 0.07337947 0.07385777
000120 51 92 a9 3d d6 9f 14 3e 10 5b 21 3c 07 a3 51 be
       0.08279861 0.14514098 0.009848371 -0.20472346
000130 80 58 3e bd 11 25 0b be 7f 75 88 bd 64 84 22 3d
       -0.04647112 -0.13588358 -0.066630356 0.03967704
000140 df ad bf bd 08 98 c1 bd f8 40 f5 bc 40 63 1b 3d
       -0.09359335 -0.09452826 -0.029938206 0.03793645
000150 e5 9e 88 3e 98 6e ac 3c d8 00 e2 3d d9 28 0c be
       0.26683727 0.021048829 0.11035317 -0.13687457
000160 40 38 09 3b 4f 65 b4 bd 33 7f 65 bd 02 d8 92 3d
       0.0020938069 -0.088083856 -0.05602951 0.071701065
000170 a6 ba 20 be 7d d5 34 be c7 17 b6 bd d8 b0 97 3d
       -0.156962 -0.17659564 -0.08891254 0.07406777
000180 23 58 cf 3d 08 ef d4 3d 80 62 cc 3b 69 65 6a 3f
       0.101242326 0.10397154 0.006237328 0.9156099
000190 1e 33 1e 3e ac b2 e9 3d 27 40 d8 bd d0 da 68 3c
       0.15449187 0.11411032 -0.10559111 0.014212325
0001a0 40 38 f8 3b a3 b8 25 3f fa 29 a5 bd 10 6b 44 bc
       0.007575065 0.6473486 -0.08064647 -0.011988416
0001b0 72 a9 bf bb b0 bf e9 bc a8 ba f4 bc b1 16 d4 bc
       -0.005849057 -0.028533787 -0.02987416 -0.025889726
0001c0 88 a8 5d 3d 26 67 21 3e b8 24 81 3c c4 95 c2 3d
       0.054115802 0.15762004 0.01576458 0.09501222
0001d0 80 c5 3d 3d 69 1f 3d 3d c8 73 c6 3d 90 85 eb bc
       0.04633093 0.046172533 0.09690052 -0.028750211
0001e0 a1 15 11 be 35 af fa bd 98 2f 0c bd 1d df 16 bc
       -0.14168407 -0.12240449 -0.034225076 -0.009208468
0001f0 c8 de bd bc b0 d0 ce 3d 31 f4 ff 3d 06 4f 10 bd
       -0.02317752 0.10098398 0.12497748 -0.035231613
000200 60 45 27 3c cb 43 d5 3e 9e 71 0f 3e 8d 26 9c bd
       0.010209411 0.41653284 0.14008185 -0.076245405
000210 b3 0d c2 3e e7 9d 0f be b0 a2 e4 3d 82 5d e1 bd
       0.37901077 -0.14025079 0.11163843 -0.11004163
000220 a4 e9 58 3d dc c1 f9 bd 1f 55 13 be ec f1 01 be
       0.052957192 -0.12195179 -0.1438794 -0.12689942
000230 38 c2 9b 3d 49 eb 0b be 84 e1 dc 3d 02 2f 05 3e
       0.07605404 -0.13663973 0.10785201 0.13006213
000240 f9 e8 4f bf 26 a0 cd bd f0 05 b7 3c 68 78 5e be
       -0.81214863 -0.100403115 0.022341698 -0.21725619
000250 06 55 01 be 38 bf 58 3d e0 65 e1 3c 58 42 d9 3d
       -0.1263009 0.052916735 0.027514398 0.10608357
000260 f8 b6 b3 bd b7 48 2c bf 50 50 6d bc 80 89 1a 3d
       -0.08775133 -0.67298454 -0.01448448 0.037728786
000270 aa bf c5 3d 10 f7 84 bd 7e 18 9c 3d 04 0e fb bd
       0.09655698 -0.06492436 0.07621859 -0.12258533
000280 08 de 12 3e c8 cf 9a bc 5a ef cb 3c 68 47 ce 3d
       0.1434251 -0.018897906 0.024894405 0.100722134
000290 18 53 e3 3c c5 e5 ad 3d 00 11 ef bd 5d 7d 1c be
       0.027749583 0.08491091 -0.11673164 -0.15282197
0002a0 90 d8 d8 bd 5e c6 8b 3d 98 30 41 3d 38 0d 85 3d
       -0.10588181 0.06824945 0.047165483 0.06496662
0002b0 f8 ed 0b 3d 80 25 c1 bd ba bf 3d 3d e6 c5 0f 3e
       0.03416249 -0.09430981 0.046325423 0.14040336
0002c0 cc c5 7d 3d 80 6a 9e 3f c4 85 d9 3d 28 63 ec 3d
       0.061956212 1.2376251 0.10621217 0.1154235
0002d0 b1 88 04 be 21 37 11 be ce e4 02 3e b7 08 79 3e
       -0.12942769 -0.14181186 0.12782595 0.2431973
0002e0 fa 38 0f 3e fc 2d de 3d 34 e9 0d 3e 9a b7 8e 3d
       0.13986579 0.108486146 0.13858491 0.06968613
0002f0 62 2f e3 bd 98 12 5a 3c e7 43 a4 bd 00 46 87 3c
       -0.11093022 0.013310097 -0.08020764 0.01651287
000300 5c eb 31 be 20 24 c3 bb 4b 8c 0a be f8 ff 2a 3d
       -0.17374939 -0.005955234 -0.1353008 0.041748017
000310 ae a9 ab 3d a7 9c fc bd d1 ab 2a be b4 d8 b7 3d
       0.08381973 -0.123345666 -0.16667105 0.0897688
000320 79 8b b1 bd d0 de 68 3c 35 0d 81 bd de 83 94 bd
       -0.086691804 0.014213279 -0.06301347 -0.07251714
000330 08 39 11 be 40 16 fb bd cc a2 70 3d fb 95 1d 3e
       -0.14181912 -0.12260103 0.058749005 0.15389244
000340 18 81 bf bd f4 9a 17 3e 4a 47 91 bd 52 98 0d be
       -0.093507946 0.14805204 -0.070936754 -0.13827637
000350 34 23 15 3e 6a 8d 89 3b a1 e0 81 bd 40 a2 fb bb
       0.1456421 0.004197766 -0.06341673 -0.007679254
000360 7c f5 14 bf d2 6f 6c bd 48 78 cd 3d e8 21 20 3e
       -0.5818708 -0.057723828 0.100327075 0.15637934
000370 82 a2 05 be 89 fd 8c bd e4 7c 63 bf 50 e9 9b bd
       -0.13050273 -0.068842955 -0.8886244 -0.0761286
000380 da 65 8d 3d 51 b6 e5 bd 82 07 6b bd 00 d9 81 3b
       0.06904192 -0.11216415 -0.057380207 0.003962636
000390 b4 e0 34 3d da 3f 12 3e 93 5a 96 bd 9d 23 7d 3e
       0.044159606 0.1428217 -0.073414944 0.24720617
0003a0 d2 56 fb bd e4 92 ec 3d 81 05 e4 bd b7 74 84 bd
       -0.12272419 0.11551455 -0.11133862 -0.06467574
0003b0 99 d4 cf bd 3e f7 b3 bd 64 c4 20 3e d0 06 19 3c
       -0.10147972 -0.08787392 0.15699917 0.009340003
0003c0 3e 4c 3e 3d 53 14 87 bd 50 f3 41 bd 59 b0 8b 3d
       0.04645943 -0.065956734 -0.04735118 0.06820745
0003d0 d4 a5 e9 bd 10 21 c6 3d 83 94 c4 bc ba 6d 0c 3e
       -0.11408582 0.09674275 -0.023996597 0.13713732
0003e0 14 1d 0b bd cb 15 6d 3d b8 18 86 3c be 6c e5 bd
       -0.033963278 0.05788211 0.016369209 -0.112023816
0003f0 14 f3 35 bf 54 1e 57 3d 30 37 a1 3d 5b 39 37 bf
       -0.7107403 0.052519158 0.07871854 -0.7157189

net.0.bias f4 [32]
000000 db 8c c1 3f 25 74 8e 3f 9d 16 9c 3f e6 c7 88 3f
       1.5121111 1.1129194 1.2194401 1.0686004
000010 f2 a0 b3 3f b4 a6 a6 3f ba de 74 3f eb 46 99 3f
       1.4033492 1.3019624 0.95652354 1.1974767
000020 de e7 94 3f a5 43 c6 3f 03 a2 98 3f b4 0e a2 3f
       1.163326 1.5489393 1.1924442 1.2660737
000030 d9 06 a5 3f 3e 19 93 3f 34 48 bd 3f aa c1 95 3f
       1.2892715 1.1492078 1.478766 1.1699727
000040 cd bb aa 3f 45 1a d7 3f ae a3 bb 3f 30 8e b0 3f
       1.3338562 1.6804892 1.4659326 1.3793392
000050 f5 fe 91 3f 40 89 93 3f c3 93 a8 3f a5 73 a7 3f
       1.1405932 1.152626 1.3170093 1.3082167
000060 a9 f5 95 3f 12 01 83 3f e3 15 a9 3f ad 21 9d 3f
       1.1715595 1.0234702 1.3209804 1.2275902
000070 5c 60 a9 3f 4a d1 c6 3f 27 98 8f 3f e8 e3 c1 3f
       1.3232532 1.553262 1.1218308 1.5147676

net.2.weight f4 [64, 32, 3]
000000 53 2c 52 3f 46 c9 bb bd 00 77 29 3d 2b 3d f1 3e
       0.82098883 -0.09169249 0.041373253 0.4711698
000010 04 37 a4 bc 58 91 00 bc 2f 91 1a 3f 86 6b 97 bd
       -0.020045765 -0.007847153 0.6037778 -0.07393555
000020 24 77 8c bd 67 c8 cc 3e c1 11 a1 bd fa 8b c9 bd
       -0.06858662 0.39996645 -0.078647144 -0.098411515
000030 a6 6a 39 3f 1c 09 6b 3d 50 92 68 3c 90 c3 1c 3f
       0.7242836 0.057381734 0.01419504 0.61235905
000040 30 cb 35 3c c8 12 b6 bc b4 c3 e5 3e 38 99 8c bc
       0.011095807 -0.022225752 0.44875872 -0.017162904
000050 74 8a 42 bd 2f 8d 25 3f 7c 84 99 bc 67 d3 50 bd
       -0.04749532 0.64668554 -0.018739931 -0.05098286
000060 4d e0 26 3f 3b 46 c5 bd 14 e9 11 3d ed f5 58 3f
       0.65186006 -0.09632536 0.03562267 0.8475025
000070 be ed 8a bd a0 ed 0a bb b6 b8 3c 3f 72 7a bc bd
       -0.06783627 -0.0021198764 0.73719347 -0.09203042
000080 d1 c9 36 bd ec c5 19 3f 1c 61 77 3d 1b d0 c2 bd
       -0.04462606 0.6006763 0.060395345 -0.09512349
000090 4d 3c 1c 3f 34 3a cc bd 1b 50 d0 bd d4 e2 2c 3f
       0.6102951 -0.09972039 -0.10171529 0.6753361
0000a0 db 41 5f bd 1c ee 8b bd c6 4c 57 3f f4 40 ce 3d
       -0.054506164 -0.06832525 0.8410152 0.100709826
0000b0 b1 1d 75 bd 03 50 28 3f 18 00 38 bc c8 ad bd 3c
       -0.05984277 0.6574709 -0.011230491 0.023154154
0000c0 3f 30 27 3f 54 6b 80 bd f0 4e c9 3b c9 47 76 3f
       0.6530799 -0.06270471 0.0061434433 0.96203285
0000d0 88 c2 5e 3d 70 a6 8d 3d fb 4f 3d 3f 08 86 32 3d
       0.05438474 0.06916511 0.73950166 0.043584853
0000e0 32 2a cd 3d 1a 7e 21 3f a0 a2 68 bd e0 5f 03 3b
       0.10017814 0.6308304 -0.056795716 0.002004616
0000f0 93 ec 19 3f 08 7c 66 3c 48 7a 04 bd d7 e2 22 3f
       0.6012661 0.014067657 -0.03234318 0.6362738
000100 38 9e 14 bd e7 66 c7 bd d9 ec 12 3f bd c5 39 bd
       -0.0362837 -0.09736424 0.5739265 -0.045354594
000110 44 f6 61 3d 84 cd 14 3f 60 c6 27 3b 08 df 83 3d
       0.055166498 0.5812609 0.0025600418 0.06439024
000120 0b 7c 57 3f 70 88 28 3d b4 c1 b8 3d f5 d8 54 3f
       0.8417365 0.041145742 0.09021321 0.8314355
000130 e0 a9 6d bb d6 f1 9e bd f2 ff 4f 3f 60 d9 8b bd
       -0.0036264583 -0.0776097 0.81249917 -0.0682857
000140 80 9d 60 3d 0a b6 3f 3f fe 4c c0 3d 50 42 cc bd
       0.054837704 0.74887145 0.09389685 -0.099735856
000150 dd 75 40 3f 19 3f 7c bd 80 e8 1e 3c 73 a3 43 3f
       0.75179845 -0.061583612 0.009698987 0.7642128
000160 e6 44 8c bd bd 5a 79 bd e4 c5 10 3f 3c 83 cf bc
       -0.06849079 -0.06087755 0.5655196 -0.025331132
000170 30 81 bc bc dc ac 36 3f b2 67 9d 3d c4 01 08 bd
       -0.02301082 0.7135751 0.07685794 -0.03320481
000180 e8 41 46 3f 44 ba 33 3d 78 9e 42 bd f6 2e 04 3f
       0.77444315 0.04387881 -0.04751441 0.51634157
000190 a0 8c a4 3d 40 ec f8 3c 41 ea 10 3f 10 41 c9 bd
       0.080346346 0.03038609 0.56607443 -0.09826863
0001a0 1c e3 f1 bc cb ae da 3e 78 f9 02 bd 34 b7 5b 3d
       -0.02952724 0.4271148 -0.031976193 0.053641513
0001b0 0b af 3f 3f 14 a3 3f 3d 9e 4d 99 bd 16 71 1c 3f
       0.7487647 0.046786383 -0.074855074 0.61110055
0001c0 bb 60 52 bd 0d 14 b8 bd 02 e7 00 3f 80 c0 e6 bb
       -0.05136178 -0.089881994 0.5035249 -0.0070419908
0001d0 6c 8b a4 bc 4c 2d 23 3f 05 6b 74 bd c4 0f 6a bd
       -0.020086013 0.6374099 -0.059672374 -0.05714394
0001e0 6b 69 24 3f f4 66 01 bd a8 1a 82 3d 0a c6 3f 3f
       0.64223355 -0.031592324 0.063527405 0.7491156
0001f0 38 5e 73 bc 80 9a ee bc 8d a7 25 3f 95 56 b8 bd
       -0.0148540065 -0.029126406 0.6470879 -0.09000889
000200 c0 9c f5 3b 92 d3 14 3f c0 ff 3d bd 64 9a 8c 3d
       0.0074954927 0.5813533 -0.04638648 0.06865385
000210 a5 5e 06 3f 84 b7 b5 3c 3e 3e 1b bd a3 b7 27 3f
       0.52488166 0.022182234 -0.037901156 0.6551458
000220 54 71 ca 3d 44 2f 37 3d 88 11 39 3f a0 78 1b 3d
       0.09884897 0.04472281 0.72292376 0.037956834
000230 f8 8c 1c bd 3a ff 2f 3f a0 e3 69 bc ef 64 af bd
       -0.038220376 0.6874882 -0.014275461 -0.085641734
000240 4e 15 36 3f b4 a9 a6 3d 08 1d 89 3d 4f e7 5f 3f
       0.7112626 0.08137837 0.066949904 0.87462324
000250 18 a5 54 bd 34 06 54 3d 04 be 38 3f 02 80 c4 3d
       -0.05191526 0.05176373 0.7216494 0.09594728
000260 a0 5d b4 3c 19 bf 21 3f 60 d7 0c 3d 9c 1c 50 bd
       0.0220173 0.63182217 0.034385085 -0.050808534
000270 1a 3e 26 3f b4 26 8d 3c 2e 8d 95 3d 2b 3a 48 3f
       0.6493851 0.01723037 0.073023185 0.7821376
000280 c0 11 fb 3a 44 84 ae bc e3 52 33 3f ea c1 88 3d
       0.001915507 -0.021303304 0.7004835 0.06677611
000290 30 6b 01 bd c0 02 31 3f e9 c2 c8 bd 42 f8 84 bd
       -0.031596363 0.6914482 -0.09802801 -0.06492664
0002a0 52 b1 5e 3f ac 91 57 3d 98 5d 00 bd 90 72 3f 3f
       0.8698932 0.052629158 -0.031339258 0.74784184
0002b0 74 2a 45 3d be fb a3 3d c2 59 43 3f 88 4f ed bc
       0.04813619 0.080070004 0.76308835 -0.028968588
0002c0 b0 ab 8c 3b dc 79 3b 3f 68 29 66 3c de b8 87 bd
       0.0042929277 0.7323282 0.014047958 -0.066270575
0002d0 db d5 57 3f e3 2c 62 bd b8 cb c5 bd d1 03 2d 3f
       0.8431069 -0.05521859 -0.09657997 0.6758395
0002e0 4c e1 af 3d 54 bb 47 bd ff 77 17 3f 5c 46 a4 3d
       0.08587894 -0.048762634 0.59167475 0.080212325
0002f0 fc c4 b0 3d 2b d0 4c 3f c0 ab c4 3a 4e 43 8c bd
       0.08631322 0.8000514 0.0015004799 -0.06848775
000300 92 43 43 3c d8 e0 d5 3c aa d6 ba bd fb 5e de 3a
       0.0119179655 0.02610819 -0.09122975 0.0016965562
000310 dc fa a8 3d 3c 87 6a 3d ae 64 9b bd 08 72 69 3d
       0.08250973 0.057257876 -0.075875625 0.056993514
000320 f0 c5 c8 3b 56 a6 ae bd 52 b3 4a bd 70 aa 34 3d
       0.0061271116 -0.0852782 -0.04948742 0.044107854
000330 92 a5 49 bc 18 85 91 3c 1e b3 04 bd ce 0f f6 3c
       -0.012307541 0.01776366 -0.032397382 0.030036833
000340 d6 07 9e 3d e0 0c c3 3b 8e 35 d4 bd 44 e3 50 3d
       0.07716338 0.0059524626 -0.10361777 0.050997987
000350 a2 e0 7d bd d7 89 48 bd d8 4e ba 3d 75 9f b5 bd
       -0.061981805 -0.04895958 0.090970695 -0.08868305
000360 47 f7 d3 bd df 21 4e bd 82 c3 be 3d 5b 20 88 bd
       -0.10349899 -0.05032527 0.09314634 -0.06646796
000370 e2 f2 bd bd f0 d0 eb 3c 3a 55 83 3d b0 2c 43 3d
       -0.09274842 0.028786153 0.0641274 0.04765004
000380 9c 64 1c 3d 31 d4 c3 bd 98 3e 13 3d 12 06 c7 bd
       0.038181886 -0.09561957 0.035948366 -0.09717955
000390 0e 30 37 bd 2c 52 ab bc 30 32 a1 bd 92 a2 65 bd
       -0.044723563 -0.020913206 -0.07870901 -0.056063242
0003a0 72 de 9d bd 88 8a 91 3c 1b fc c8 bc 84 c6 bf 3d
       -0.07708444 0.017766252 -0.024534276 0.09364036
0003b0 ea 46 39 bd 57 61 14 bd 08 c1 60 3c 18 22 a1 bc
       -0.045233645 -0.036225643 0.013717897 -0.019669577
0003c0 3e 91 d1 bb e8 96 09 3d 16 a3 4c bd ac 10 2f 3b
       -0.006395488 0.03359118 -0.04996022 0.0026712818
0003d0 08 1b ca bd 7e a9 9e 3d a8 42 43 bd be 1a c5 bd
       -0.09868437 0.07747172 -0.04767099 -0.09624241
0003e0 df f8 9e bd 91 00 8a bc c0 ec fb bc b2 c1 87 3d
       -0.07762312 -0.016845973 -0.03075254 0.06628741
0003f0 ad e3 aa bd a0 5d 11 3c d8 1b c3 3d 7c f8 c5 3c
       -0.08344207 0.00887242 0.09526795 0.024166338

net.2.bias f4 [64]
000000 ee cf 56 3f 3d 8f 38 3f dc 7b 7a bd fb 9f cf bd
       0.83911026 0.72093564 -0.061153278 -0.10137936
000010 0c 58 61 3f a6 47 44 3f e0 cb 6b 3f fb b5 38 3f
       0.88024974 0.76671827 0.92107964 0.7215268
000020 e8 2f 89 bd 48 bd 46 3f 2a 44 06 bd 0c d8 5e 3f
       -0.066985905 0.7763257 -0.03277985 0.8704841
000030 ba 6d 3c 3f f6 df 96 bd 99 15 af 3c 0b bb 3c 3f
       0.7360493 -0.07366936 0.021372603 0.73722905
000040 7a eb eb bc bd 46 33 3f a8 ed 50 3f 32 68 3f 3c
       -0.028798807 0.70029813 0.81612635 0.011682557
000050 08 d0 1d 3c 98 40 8a 3d d9 d7 91 bd 3f 84 48 3f
       0.009632118 0.067506015 -0.07121248 0.7832679
000060 1b 77 3c 3f 40 75 3e 3f 6e 04 5d 3f 20 8b 3b 3f
       0.7361924 0.7439766 0.86334884 0.7325916
000070 88 2b 50 3f 45 d6 3d 3f 77 42 34 bc b9 30 64 3f
       0.81316423 0.74155074 -0.011002175 0.89136845
000080 11 fd 6f 3f 07 8c 31 3f 47 ec 3a 3f f6 76 db bd
       0.93745524 0.6935429 0.7301678 -0.107160494
000090 9a 29 f2 bd 07 9b 6a 3f 0e b5 4e 3f 11 28 5e 3f
       -0.11824341 0.916428 0.8074502 0.86779886
0000a0 c4 52 32 3f 81 7f 80 3c 1f 6b 41 3f 70 91 50 3d
       0.6965754 0.015685799 0.7555408 0.05091995
0000b0 89 92 57 3f c3 7e 37 3f 35 40 be bc ab 3b 5b 3f
       0.8420797 0.716778 -0.023223976 0.8563792
0000c0 34 ab 8a 3d 53 9d ae bd e1 79 2b 3f e6 95 42 3b
       0.06770936 -0.08526101 0.6698285 0.0029691397
0000d0 fa c9 59 3f 68 71 41 3f e6 eb 05 bf c6 7c 50 3f
       0.85073817 0.7556367 -0.5231308 0.8144039
0000e0 74 83 51 3f 7e 5e 5d 3f f8 16 9c 3c 24 6e 0c 3d
       0.81841207 0.8647231 0.019053921 0.034284726
0000f0 3c 15 47 3f af 10 43 3f 32 60 c7 3e 00 8b 52 3f
       0.77766776 0.7619733 0.3894058 0.8224335

fc.weight f4 [13, 64]
000000 45 e6 83 bd 02 d9 c8 3d 36 c1 82 bb 88 7a b6 bd
       -0.06440405 0.09807016 -0.0039903177 -0.0891009
000010 a2 20 91 bd 32 da c6 bd 5e 33 88 3d 76 34 ae 3c
       -0.07086302 -0.09709586 0.066504225 0.02126525
000020 af de 0f 3d f5 9b 6c 3c f6 7f 44 3b 1f 95 0c 3d
       0.035124477 0.01444148 0.0029983497 0.0343219
000030 d0 aa 3e 3e 19 fd f0 3d 3a 93 c0 3d 9d b7 40 bd
       0.18619847 0.117670245 0.09403081 -0.047050107
000040 c6 d6 19 3d 75 73 13 bd 98 ce bb 3d 24 7d 05 3d
       0.03755834 -0.03599878 0.09170264 0.032590047
000050 1a 27 ae bc 88 5e ed 3c 0b a6 ab bd a5 b3 44 3d
       -0.02125888 0.02897574 -0.083812796 0.048022885
000060 74 20 f3 3d 96 c0 69 bd 98 e2 00 be 73 d6 5b ba
       0.11871424 -0.05706843 -0.12586439 -0.00083861424
000070 0d c9 48 3d 40 3f a1 bb 56 bb bd 3d 3f b1 20 3d
       0.049019862 -0.00492087 0.09264247 0.039231535
000080 0f c7 47 3d db 34 00 3e f9 35 8b 3d aa a8 ac bd
       0.04877382 0.12520163 0.06797404 -0.084306076
000090 00 8e 7e 3e a6 28 ed 3d c9 1e a5 3c dc 44 df 3c
       0.24858856 0.11580019 0.020156281 0.027254514
0000a0 31 06 d4 bc 7b c0 f7 3d 67 ba 37 bb 15 2a 88 bd
       -0.025881859 0.120972596 -0.0028034688 -0.066486515
0000b0 23 d8 47 bd 0b 42 30 3d d3 8f 9f 3d 5e d5 ed bd
       -0.04879011 0.043031733 0.07791104 -0.11612962
0000c0 a0 53 cb 3d 3f b0 21 3d 46 c3 b0 3d da 17 b7 3d
       0.099280596 0.039474722 0.086309955 0.08940096
0000d0 21 82 a8 3d 6e ef a2 3c b2 d1 6d 3c 45 3c 32 bc
       0.08227945 0.01988956 0.014515327 -0.010878627
0000e0 32 05 87 3c 10 5e 77 be 0a c1 ec 3c 30 de c7 3c
       0.01648197 -0.24156976 0.028900642 0.02439794
0000f0 02 d5 f7 3d d7 62 97 3d 55 15 0b bd 21 7a de 3d
       0.12101175 0.07391899 -0.03395589 0.10863138
000100 07 7b ad 3d 51 e5 bb 3d b2 46 ee 3d 7f 05 b5 3d
       0.08470731 0.09174598 0.11634578 0.08838939
000110 e1 dc 14 bc 82 ee 4d 3c f9 cf d1 3d a7 67 80 3d
       -0.009085865 0.012569072 0.10244746 0.0626977
000120 3c 2a 18 bc 2b 38 0b bc b0 c2 f6 3c 7c 44 08 3d
       -0.009287413 -0.008497278 0.030122131 0.033268437
000130 12 ab 93 3d 33 9a 02 3d 66 05 85 bd c0 0d 22 3d
       0.072103634 0.031885337 -0.0649517 0.039563894
000140 50 8f a6 3d d7 97 ff 3d cb bd bf 3c 67 0e ad bc
       0.081328034 0.12480133 0.02340593 -0.021125032
000150 6c 08 49 bd 7e 7a 94 bd b0 1e b5 bc 71 fe 73 3e
       -0.049080297 -0.07249926 -0.02210936 0.2382753
000160 9b 6c b5 3c 81 6b 23 be 85 8e 97 3d 7f 09 a3 bd
       0.022146514 -0.15958978 0.0740023 -0.079607956
000170 25 ad df 3c b8 2a 11 3e fa e4 b5 3d 72 0a d0 3d
       0.027304241 0.14176452 0.088815644 0.10158242
000180 6e dd 29 be 58 da db bd 9b 42 f4 3d 79 30 87 bd
       -0.16588375 -0.10735005 0.119267665 -0.06601042
000190 83 c5 8e 3e 93 55 c5 3d d0 55 ba 3d 01 7d 1a 3e
       0.27885064 0.096354626 0.09098399 0.15086748
0001a0 81 aa 67 3d 63 a1 8b 3c be df ab bd 52 a1 e9 3d
       0.05655909 0.017044729 -0.08392285 0.114077225
0001b0 22 35 8a bd 8c c4 84 bd 31 e9 10 3c bb 6b 07 be
       -0.067484155 -0.06482801 0.00884466 -0.1322469
0001c0 b7 fe 19 bd fd ea c7 bd 5d aa 5a 3c 2f 2d 7e bd
       -0.03759643 -0.09761617 0.013346282 -0.06205481
0001d0 a0 cc 34 bd 51 67 1b 3d bf cd ba 3c 00 04 aa bd
       -0.044140458 0.037940327 0.022803186 -0.08301544
0001e0 b5 9c 74 bd ed b2 b5 bd ce 43 97 bb 0f 62 cd 3d
       -0.05971976 -0.08872018 -0.0046162372 0.10028469
0001f0 ed bd ed 3c 56 bc 7b 3b 19 3a a6 3c cf 30 de 3d
       0.029021228 0.0038411818 0.020291375 0.10849153
000200 2e ca d1 3c 49 7a 42 3e f4 eb 14 3e 4e 23 4e bd
       0.025609102 0.1899196 0.14543134 -0.050326638
000210 ff 95 4a 3e 2f 04 e1 3c 15 63 24 3e 93 d5 5c 3e
       0.19783781 0.027467815 0.16053422 0.21565847
000220 18 88 cb bb 9e 7a 2d 3d 42 50 83 bd 89 07 ec 3b
       -0.006211292 0.042353265 -0.06411792 0.0072030467
000230 ea 55 88 bd cb 97 ac 3c cf 5c 9d bd 31 e3 15 3e
       -0.06657012 0.021068474 -0.076837175 0.14637448
000240 66 80 d9 bd ca 9f 24 3d 97 25 34 bd 58 3f 2c bd
       -0.10620193 0.04019145 -0.04398116 -0.042052597
000250 60 5b 9d 3c 88 a1 96 bb e3 01 13 3e 89 1e 9e 3c
       0.01920861 -0.0045968927 0.14356188 0.01930167
000260 b4 2d 66 bd 14 f8 41 be af 99 15 3e e5 8e 12 3e
       -0.05619593 -0.1894229 0.14609407 0.14312322
000270 a9 41 8b bc a1 3c 6f 3d 10 83 04 3e 85 d9 9e 3d
       -0.016999083 0.05840743 0.12940621 0.07756332
000280 14 ff 34 3e b7 20 ea 3d 1a 75 04 3e 22 3a cb bb
       0.1767543 0.11432021 0.12935296 -0.0062019983
000290 b2 22 3d bf 1d 90 4d bd 29 0c fa 3d 85 1f b5 bc
       -0.73881066 -0.050186265 0.122093506 -0.022109756
0002a0 96 9f 9e 3d 79 90 db 3c 2c 0d 8b bd f6 0d 97 bd
       0.07745282 0.026802288 -0.06789622 -0.0737571
0002b0 fd ff b5 b9 8d 41 07 3e 9f f2 b4 bd dd 62 0d 3d
       -0.00034713736 0.132086 -0.08835339 0.03451811
0002c0 9f ae 07 bd 11 32 0a 3e 2c 34 31 bc 5f 6b e7 bd
       -0.033125516 0.13495661 -0.010815661 -0.11299776
0002d0 00 86 3f 3e 00 56 c7 bd d0 43 88 be 32 cf 08 3e
       0.1870346 -0.097332 -0.26614237 0.13360289
0002e0 8c 4c 3b be 2a 6b 21 bd cf ec 0b 3d d2 8c 92 3d
       -0.18290919 -0.03940884 0.034161385 0.071557656
0002f0 9f ba 0d 3e aa 19 57 3e 65 89 12 3f d2 78 a6 3c
       0.13840722 0.21005884 0.572409 0.020321283
000300 21 ed 4b bd c2 d8 8b bd f4 bc 14 3e 5a 5b cd 3c
       -0.04978669 -0.06828453 0.14525205 0.025067974
000310 92 7a b4 3d e4 cc b4 3d 7c 78 6e 3d ef ef 28 bd
       0.08812441 0.08828142 0.05822037 -0.041244444
000320 b5 c2 84 3b cd f2 e9 3c 03 b0 c8 3d 8c 34 04 3d
       0.004051531 0.02855816 0.097991966 0.032276675
000330 f8 73 81 3d 7f 29 c4 bd cb e1 4b bd f6 b4 ac 3d
       0.063209474 -0.09578227 -0.04977588 0.08432953
000340 c8 33 ad 3d 9d 38 d1 3d 6e 5f e8 bd 63 83 54 3d
       0.08457142 0.10215876 -0.11346327 0.051883113
000350 ba 6d f0 3d 28 69 41 3c b1 cc a2 3d 32 8e 2d bc
       0.11739679 0.011804856 0.07949198 -0.010592984
000360 7d 34 08 3c b7 67 c6 be 12 a3 9c bb bc 2b be 3d
       0.008313295 -0.38751003 -0.0047801817 0.092856854
000370 cf ef d7 3d 70 0c ba 3c a0 77 af 3d 28 21 e5 3d
       0.10543787 0.022711009 0.085677385 0.11187965
000380 27 c2 b8 3d 26 8c ca 3d 59 9e b4 3d ec a7 c4 3b
       0.090214066 0.098900124 0.08819265 0.006001463
000390 0b 41 2a 3e c9 35 4d bc e6 36 c9 bd 24 4b f1 bd
       0.16626374 -0.01252503 -0.09824924 -0.1178191
0003a0 47 d5 13 bd bb db 23 3d f9 af 18 3d a0 6b 13 bd
       -0.03609207 0.040004473 0.037277196 -0.03599131
0003b0 2c a4 1f 3c 7b 82 97 3c 3d e7 4b bd 59 52 a7 3d
       0.0097437315 0.018494835 -0.049781073 0.081700034
0003c0 6d 47 6b 3a 0a d7 00 3d 69 86 a1 bd 92 2f 8a 3d
       0.0008975182 0.031455077 -0.07886965 0.067473546
0003d0 77 79 48 bb c4 df dc bd 36 90 d8 bd a4 7d 1e 3e
       -0.0030589977 -0.107848674 -0.10574381 0.15477616
0003e0 5c f3 03 3f 1e 0d 70 be f6 96 f7 3d 16 d4 aa 3d
       0.5154321 -0.23442504 0.120893404 0.083412334
0003f0 61 df 32 bd 3f f6 ae 3d 20 57 13 bd df 82 06 3d
       -0.043670062 0.085430615 -0.03597176 0.032839652

fc.bias f4 [13]
000000 7d 3d b5 3e fd 1b dc 3e 39 20 e1 3e 90 22 5f 3e
       0.35398474 0.42990103 0.43969896 0.21790528
000010 0f 81 30 3e b1 15 00 3f b2 19 e7 b9 aa bc e9 3e
       0.17236732 0.500331 -0.00044078898 0.45651752
000020 cd 96 2e 3d f5 40 af 3e 06 e0 a3 3e 87 69 8f 3e
       0.042624284 0.34229246 0.32006854 0.28010198
000030 91 7e 8c 3e
       0.27440313
