top3_models/h12_ep30_bs64.pth (torch, 38237 bytes, 6 tensors)

net.0.weight f4 [32, 13, 3]
00000000: 3a62 2b3b a23a d0bd 5a91 d4bd 18f9 ebbe
00000010: e09e 693c bcb6 d43d a736 07bd 9c3d fc3d
00000020: 5812 0f3d e920 45be a0d9 c5bd 080b 243d
00000030: a231 babe 2061 b8bc 3fc8 15be 644d cc3c
00000040: e04b 3cbc f8b5 d43d 1dff 87bf 7839 1fbe
00000050: 2844 d2bc 5544 5bbf 4aa2 31bd d859 013d
00000060: c88b ca3d 406f adbb 2059 0e3d d5d3 f03e
00000070: 1de3 19be acd8 ae3d 73c0 4c3e 4aac 18be
00000080: 6068 203d aaf4 803e 5fb7 95bd 86f9 8a3d
00000090: f1b3 89be de53 56bd 5ab5 f2bd 8efd 9a3e
000000a0: 3834 553d 1f2e 1fbe 96e3 773d c87b 88bd
000000b0: d0f7 ff3d 98ba 853b e01a 0cbe 3cc6 d63d
000000c0: 4f46 983e 409c 75bc e6a1 05be 1472 a13e
000000d0: f4b3 073e 384b 123e 551e bfbd 30b3 08be
000000e0: e8b1 ab3c 4577 85be b23b 36bd a441 1bbe
000000f0: 6725 363f dee0 993d 68ca 1e3d a0bc 143e
00000100: 04a0 213e b01c 5d3c b0cd 083f c886 1e3e
00000110: b882 033e 00dd d53e d852 e8bc fc9f c13d
00000120: 19af 403e ec1f d33d f8b9 debd a58f 8d3e
00000130: 3a7c 163e f001 b43d 59f4 8f3c 30c5 9c3d
00000140: f316 20be 9f27 e4be ced8 213e bc37 a93d
00000150: 1f2b 03bf e801 f33d 5050 ca3d 740f df3d
00000160: 2c78 7f3d d6da 1ebe e642 7e3e e016 d63d
00000170: 1b62 d5bd aa77 123d c07b 723c c81c aebc
00000180: 67aa 9abd fc2a 1e3d 9c1c e23d e218 69be
00000190: 005b ddbc a3d6 1bbe 12c9 68bd 51df 06be
000001a0: 145c 97bd b6f7 483f a208 103e 9e64 23bd
000001b0: ae69 96be 69f7 fdbd 0095 d33d db42 153f
000001c0: 0010 08bb 087e d43d 8fda 80be 3512 a1bd
000001d0: 6e53 0f3e f689 ebbb e4b7 f03d b0d0 f83c
000001e0: b2e2 b0bd fa3a 823d dc7e e8bd 704f 9cbe
000001f0: e084 543c ca89 873d ae0f 55be 0c56 0e3e
00000200: d889 f2bc e899 b0be 08f7 f63c 1007 973d
00000210: 4664 803d bc69 a6bd 40c2 3f3c 146d 84bf
00000220: d989 95bd d81d 6e3d d460 86bf 6918 b1bd
00000230: 4f85 bdbd 3ade 013e 59a4 febd 545c 38bd
00000240: 324c d6be 28cb bb3d d48c e7bd 43bc 05bd
00000250: 74a5 6fbd d6fd 3bbd 7ff0 14be 20e2 983d
00000260: 921e 31bd dd57 11be ac42 c63d ac23 10bd
00000270: 9220 313e aa13 33bd c4de bd3d d340 14be
00000280: e665 38bd 9e68 e1bd 1fdc 96bd 1b14 a8bd
00000290: 0188 e9bd c8df e8bd bace 62bd c1ba efbd
000002a0: 1a6b f2bd 4876 473d 7ce3 e33d a7b9 aabc
000002b0: 6c73 df3d a8b1 ec3d d9e8 73be a8c5 a03d
000002c0: f85f debc ecac 6f3f 3399 aebd 7636 0bbe
000002d0: c299 193e 9c87 8e3d a0a1 2c3c eace ff3e
000002e0: 0a20 173e 785e 11be cb89 943e b433 d43d
000002f0: 485a 573d c3d7 55be a255 103e bec3 883d
00000300: ea99 93bd 5204 6abd 8e2d b4bd 4bd5 29be
00000310: c08a dbbb e6f1 033e 1b02 d1be dc40 2ebd
00000320: 2007 913c a0b0 3a3e 600d c6bb 6af6 16be
00000330: 0d33 a8bd 5b8d 03be 508b 0abc fde3 58be
00000340: a1ca 8bbd d9be e1bd 0fe7 393d 40ce e1bb
00000350: f8d9 8c3d 3a31 0b3d cc98 e53d 81c7 97bd
00000360: 84f1 b73f 8cad 333d b64e 2ebd a4e7 7b3d
00000370: 2d7b 85bd 3c5a bb3d cc7a 72be b486 a1bd
00000380: c03e 573c e258 16be ca2f 06be 780b 113e
00000390: 6ab1 f03e 1428 21be 5060 a5bd 8eda aa3e
000003a0: 353c 23be a849 203e 8656 373e 2163 9cbd
000003b0: a0a0 b0bb 6db7 73be 46cc 2ebd 74b8 0cbe
000003c0: 1fed a2be 0486 193d fec1 00be 4210 fabd
000003d0: 7478 04be 64e2 ce3d 01fa 0fbd d021 65bc
000003e0: 589e d63d a55a a5bd f0a4 2d3c 8456 57bd
000003f0: c893 913e 9858 e2bd 8883 d9bc 79b2 713f
0.0026151077 -0.10167433 -0.10379286 -0.4608848 0.01425907 0.10386416 -0.033011105 0.123164386
0.034929603 -0.19250835 -0.09660649 0.040049583 -0.36365992 -0.02250725 -0.14627169 0.024939246
-0.011492699 0.1038627 -1.0624729 -0.15549266 -0.025667265 -0.8565114 -0.04336766 0.031579822
0.098899424 -0.005292803 0.034752965 0.47036615 -0.15028043 0.08537421 0.19995289 -0.14909473
0.03916204 0.25186664 -0.07310366 0.06785874 -0.26895097 -0.052326076 -0.11850996 0.30271572
0.052051753 -0.15544938 0.060519777 -0.066642344 0.12498438 0.0040810816 -0.13682127 0.10487029
0.2974114 -0.014990866 -0.1305004 0.31532347 0.1325224 0.14286506 -0.09331957 -0.13349605
0.020958856 -0.26067558 -0.044490524 -0.15161759 0.7115082 0.07513593 0.03876725 0.1452508
0.15783697 0.013495609 0.53438854 0.15481102 0.12842834 0.41770172 -0.028359815 0.09454343
0.18816794 0.10308823 -0.108753145 0.27648655 0.14695826 0.08789432 0.017572569 0.07654798
-0.15633754 -0.44561478 0.1580536 0.082625836 -0.5123767 0.11865598 0.098786 0.10891619
0.062370464 -0.15513167 0.24830207 0.10453582 -0.10419103 0.03575865 0.014800012 -0.021253958
-0.07552033 0.03861521 0.11040613 -0.22763398 -0.027020931 -0.15218596 -0.05683238 -0.13171126
-0.073906094 0.78502977 0.14065793 -0.039890878 -0.29377502 -0.12400705 0.10331154 0.5830514
-0.002076149 0.10375601 -0.25166747 -0.07864801 0.1399667 -0.007188077 0.11753824 0.030372947
-0.08636989 0.06358905 -0.113523215 -0.30529356 0.012971133 0.06618078 -0.20806763 0.13900012
-0.029606745 -0.3449242 0.03014709 0.07374394 0.06269126 -0.08125636 0.011704028 -1.0345788
-0.07301683 0.05813393 -1.04983 -0.08647234 -0.09253942 0.12682429 -0.124336906 -0.045009926
-0.41855007 0.09169608 -0.11306158 -0.032650243 -0.058507398 -0.045896374 -0.14544867 0.07465005
-0.043242045 -0.14193673 0.096806854 -0.03519027 0.17297581 -0.043719925 0.09271005 -0.14477853
-0.045019053 -0.11006282 -0.073662035 -0.0820696 -0.11402894 -0.11370808 -0.05537293 -0.11705542
-0.11836834 0.048696786 0.111273736 -0.020840479 0.10910687 0.11557323 -0.23819293 0.078502
-0.02714537 0.9362323 -0.08525314 -0.13594994 0.1500006 0.06959459 0.010536581 0.4996255
0.14758316 -0.14196193 0.29011378 0.10361424 0.052576333 -0.20883088 0.14095166 0.0667796
-0.07207091 -0.057133026 -0.08797751 -0.16585271 -0.00669989 0.12885246 -0.4082192 -0.042542323
0.017703593 0.1823144 -0.006044075 -0.14742437 -0.08212862 -0.12846892 -0.008456066 -0.2118072
-0.06825758 -0.110227294 0.04538637 -0.006891042 0.06877512 0.033982493 0.11210784 -0.07411099
1.437058 0.04386668 -0.042555533 0.061500207 -0.065176345 0.0914807 -0.23679656 -0.07887021
0.013137519 -0.14682344 -0.13104168 0.14164531 0.47010356 -0.15737945 -0.08075011 0.3336987
-0.15940936 0.15653098 0.179041 -0.07636095 -0.0053902417 -0.2380044 -0.04267528 -0.13742238
-0.31821534 0.037481323 -0.12574002 -0.12210132 -0.12936574 0.10101774 -0.03515053 -0.013985112
0.104794204 -0.0807393 0.010598406 -0.052572742 0.2843306 -0.11052054 -0.026551977 0.9441295

net.0.bias f4 [32]
00000000: 86d1 843f 1107 ad3f 208f 9d3f 60de 953f
00000010: 67f8 a53f ce9d 9b3f 451b 913f 11e2 9b3f
00000020: f826 913f 3c85 7c3f 84a0 a53f e1bf 943f
00000030: fe34 9d3f 9197 b53f eb6a ad3f 5217 8f3f
00000040: b22c 843f 56fc 9b3f 1d33 ae3f c0e9 873f
00000050: ead3 9e3f a4f0 c03f 3ca2 b93f 7fdf 9b3f
00000060: 6944 b43f aeac 923f cfac 9f3f 06cf 933f
00000070: 9715 c23f ea3e 903f d297 9f3f a5e3 9b3f
1.0376441 1.3517781 1.2309303 1.1708488 1.2966431 1.2157533 1.1336447 1.2178365
1.1340017 0.986408 1.293961 1.1621057 1.2281797 1.4186879 1.3548254 1.1178992
1.032614 1.2186382 1.3609349 1.061821 1.2408421 1.5073438 1.4502635 1.217758
1.4083377 1.1458948 1.2474612 1.1547554 1.5162839 1.12692 1.2468207 1.2178847

net.2.weight f4 [64, 32, 3]
00000000: b600 293f 0cce 263d e24b 983d 7b97 2f3f
00000010: 3415 b8bc 20bf eb3c 107c 1f3f acec 6f3d
00000020: 8c89 9e3d 2e44 413f b891 6c3d a837 763d
00000030: c10c 3b3f e040 b63b 0069 2c3c 311c 523f
00000040: b8bd 0c3d e46c 253d c664 0e3f 4c19 4ebd
00000050: 7816 a8bd 563e 2f3f 408a 5dbb c84f ac3d
00000060: 3d80 033f 321e 853d bf53 c0bd bd5e 3a3f
00000070: e07c 4b3b bff8 b1bd 66ea 363f 0830 12bd
00000080: cd75 b8bd 98db 313f e2a3 6fbd 5875 403c
00000090: 0655 193f 9866 a43d 28b6 44bc f466 1b3f
000000a0: d87f 3b3c 8c72 42bd 4969 3c3f 8c1a a2bc
000000b0: d42e b2bd 1cff 343f f083 8bbd 32e2 04bd
000000c0: 3e75 113f 55cd 9fbd 7c93 493d bc39 2d3f
000000d0: 5338 3bbd d000 c9bb 7b7c 273f 2681 853d
000000e0: 2035 06bb 3c20 263f 1605 903d bc1a 783d
000000f0: 68cc 453f 523f b73d 040d ca3d c487 503f
00000100: 688c e43c f439 1a3d 2a8b 263f 5844 8f3d
00000110: 38bb 6b3d c46b 273f 648a 9cbc 7476 c33d
00000120: 2837 443f ccb0 05bd 0f18 bcbd d135 5b3f
00000130: 4861 b23d 9075 9a3d 2fae 4c3f 9070 cabb
00000140: e091 8c3b 2253 323f a840 bf3d 7ae0 aebd
00000150: fc16 3f3f c0f4 81bb cc20 25bd c8ae 013f
00000160: bc81 243d f0b0 ff3c 90e5 213f 5a3a 65bd
00000170: e41f 473d a4e0 2a3f 991a 95bd 2085 4e3d
00000180: d7b4 863c 54b2 023d a493 adbd 6597 f0bd
00000190: 7802 493c b0b7 31bc a48d d7bd 00f7 7abc
000001a0: 1cf9 ae3c c44f afbd 8691 a83d c0e8 6abc
000001b0: b02e f7bd 40ee 06bc 0c1d 21bd 427a 08bd
000001c0: c492 b9bc 37d4 75bd 5150 293d 4a8b c43d
000001d0: 6649 93bd e9f8 69bd 5692 8a3d c669 60bd
000001e0: 7a69 0fbd 103f 9bbb bec0 a73d 82e0 5b3d
000001f0: cc1d a43c aaf5 bdbd 5fb6 8ebd 3e96 39bd
00000200: f2ab b1bd 2d36 4bbb b0c2 923d f299 b63d
00000210: c67f 27bd 0894 6ebc 6835 76bd 5ac8 d8bd
00000220: 0416 813c 13ec 70bd 182b 0d3c 6e62 823d
00000230: 98e8 463d efc9 a83d 3cd2 e7bc f45f a03d
00000240: ac46 633d 6619 c9bd 0ad2 8cbd 23e3 a6bd
00000250: 3a88 c6bd c82e 7dbc 8c37 d2bb 0072 2d3c
00000260: 7e68 c93d 39bf 8d3d cc68 d9bc fc00 cd3d
00000270: 481c 94bd 0a57 bcbd c43b 063d 7397 043c
00000280: eaeb 06bd f060 e0bc 714d 4abd a0ed a63c
00000290: d816 a63d 9b67 5bbd 566a b4bd 804d 733d
000002a0: a789 af3c 0c02 8f3c 98c1 a13d a967 babd
000002b0: 727b 873d 44d1 bc3d b3e2 f1bc 6801 4b3d
000002c0: e877 db3c f711 e7bd 3809 b63c 86c6 c0bd
000002d0: 35b4 d1bc 9810 29bc ca17 9fbd 4a74 c0bd
000002e0: e61a c93d 3ced 19bd 449a 033c 00d6 64bc
000002f0: dcb1 b7bc 6fc1 2b3c 1893 013c 28bd 9dbd
00000300: fd39 063f 1cce 05bd 6446 54bd 2e65 193f
00000310: 83b0 bfbd f4ea 82bd ce56 213f aefb c73d
00000320: fc1e e1bc 12fa 2b3f d87c 993d 5ec7 23bd
00000330: c8a7 1a3f 38f3 5a3c 0b0e acbd 7d70 523f
00000340: 9932 c9bd bcf5 663d 9c2d 1a3f 26a4 b0bd
00000350: 0080 863c da1b 233f d6a5 85bd 6ca0 4e3d
00000360: bd6c e53e 5cab 823d 4076 e5bb b194 4c3f
00000370: 9859 ca3d debf 1bbd 9571 133f fc5a b5bd
00000380: 7468 073d ed0b 273f 0039 cfb9 f044 fe3c
00000390: 0b0f f13e c0cb 52bc 0249 8fbd d738 113f
000003a0: b2ad a63d 2018 023c ca51 4c3f c073 113d
000003b0: 140b 0a3d fce7 163f 407b fa3b 0a32 08bd
000003c0: ecfb ee3e 42d4 85bd 6dd3 67bd 12ad 403f
000003d0: faf4 15bd c8db ac3d 0ccb 313f 368e 1cbd
000003e0: a434 ac3d ce35 1e3f 1879 4c3d 004a bcbc
000003f0: 3202 243f c0d8 933d 70b0 3a3d b85c 593f
0.6601671 0.040723845 0.074363485 0.68590516 -0.022471048 0.028777659 0.6229868 0.058575317
0.07741079 0.7549466 0.057756156 0.06011167 0.73066336 0.005561933 0.010523081 0.82074267
0.034360617 0.04038705 0.5562252 -0.050317094 -0.082074106 0.6845449 -0.0033804327 0.084136546
0.5136755 0.064999 -0.09390973 0.7280081 0.0031049773 -0.08690023 0.71451414 -0.035690337
-0.09006844 0.694757 -0.0585059 0.011746727 0.5989536 0.08027381 -0.01200632 0.6070397
0.011444055 -0.04747252 0.7359815 -0.01978805 -0.08700338 0.70701766 -0.068122745 -0.03244228
0.5681952 -0.07802836 0.049212918 0.6766622 -0.04570801 -0.00613413 0.6542432 0.06518774
-0.0020478442 0.64892936 0.0703222 0.06057237 0.77265024 0.08947624 0.09865764 0.8145716
0.027898982 0.037652925 0.650561 0.069954574 0.057551593 0.6539881 -0.019108959 0.095440775
0.7664666 -0.03263931 -0.09184276 0.8562899 0.08709961 0.075419545 0.79953283 -0.0061779693
0.0042898506 0.696581 0.09338504 -0.08538909 0.74644446 -0.003965944 -0.04031448 0.5065732
0.040162787 0.0312123 0.6324091 -0.05596385 0.048614398 0.66749024 -0.07280464 0.050419927
0.016443653 0.03190835 -0.08475426 -0.11747626 0.012268655 -0.010847017 -0.10525063 -0.015317678
0.021359019 -0.08560136 0.082308814 -0.0143377185 -0.12069452 -0.008235514 -0.039334342 -0.03331972
-0.022652991 -0.060016837 0.04133636 0.0959688 -0.07191734 -0.057122145 0.067661926 -0.054788373
-0.0350127 -0.0047377422 0.081910595 0.053680904 0.02003374 -0.09275372 -0.06968378 -0.045309298
-0.08675374 -0.0031007633 0.0716604 0.089160815 -0.04089334 -0.014561661 -0.060109526 -0.10585089
0.015757568 -0.058818888 0.008616231 0.0636643 0.048561662 0.08241641 -0.02829849 0.078308016
0.05548732 -0.098192975 -0.06875999 -0.08148792 -0.09693952 -0.015453048 -0.006415313 0.010586262
0.098343834 0.069212385 -0.026539229 0.100099534 -0.07231957 -0.09196289 0.03277184 0.008092749
-0.03293983 -0.027389973 -0.04939026 0.02037698 0.08109826 -0.053565603 -0.088093445 0.05940008
0.021427942 0.01745703 0.07898253 -0.09101803 0.06615342 0.09219602 -0.029527044 0.049561888
0.026790574 -0.112827234 0.022221193 -0.09412865 -0.025598625 -0.010318898 -0.07768209 -0.093971804
0.098195836 -0.03757976 0.008032385 -0.013967037 -0.022423677 0.01048313 0.007908605 -0.07702094
0.52432233 -0.032667264 -0.051824942 0.5992001 -0.09359839 -0.0639247 0.6302308 0.09764801
-0.027480595 0.6717845 0.07494515 -0.039985053 0.60412264 0.013363652 -0.08401116 0.82202893
-0.09824104 0.056386694 0.60225844 -0.08625059 0.016418457 0.63714373 -0.06525771 0.05044596
0.44809523 0.063803405 -0.007002622 0.79914385 0.0988037 -0.038024776 0.5759519 -0.088552445
0.0330586 0.6525257 -0.00039524585 0.031038731 0.4708179 -0.012865961 -0.06996347 0.56727356
0.081385985 0.007940322 0.798123 0.03551078 0.03370197 0.5894773 0.007644087 -0.033250846
0.46676576 -0.065346256 -0.056598116 0.75264084 -0.03661058 0.084403574 0.6945045 -0.03822156
0.08408478 0.6180085 0.04992017 -0.022984505 0.6406585 0.07219076 0.04557842 0.849071

net.2.bias f4 [64]
00000000: 87e8 2b3f b19d 673c c060 553f c441 e6bc
00000010: af7d 583f a239 b63c ed47 943f 2c8a 553f
00000020: be30 3a3f 1ca8 343f 7959 323f 957e 473f
00000030: 4389 81bd 5145 2e3f e927 40bf d07c 563d
00000040: e5d9 523f e0b9 483f c790 4d3c 6ffd 453f
00000050: 7573 2d3f c43a 5f3f 0df4 6d3f 5dcb 3c3f
00000060: 8945 2e3f ef44 5e3f 2711 573f af80 2b3f
00000070: ccd7 543f 676d 563d b9a4 bebf 5e74 3d3f
00000080: b3bc 3b3f d7f3 82bf 4e14 3f3f a2c7 9abd
00000090: d7fd 15be 67ef 2f3f 278e 0d3d dcd9 debd
000000a0: b62f babf 32e5 51bf f3c6 603f fc0a 323f
000000b0: 9c09 4a3f 3f9b 493f ca36 2b3f 0ad1 443f
000000c0: 1c67 493f bb83 3c3f 2e99 413f 6f87 243f
000000d0: c342 523f 0317 3c3f 3fc1 6e3d 775d 5d3d
000000e0: eece e6bd ebd6 623f dcdd 9cbd 298b 673f
000000f0: 58e4 193d 06e3 343f 29b1 43bf 7b50 3a3f
0.67151684 0.014136718 0.83350754 -0.028107531 0.8456678 0.022244278 1.158445 0.8341396
0.72730625 0.70569015 0.69667774 0.77927524 -0.06325009 0.6807452 -0.750609 0.052365124
0.8236373 0.7840862 0.012546725 0.77339834 0.677543 0.87199044 0.92950517 0.7374781
0.6807485 0.86823934 0.8401055 0.6699323 0.8314178 0.052350428 -1.4894019 0.7400569
0.7333481 -1.0230664 0.7464036 -0.07557608 -0.14647613 0.68724674 0.034559395 -0.10881397
-1.454581 -0.8199035 0.8780357 0.6954801 0.7892091 0.7875251 0.66880476 0.7688147
0.7867296 0.73638505 0.7562436 0.64269155 0.8213312 0.73472613 0.058289763 0.054044213
-0.112699375 0.8860919 -0.07659504 0.90446717 0.03757128 0.7065891 -0.764422 0.72779053

fc.weight f4 [13, 64]
00000000: 275f 19bd a0ad 1c3d 655b 70bd 1467 953d
00000010: b3c9 c03c e04d ad3d 2369 1e3e 9259 793d
00000020: a96b ac3d 1045 89bd 23ed 91bd fe63 44bd
00000030: a73c 5fbd fcac 163e b23b 79bd 41ae c33c
00000040: b2b5 183e 7cc8 2dbd c562 923c 6381 a73d
00000050: 1c48 88bd ccb9 393d 4823 5e3d 673d 1ebd
00000060: 7b00 c1bd 8d1b a43d 6606 d63d a430 993d
00000070: c033 98bd 219c 323d a038 0dbe 1223 073e
00000080: 35b7 05bd 6a7d 9c3d 29f8 6abc a5c1 ba3d
00000090: c2ba 37bd 625b 953d 493d be3d 5052 8cba
000000a0: 9588 94bc fa23 1cbe f510 603d 9c75 b0bd
000000b0: 7a32 a93d 7bc5 453d 3b5f 57bd 5c63 ffbd
000000c0: 76f6 033d 34a4 e53d d930 0a3e d6bc 173e
000000d0: 253b 76bd 0e4b 0f3d 682b 953d 79a0 9f3d
000000e0: 9bde 2ebd 8514 d53d 34bd 0a3e aefa 52bd
000000f0: 5a2e 55bd 39ce 7dbd 9ba1 06be 7ec0 903d
00000100: b091 e73d 76cd a83d 0ba2 8e3d 1de2 003e
00000110: 9fdb a33d a911 11bd eb1b 793e f5e2 2f3d
00000120: 1edb 73bd ac27 093e 2835 95bd e1a2 b73c
00000130: 5c86 9e3d 53ca 403e 2b62 cbbd 400b 2bbd
00000140: e739 9cbd 6050 acbc 7fc4 643d 71cd acbd
00000150: 4a00 cb3c 6f0d 59bc ffb4 d33d c9da 283e
00000160: a9ef c3bc caaf 9d3d 9ce1 9a3c 27be b3bd
00000170: 4e0d bcbd 2b95 df3c 3ebe 27be a995 95bc
00000180: b461 8cbd 6123 cf3c 7adc a33d 14c2 bb3c
00000190: c870 9f3b e219 b9bb 3d27 0f3e bff5 493d
000001a0: dc31 91bd 2caf 5fbe 0e55 ff3d a3e0 0e3e
000001b0: 27ec e53d 4b6e df3d 8498 e33a ef33 f83d
000001c0: 2cc2 5bbd 4382 ec3d a443 abbd 347a 6f3d
000001d0: e8b3 48bd 8743 08bd e966 683d f00e 913d
000001e0: 0e89 b73d b557 1bbd 1d8c ae3d 2ab9 473c
000001f0: bb97 063e ee08 38be f818 4dbe d543 123e
00000200: 13ba 2c3e a99a 1bbd b8cb 123e 372b b7bd
00000210: 85cb 103b 75cd d4bd b7c3 3bbe ab8b 39bd
00000220: 5bca 99bc 83f1 dd3d 1a24 e9bc 5839 183e
00000230: dc5e 69bb f865 40be 5295 c6be 9577 c13d
00000240: bce1 27bd 1250 313d 4ff9 b5bc b423 3d3e
00000250: 66a3 173e c102 1bbd f7f0 953d 5cec 723d
00000260: 4a16 1f3e f090 6c3d 0c2e c63d cbc8 423d
00000270: d8b2 b4b9 09f7 8ebd 4381 08bf 772c 39bd
00000280: a59e 813d 81a2 80be 518d 1d3e e7aa 983c
00000290: 44d2 7bbe 9c13 b73d 2c6e a3bd 1e36 f7bc
000002a0: 53ab abbe 0df6 abbe 2400 063e a2ed 4b3e
000002b0: 8d43 ab3d 018b 203e 2d52 1ebd 4c4e 80bc
000002c0: ac4b 893d e936 653c 5034 863d 04eb f83d
000002d0: a199 143e eb87 0ebd 6802 0d3d 0726 93bd
000002e0: 4328 803d 7730 503d 67e4 133e cca4 bf3d
000002f0: 1aef ae3a 4465 cabc ff56 1c3e 9b6a 0c3e
00000300: dcb3 c5bd 201d 883d fda2 aa3d a4fa 103d
00000310: d462 b53d d892 083e fd2b 49bd b096 1e3d
00000320: f867 6ebd 2d0a f93a 1673 d63d 75a0 f63d
00000330: 449c c7bd 37dd e5bd 962c bd3e 3cd5 4cbd
00000340: 09e5 7fbd b8bc a7bc 0984 abba 763e 183e
00000350: 8d0d f0bd 4567 8bbc ddfa 0b3e 956b d8bd
00000360: aef6 ceba ea62 acbc 9923 da3d 4c87 843d
00000370: 0fdc e4bd ec08 203d f49f ecbe 3fdb d3bd
00000380: 7a6c 013e 9c4f f3bd e6d8 37bd 3f24 28bb
00000390: 3aa8 543f 715c 32bc 649c ca3c 1581 53bd
000003a0: e307 803e 6432 90bd 7b2c 6d3c da88 7abb
000003b0: 8247 84bd 71b6 34bc 719f 27bd ea32 3b3d
000003c0: 9f8b 073d 9a56 a0bd ca9d 833d 291c 253e
000003d0: b587 cfbd bce2 773d 5165 0abc 9e1e 9ebc
000003e0: 2750 d73d 0aaf d43d e634 f63d 1976 bb3d
000003f0: 3915 1abd b090 91bd e3da 27be 488f ab3d
-0.03744426 0.03825152 -0.05868091 0.07295051 0.023533678 0.08462119 0.15469794 0.060876437
0.08418972 -0.06702626 -0.07125308 -0.047946922 -0.054501202 0.14714426 -0.060847946 0.023886802
0.14913061 -0.042427525 0.017869363 0.081789754 -0.06654379 0.045343205 0.054232866 -0.038632777
-0.0942392 0.080130674 0.10450439 0.074799806 -0.074317455 0.043605927 -0.13791132 0.13196972
-0.032645423 0.07641108 -0.014341393 0.09118966 -0.04485584 0.072928205 0.09289033 -0.0010705683
-0.018131534 -0.15248099 0.05470367 -0.08616182 0.08261581 0.048284035 -0.052581053 -0.12470123
0.032217465 0.1121296 0.13495196 0.14818129 -0.060115 0.034983687 0.0728367 0.077942796
-0.042692762 0.104043044 0.13548738 -0.051508598 -0.052046157 -0.061964247 -0.13147585 0.07067965
0.113070846 0.082423136 0.06964501 0.12586255 0.08000874 -0.035417233 0.24327056 0.042941052
-0.05953514 0.1339404 -0.072855294 0.022416534 0.07740471 0.1882718 -0.099308334 -0.041758776
-0.076282315 -0.02103442 0.055851456 -0.08437622 0.024780411 -0.013247832 0.10337257 0.1648971
-0.02391799 0.07699545 0.018906407 -0.08776503 -0.09182225 0.027292809 -0.16381165 -0.01825984
-0.06854573 0.025285425 0.08001037 0.022919692 0.0048657395 -0.0056488374 0.13979812 0.049306627
-0.07089588 -0.21844167 0.12467395 0.1395288 0.11226683 0.109097086 0.0017364179 0.121192805
-0.053651974 0.11548283 -0.08362511 0.05846615 -0.048999697 -0.033267524 0.056738768 0.07082927
0.08961688 -0.03792544 0.08522818 0.012190143 0.13143818 -0.17972156 -0.20029056 0.14283688
0.16867857 -0.037989292 0.14335525 -0.089437895 0.0022093963 -0.1039075 -0.18336378 -0.045299213
-0.018773248 0.1083708 -0.028459597 0.14865625 -0.003560952 -0.18788898 -0.38785797 0.094466366
-0.04098676 0.04328925 -0.022213606 0.18470651 0.14808425 -0.037844423 0.07321351 0.05930744
0.15535846 0.05775541 0.096767515 0.047554772 -0.00034465524 -0.06980712 -0.5332224 -0.04520842
0.06329087 -0.2512398 0.15385939 0.01863618 -0.24591929 0.08939287 -0.07979998 -0.030177172
-0.33529148 -0.3358616 0.13085991 0.19914868 0.08362494 0.15678026 -0.038652588 -0.015662335
0.067038864 0.013990142 0.065529466 0.12154201 0.1451173 -0.03479759 0.034426123 -0.071849875
0.06257679 0.05082747 0.14442597 0.093576044 0.0013346404 -0.02470649 0.15267561 0.13712542
-0.09653446 0.0664618 0.08331869 0.03539528 0.088567406 0.13337266 -0.049114216 0.038717926
-0.05820462 0.0019000225 0.1047117 0.120423235 -0.09746602 -0.11223834 0.3694808 -0.050008044
-0.062474284 -0.02047573 -0.0013085614 0.14867577 -0.117213346 -0.017017016 0.13669915 -0.10567395
-0.0015790069 -0.02104326 0.10651321 0.06471118 -0.11174785 0.03907101 -0.46215785 -0.10344552
0.12639037 -0.11880419 -0.044884585 -0.002565637 0.83069193 -0.010886298 0.024732776 -0.051636774
0.25006017 -0.07040861 0.014475937 -0.0038228543 -0.064589515 -0.011029826 -0.04092354 0.045702852
0.033092137 -0.07829018 0.0642658 0.16124023 -0.10133306 0.060518965 -0.008447007 -0.019301709
0.10513335 0.103849486 0.12021808 0.09153385 -0.037617896 -0.07107675 -0.16392092 0.08376938

fc.bias f4 [13]
00000000: 933a d03e a0a5 883e 3b57 d63e 6499 6b3e
00000010: 7b36 c43e b627 ec3e b770 d13d ae6c e93e
00000020: 4d37 00bd 47ce bc3e 733c 9e3e 7f83 ce3e
00000030: 89b0 e43e
0.4066969 0.26688862 0.41863427 0.23007733 0.38322815 0.46124047 0.10226577 0.4559073
-0.03130274 0.36876127 0.30905494 0.403347 0.44665936
