top3_models/h6_ep50_bs64.pth (torch, 38225 bytes, 6 tensors)

net.0.weight f4 [32, 13, 3]
0.0059044803 -0.0020374358 0.012951329 -0.14851223 -0.15655373 -0.0901619 0.09681641 -0.05309543
0.027501658 -0.21770868 -0.015643999 0.08893053 -0.20273444 0.13547301 0.14710802 0.11688571
-0.14760213 0.14139536 -0.3066793 0.028346151 0.08827078 -0.8004716 -0.09875606 -0.016126588
0.05760032 0.04779294 0.12563929 -0.4695304 -0.05905813 0.1413328 0.17917271 -0.01299566
-0.025789246 -0.0017051535 0.06438416 0.008465603 -0.071692996 -0.096709415 -0.11547519 -0.010305819
0.009118363 -0.04301195 -0.028768437 0.008278966 0.0538681 -0.17647865 0.10864359 0.06935957
-0.06719955 0.07127927 0.070723504 0.0753391 -0.109595515 0.12580803 0.02181438 0.09746295
0.033209503 0.06596199 -0.0032335818 0.036754847 1.1221539 0.15956324 0.077227145 -0.03285083
-0.135644 0.059139162 -0.30118567 0.12683642 -0.15113176 -0.072858855 0.06993152 -0.050474122
0.13984798 -0.049449213 -0.15521152 0.14218898 0.07853435 -0.06260387 0.055915933 -0.06976788
0.106555015 -0.02520647 0.05181271 -0.10813393 -0.07434982 0.11590868 -0.10487841 0.11637765
0.006727904 -0.099141076 -0.084647514 0.057093054 0.15694371 -0.001897756 -0.116707474 -0.06965161
-1.2220912 0.020715743 -0.07688102 -0.98563105 -0.0716042 -0.15863737 -0.08610502 -0.07767616
-0.13479109 -0.14609207 -0.08465202 -0.13964216 -0.048395004 0.09887096 0.15036926 0.012057966
-0.01271981 0.109181255 0.0023180824 -0.15220724 0.051185474 0.08632003 0.046239913 -0.10144935
-0.08667171 0.14324874 -0.0602047 -0.055281065 0.05771002 -0.10948419 0.025119169 0.07853827
-0.13748868 -0.14440401 -0.045899063 0.04667674 -0.047409818 0.09691593 -0.1086244 0.22655576
0.0031491816 -0.10439894 1.1644491 0.089104995 0.13408679 -0.07680033 0.08537102 0.049444586
0.46541524 0.1259155 0.09249535 0.11369225 0.15258098 0.113975495 -0.037753653 -0.11417897
0.10715878 0.15019041 0.045919776 -0.10474233 0.09618757 -0.15792744 -0.08086987 -0.16784337
0.039608464 0.062260494 0.102394395 0.07655577 -0.13008991 -0.11640806 -0.03831672 0.13232219
0.005416047 0.08164452 -0.12664059 0.31827223 0.094575346 -0.05037091 -0.0830563 -0.15984559
-0.15364511 1.2573662 -0.14702742 0.012124628 -0.12650459 0.047796965 -0.11321102 -0.5015258
0.14741167 0.04655175 -0.22530559 -0.057997577 -0.09669563 0.13605095 0.049240053 -0.02578713
0.089462794 0.15583313 0.061327428 0.17381118 0.0709057 0.059164584 0.074516125 0.05606526
-0.15373726 -0.02929472 0.017905682 0.15628406 -0.037149828 -0.12100364 -0.03729725 -0.12391815
0.08829768 -0.12261913 -0.14784674 -0.0739216 0.103719056 -0.18240492 0.11901012 -0.076594636
0.29711506 -0.121949896 0.02848643 -0.03170307 -0.113938764 0.025735348 0.6891951 -0.06958232
-0.07352026 0.47405833 0.11056191 0.15035167 -0.20793578 0.06302306 -0.082222156 -0.092623204
-0.11129976 -0.15832844 0.13264546 -0.1274359 0.07047565 -0.18999693 -0.08832716 0.01078032
-0.18759453 -0.090860106 0.11963251 0.008756815 0.0646382 -0.14485109 -0.096118435 -0.093510404
0.15179414 -0.12572347 0.100104034 0.13591975 -0.04428842 0.056031644 -0.15260796 1.0233991
00000000: 5f7a c13b 8086 05bb d031 543c 9713 18be
00000010: 9f4f 20be cda6 b8bd af47 c63d 987a 59bd
00000020: 284b e13c 06ef 5ebe d827 80bc 3621 b63d
00000030: 9e99 4fbe 70b9 0a3e 7ca3 163e c661 ef3d
00000040: 0325 17be f2c9 103e 1205 9dbe 3036 e83c
00000050: 50c7 b43d b5eb 4cbf 9e40 cabd e81b 84bc
00000060: 50ee 6b3d 88c2 433d 96a7 003e 4a66 f0be
00000070: f0e6 71bd 8cb9 103e 0d79 373e c0eb 54bc
00000080: f843 d3bc 757f dfba d8db 833d 50b3 0a3c
00000090: c7d3 92bd 960f c6bd 427e ecbd bdd9 28bc
000000a0: 3065 153c 4c2d 30bd c9ab ebbc 80a4 073c
000000b0: cca4 5c3d d2b6 34be 8880 de3d 640c 8e3d
000000c0: eb9f 89bd defa 913d 7cd7 903d 634b 9a3d
000000d0: 9d73 e0bd d2d3 003e 12b4 b23c a89a c73d
000000e0: b006 083d 1417 873d 80ea 53bb 408c 163d
000000f0: bda2 8f3f 8c64 233e 4429 9e3d 988e 06bd
00000100: 43e6 0abe e83b 723d 0235 9abe 68e1 013e
00000110: 49c2 1abe 0637 95bd 4238 8f3d f4bd 4ebd
00000120: 4f34 0f3e 428b 4abd c5ef 1ebe fd99 113e
00000130: 9ed6 a03d 7536 80bd 1b08 653d 76e2 8ebd
00000140: 8439 da3d cd7d cebc 9039 543d 5275 ddbd
00000150: b844 98bd 8861 ed3d 7eca d6bd 6857 ee3d
00000160: c075 dc3b 7a0a cbbd ad5b adbd 68da 693d
00000170: dab5 203e 20be f8ba 5404 efbd 81a5 8ebd
00000180: 7c6d 9cbf 10b4 a93c cc73 9dbd 5152 7cbf
00000190: 39a5 92bd d671 22be d457 b0bd ae14 9fbd
000001a0: ad06 0abe 2999 15be 0a5e adbd 5bfe 0ebe
000001b0: d739 46bd dc7c ca3d 66fa 193e c68e 453c
000001c0: c066 50bc 6c9a df3d f8ea 173b 37dc 1bbe
000001d0: dca7 513d 8ec8 b03d 1066 3d3d adc4 cfbd
000001e0: f080 b1bd ccaf 123e 3499 76bd 666e 62bd
000001f0: 5861 6c3d 3f39 e0bd b7c6 cd3c acd8 a03d
00000200: d5c9 0cbe a5de 13be a800 3cbd 1c30 3f3d
00000210: cc30 42bd dc7b c63d 7876 debd 3cfe 673e
00000220: 8062 4e3b 1dcf d5bd ab0c 953f ae7c b63d
00000230: 0c4e 093e 7e49 9dbd 00d7 ae3d 6886 4a3d
00000240: e84a ee3e feef 003e 346e bd3d 7bd7 e83d
00000250: 303e 1c3e fc6b e93d 93a3 1abd aad6 e9bd
00000260: 1076 db3d 84cb 193e 6016 3c3d 2683 d6bd
00000270: fdfd c43d bbb7 21be 1a9f a5bd 22df 2bbe
00000280: 7c3c 223d dc04 7f3d 27b4 d13d 46c9 9c3d
00000290: 4a36 05be 5967 eebd fef1 1cbd 787f 073e
000002a0: 1879 b13b 3e35 a73d 12ae 01be 94f4 a23e
000002b0: b8b0 c13d ba51 4ebd 6c19 aabd 90ae 23be
000002c0: 2555 1dbe 60f1 a03f 5b8e 16be 60a6 463c
000002d0: 6b8a 01be c0c6 433d 2edb e7bd ff63 00bf
000002e0: 16f3 163e 0cad 3e3d 82b6 66be de8e 6dbd
000002f0: 5c08 c6bd f150 0b3e f0af 493d 883f d3bc
00000300: 4538 b73d b892 1f3e 7832 7b3d 8ffb 313e
00000310: 0237 913d 9056 723d e99b 983d b0a4 653d
00000320: 4d6d 1dbe 7bfb efbc f0ae 923c ee08 203e
00000330: 6b2a 18bd c2d0 f7bd 00c5 18bd cdc8 fdbd
00000340: 6ad5 b43d bd1f fbbd 2365 17be 3564 97bd
00000350: a86a d43d 5bc8 3abe 94bb f33d a6dd 9cbd
00000360: 771f 983e dec0 f9bd 605c e93c 14db 01bd
00000370: ba58 e9bd f0d2 d23c 176f 303f 2d81 8ebd
00000380: ca91 96bd c6b7 f23e 486e e23d caf5 193e
00000390: 1eed 54be 3c12 813d 1764 a8bd 3cb1 bdbd
000003a0: 21f1 e3bd da20 22be 36d4 073e 8e7e 02be
000003b0: 8a55 903d 8e8e 42be dfe4 b4bd f09f 303c
000003c0: c818 40be dd14 babd e401 f53d bf78 0f3c
000003d0: 0861 843d d853 14be bed9 c4bd 6282 bfbd
000003e0: ec6f 1b3e a7bd 00be 5803 cd3d 8c2e 0b3e
000003f0: c667 35bd 7081 653d 4345 1cbe befe 823f

net.0.bias f4 [32]
1.2828835 1.5815753 1.0144379 1.4574891 1.203736 1.4038395 1.3878955 0.96185946
1.1907316 1.4611166 1.2798399 1.319105 1.5282589 1.1903104 1.0510539 1.4356467
1.214958 1.2465316 1.3918617 1.34481 1.5561035 1.0769259 1.0987854 1.1865909
1.3274542 1.3030018 1.0087773 1.47712 1.1406416 1.3353919 1.3939028 1.487703
00000000: 8735 a43f 0f71 ca3f 1ad9 813f 018f ba3f
00000010: 0514 9a3f 03b1 b33f 8fa6 b13f 6c3c 763f
00000020: e569 983f de05 bb3f cbd1 a33f 6fd8 a83f
00000030: fd9d c33f 175c 983f ef88 863f 45c3 b73f
00000040: be83 9b3f 598e 9f3f 8628 b23f bc22 ac3f
00000050: 662e c73f b5d8 893f 00a5 8c3f 36e2 973f
00000060: 05ea a93f c3c8 a63f 9d1f 813f 4512 bd3f
00000070: 8b00 923f 1fee aa3f 686b b23f 0d6d be3f

net.2.weight f4 [64, 32, 3]
-0.7579307 0.010261901 -0.06736128 -1.3638078 0.021826014 -0.05051928 0.7851764 0.032539815
0.08293547 -1.3793601 0.01854238 -0.09492558 -0.49846542 -0.01119826 -0.033232458 -0.5912274
-0.04595202 -0.10120238 -1.4912988 -0.029789783 -0.06771456 0.80364364 0.05717407 -0.07464343
-0.36193904 0.044197515 0.06331788 0.29854748 0.08911276 -0.06828002 -0.20092823 0.03156194
0.07218762 1.212905 0.050112307 0.024234027 -1.3444078 -0.059710067 -0.0130311325 0.90118235
0.021468557 -0.08111448 0.67957 -0.05143669 0.06433782 0.08235534 0.048950493 -0.050195243
0.83685195 -0.09369209 -0.10100384 -0.25556052 -0.10158004 0.033918932 0.40391815 -0.093456574
-0.029888235 -0.8263811 -0.074860476 0.05865006 -1.0747993 -0.034271076 -0.09350632 -0.8469842
-0.049570333 -0.08944072 1.3203638 -0.09280314 0.07167821 -0.45854455 0.073658794 0.013469256
0.35359836 0.02674529 0.067188725 -0.75089395 0.033035427 0.015759178 1.081612 -0.08645874
-0.009787209 -1.5002785 0.008880191 0.09555282 0.79793 0.010886781 0.08405638 -0.18204424
0.010005824 0.004814066 -1.1652693 -0.08191046 -0.08275195 0.15279552 -0.013120793 0.03498344
0.66754496 -0.038307823 -0.02875641 0.8195085 0.056049958 -0.056429192 0.69809353 0.02416557
0.0044565722 0.8110772 0.027404279 0.039381623 0.5607995 -0.07016275 -0.068345964 0.86545235
0.066577554 0.05585915 0.7544448 0.0044944584 0.0068973154 0.53046775 -0.05849579 -0.0317005
0.88655806 -0.092426755 0.0034109578 0.6577188 0.010252088 0.04445657 0.6329663 0.026081875
-0.005561605 0.4285606 0.021719895 0.06505759 0.7605901 -0.03382968 -0.06710984 0.57698065
-0.09525533 -0.100130565 0.42038167 0.068073586 0.012374885 0.5613905 -0.011713326 0.079710096
0.63451684 0.0060925484 0.07680024 0.862584 0.08890313 -0.087623395 0.5264276 -0.06047685
0.06513849 0.6928128 -0.08340387 -0.045475323 0.78211397 -0.05112224 0.059874922 0.9337427
-0.026522197 0.04992555 0.50436807 0.07089871 0.07242975 0.7142409 0.018058777 0.09636885
0.71604466 0.091989994 -0.07726819 0.6805438 0.0600349 0.10192758 0.43146765 0.046893045
-0.04747426 0.8224579 0.04702325 -0.055066273 0.69953513 0.044627607 -0.00079452246 0.7182563
-0.06858202 -0.014687575 0.7772155 -0.007357195 0.032543898 0.8396285 0.09149769 -0.08901257
0.56641704 -0.028808549 -0.018120497 0.73102754 -0.0938769 0.066996396 0.64708084 0.0357538
0.0981081 0.5990313 0.014848053 0.09110114 0.45361012 0.036181733 -0.065968454 0.6569813
-0.010245755 -0.013770655 0.6392268 0.10201684 0.025106445 0.5982756 0.040608168 -0.088507906
0.9785253 0.055243462 -0.061200943 0.6977726 0.037032753 -0.09006421 0.746149 -0.017967291
-0.10162872 0.6963523 0.044693977 0.08299655 0.6398262 -0.06623412 0.09927331 0.74357843
-0.0567594 -0.05195295 0.5248741 0.025732204 -0.075179145 0.7335595 -0.023976184 -0.0020918995
0.68900496 -0.020551607 0.03129968 0.88321316 0.09737365 -0.059672836 0.6306385 -0.07406308
-0.0957658 0.6463564 -0.011621542 -0.0151516795 0.6488837 -0.054659795 0.05986944 0.8537593
00000000: bf07 42bf 8821 283c b6f4 89bd 4191 aebf
00000010: 78cc b23c 4eed 4ebd 5201 493f 7848 053d
00000020: 12da a93d df8e b0bf 30e6 973c 5868 c2bd
00000030: dc36 ffbe e878 37bc c21e 08bd ae5a 17bf
00000040: 2f38 3cbd 3243 cfbd e1e2 bebf b409 f4bc
00000050: eead 8abd 97bb 4d3f 5c2f 6a3d a8de 98bd
00000060: 1350 b9be 7408 353d ceac 813d 37db 983e
00000070: c080 b63d 65d6 8bbd 21c0 4dbe 1847 013d
00000080: 1ad7 933d 7940 9b3f 9042 4d3d 7086 c63c
00000090: 8e15 acbf 8b92 74bd 8880 55bc e3b3 663f
000000a0: d4de af3c 591f a6bd 4df8 2d3f 47af 52bd
000000b0: 8cc3 833d eba9 a83d 5080 483d 8799 4dbd
000000c0: ee3b 563f a3e1 bfbd 1adb cebd d4d8 82be
000000d0: 3209 d0bd 94ee 0a3d 5cce ce3e 2966 bfbd
000000e0: 2cd8 f4bc b68d 53bf 7350 99bd 0c3b 703d
000000f0: 0693 89bf d45f 0cbd 3e80 bfbd f5d3 58bf
00000100: 430a 4bbd b22c b7bd ae01 a93f 930f bebd
00000110: 06cc 923d 5ac6 eabe 6cda 963d 28ae 5c3c
00000120: d80a b53e f018 db3c 3e9a 893d 963a 40bf
00000130: 2850 073d 6419 813c 4372 8a3f 4811 b1bd
00000140: 885a 20bc 2009 c0bf 387e 113c 32b1 c33d
00000150: 2445 4c3f 785e 323c c025 ac3d ce69 3abe
00000160: 78ef 233c 50bf 9d3b 8b27 95bf acc0 a7bd
00000170: db79 a9bd 6e76 1c3e 98f8 56bc cc4a 0f3d
00000180: 3ae4 2a3f aae8 1cbd 9092 ebbc 4fcb 513f
00000190: a494 653d 4c22 67bd 42b6 323f e0f6 c53c
000001a0: 7008 923b c1a2 4f3f f07e e03c a04e 213d
000001b0: 8e90 0f3f 7db1 8fbd f8f8 8bbd 498e 5d3f
000001c0: d059 883d 90cc 643d 4b23 413f 4046 933b
000001d0: e002 e23b bccc 073f 4899 6fbd 62d8 01bd
000001e0: 78f5 623f 3d4a bdbd 608a 5f3b 4260 283f
000001f0: 60f8 273c 1818 363d 140a 223f a8a9 d53c
00000200: 203e b6bb 4c6c db3e eced b13c ea3c 853d
00000210: 08b6 423f fe90 0abd e270 89bd 01b5 133f
00000220: 3a15 c3bd 4111 cdbd 443c d73e 2a6a 8b3d
00000230: 08c0 4a3c 4ab7 0f3f 40e9 3fbc 0c3f a33d
00000240: b26f 223f 00a4 c73b 7249 9d3d 4ed2 5c3f
00000250: d812 b63d e573 b3bd f6c3 063f 93b6 77bd
00000260: 5467 853d 2e5c 313f a6cf aabd 5544 3abd
00000270: 9f38 483f 8e65 51bd 683f 753d c309 6f3f
00000280: 1445 d9bc bc7e 4c3d 441e 013f 5833 913d
00000290: 0c56 943d 7ed8 363f 00f0 933c 085d c53d
000002a0: b44e 373f 4065 bc3d c93e 9ebd 1e38 2e3f
000002b0: 28e7 753d 68bf d03d 54e9 dc3e ec12 403d
000002c0: 5f74 42bd 9a8c 523f 749b 403d 2c8d 61bd
000002d0: bc14 333f 70cb 363d 8047 50ba a5df 373f
000002e0: bb74 8cbd 28a4 70bc 98f7 463f a014 f1bb
000002f0: c04c 053d e5f1 563f 2463 bb3d 394c b6bd
00000300: b500 113f e8ff ebbc 7071 94bc 9f24 3b3f
00000310: 8842 c0bd 6835 893d 17a7 253f 9472 123d
00000320: e6ec c83d 1e5a 193f 4045 733c 3c93 ba3d
00000330: 963f e83e 4c33 143d 781a 87bd ed2f 283f
00000340: d0dd 27bc 509e 61bc 5ea4 233f 34ee d03d
00000350: 08ac cd3c 9728 193f c054 263d a243 b5bd
00000360: a280 7a3f f846 623d d7ad 7abd 3aa1 323f
00000370: a8af 173d 9673 b8bd 9f03 3f3f 2430 93bc
00000380: b822 d0bd 2544 323f 0811 373d 18fa a93d
00000390: a6cb 233f c1a5 87bd ce4f cb3d 285b 3e3f
000003a0: 8b7c 68bd 9ecc 54bd 265e 063f 58cc d23c
000003b0: 86f7 99bd 8eca 3b3f b469 c4bc 4018 09bb
000003c0: a162 303f d85b a8bc 1834 003d 421a 623f
000003d0: d66b c73d 816b 74bd 8671 213f 62ae 97bd
000003e0: dc20 c4bd 9d77 253f 4868 3ebc c03e 78bc
000003f0: 3e1d 263f f3e2 5fbd a839 753d f88f 5a3f

net.2.bias f4 [64]
-0.51233107 0.79784876 0.73103213 0.84150994 0.8372525 0.7663519 0.7595431 -0.050106883
0.021586578 -0.011113191 0.83292985 0.012179977 0.03297264 0.017630585 -1.1107866 0.92214257
0.9185347 0.7013554 0.054301832 0.73081917 0.8013419 0.056169156 1.4667144 0.9377125
-0.022027433 0.79781467 0.7354527 0.031487096 0.7315149 0.7706898 0.8456036 0.7061503
0.875916 0.76279336 0.806683 0.9518771 0.9369424 0.9171861 0.03741832 0.6871795
0.675705 0.02056092 0.8145013 0.9724467 0.73239493 0.041307762 0.83022094 0.84212244
0.7715625 0.6758973 0.06025865 0.7919788 0.87336874 -0.06826994 -0.09325848 -1.390285
0.7211221 -0.1190979 0.9157032 0.7482478 0.8336289 0.7732171 -0.009310337 0.7799047
00000000: 2128 03bf d13f 4c3f ec24 3b3f 326d 573f
00000010: 2e56 563f a32f 443f 6b71 423f e03c 4dbd
00000020: 56d6 b03c 1a14 36bc e43a 553f 878e 473c
00000030: 520e 073d 046e 903c 412e 8ebf 8911 6c3f
00000040: 1725 6b3f 078c 333f 996b 5e3d f716 3b3f
00000050: be24 4d3f a111 663d 4cbd bb3f ed0d 703f
00000060: e072 b4bc 953d 4c3f a146 3c3f 9df8 003d
00000070: 8f44 3b3f ed4b 453f 7a79 583f 44c6 343f
00000080: 083c 603f 6d46 433f c782 4e3f 38ae 733f
00000090: 75db 6f3f b5cc 6a3f f443 193d ffea 2f3f
000000a0: 01fb 2c3f 606f a83c 2883 503f 44f2 783f
000000b0: 3c7e 3b3f 5432 293d 5c89 543f 5695 573f
000000c0: 1f85 453f 9b07 2d3f c6d1 763d 1fbf 4a3f
000000d0: 1895 5f3f 1cd1 8bbd 4dfe bebd dcf4 b1bf
000000e0: 759b 383f 9ae9 f3bd 866b 6a3f 2b8d 3f3f
000000f0: b468 553f 8ef1 453f 628a 18bc d6a7 473f

fc.weight f4 [13, 64]
-0.14742842 0.08433876 -0.012636266 0.02916393 0.0644951 0.071382105 0.08482953 0.12301827
0.1509294 0.032351762 0.13756724 0.028935967 0.109507695 -0.07225567 -0.14515269 -0.025580706
0.10711593 0.1443896 0.045245636 0.040746927 0.14396569 -0.016283944 -0.07817627 -0.032282088
0.090091884 0.019943276 -0.055279013 0.10827562 0.014985179 -0.014764535 -0.04051345 0.053380676
0.11194465 0.009279739 0.072467886 0.15829638 -0.019761583 -0.113567874 0.06374274 -0.023436535
0.026747456 -0.042982414 0.008363908 -0.018931706 -0.02371395 -0.004517858 0.030870369 0.10289007
0.11470483 0.08132853 0.13832383 -0.15312502 -0.042415433 -0.06015478 0.13173221 -0.02819375
0.10743076 0.0950513 -0.13334386 -0.11578731 0.06732871 -0.061359163 -0.021349091 -0.05893603
-0.15453728 -0.052328493 0.064876616 0.070851885 0.12645029 0.033770524 0.15594664 -0.010522222
0.058410894 0.006717147 0.021829994 0.07732272 0.089850225 0.05472284 -0.20009021 -0.057994645
0.09250502 0.1779987 -0.09011057 0.0672671 0.1523409 -0.053276714 -0.040774006 0.14144334
0.031036071 0.03527723 -0.028258676 -0.040313743 0.010083931 -0.03572732 0.061676946 0.041746218
0.023267088 -0.05823933 0.059726816 0.08760742 0.0006824804 -0.111171 -0.07394246 0.07690824
0.11301971 0.13145322 -0.12327565 0.0580798 0.029675163 -0.0352171 -0.11130126 -0.040845424
0.17869154 0.0139287645 -0.04732823 -0.026799269 0.1282634 0.0485815 -0.036210716 -0.13742903
0.044830244 -0.049918972 -0.10130586 -0.11303956 -0.08546523 0.03190629 0.020584233 -0.05461906
-0.118347086 -0.111189745 0.20753717 0.119233094 0.19053829 0.021688456 0.20097245 0.042233326
0.060985077 0.04552011 -0.10389353 0.080362 -0.011073952 -0.061001956 -0.1944724 0.11611295
0.04083308 0.002818117 0.073185325 0.12432996 -0.12192453 -0.061387844 0.22707674 0.10517751
0.13567647 0.050548974 0.04152549 -0.036170755 -0.04002807 0.0745159 -0.0041626394 0.06917335
0.16941652 -0.011861859 -0.05290761 0.20867716 -0.3310361 -0.050146114 0.10890842 0.0792259
0.054784972 -0.06791122 0.16250327 0.32447332 0.010478733 0.060819738 0.06405704 0.025578836
-0.02453808 0.07639713 0.12754181 0.12847637 0.14746751 -0.063237384 -0.03957008 -0.40522677
0.1451057 0.08312327 0.082950085 0.13907608 -0.06561477 0.12524094 0.1459236 0.06694546
1.1728852 -0.15320237 0.041031044 0.13664086 0.12097059 -0.07302537 -0.020928157 0.12413262
0.1406617 0.13165519 -0.10314813 0.013108988 0.066210166 0.024889968 -0.31261614 0.1278944
0.06693333 -0.11442103 0.12141548 0.16525239 0.047488756 0.04776588 0.13177812 -0.12520382
-0.071045786 0.03189295 0.020940894 0.01152948 0.09619901 -0.14289726 0.12532848 0.11285146
0.18078192 -0.01574221 0.056352153 0.10900602 -0.3427464 -0.015565495 0.09080035 0.12170651
0.05326208 -0.027549585 -0.025621388 0.007675007 -0.016485991 0.13277772 0.09702885 0.15058233
-0.10430295 -0.09631901 -0.09234292 -0.17401437 0.09532846 0.03962284 0.07626996 -0.28771636
-0.022224952 -0.029470604 -0.057918005 -0.012472886 0.024106001 0.0055194576 0.14961627 0.11367639
00000000: 7af7 16be cdb9 ac3d 5708 4fbc 32e9 ee3c
00000010: 0216 843d c830 923d 1bbb ad3d 01f1 fb3d
00000020: 3d8d 1a3e 4883 043d 6dde 0c3e 1f0b ed3c
00000030: 9245 e03d c8fa 93bd e8a2 14be a18e d1bc
00000040: 995f db3d deda 133e 7d53 393d 40e6 263d
00000050: be6b 133e e865 85bc e11a a0bd 393a 04bd
00000060: 1882 b83d 1560 a33c 3f6c 62bd 9cbf dd3d
00000070: 6584 753c f3e6 71bc 6ef1 25bd b2a5 5a3d
00000080: 3d43 e53d 0c0a 183c 0b6a 943d 7218 223e
00000090: 0be3 a1bc 4696 e8bd 8e8b 823d fafd bfbc
000000a0: 7b1d db3c 540e 30bd c608 093c aa16 9bbc
000000b0: c243 c2bc 8a0a 94bb dbe3 fc3c 07b8 d23d
000000c0: 5eea ea3d 938f a63d c3a4 0d3e cecc 1cbe
000000d0: cebb 2dbd dc64 76bd cfe4 063e 94f6 e6bc
000000e0: a904 dc3d 42aa c23d 4b8b 08be e621 edbd
000000f0: a2e3 893d bf53 7bbd 4ae4 aebc e866 71bd
00000100: 053f 1ebe 6756 56bd 08de 843d cb1a 913d
00000110: 2f7c 013e f652 0a3d 7ab0 1f3e 6665 2cbc
00000120: 4340 6f3d 831b dc3b d1d4 b23c 605b 9e3d
00000130: 6503 b83d 0f25 603d 73e4 4cbe cb8b 6dbd
00000140: 4673 bd3d 4b45 363e e48b b8bd 55c3 893d
00000150: 41ff 1b3e af38 5abd a502 27bd 86d6 103e
00000160: 5c3f fe3c db7e 103d bd7e e7bc 0620 25bd
00000170: 1237 253c cf56 12bd f7a0 7c3d 15fe 2a3d
00000180: 9f9a be3c 5d8c 6ebd 1ba4 743d 856b b33d
00000190: 7ce8 323a 9fad e3bd 256f 97bd 1182 9d3d
000001a0: e176 e73d ac9b 063e f277 fcbd 16e5 6d3d
000001b0: 5419 f33c ce3f 10bd eaf1 e3bd 884d 27bd
000001c0: eafa 363e 7935 643c 3fdb 41bd 248a dbbc
000001d0: 7b57 033e 65fd 463d b051 14bd 32ba 0cbe
000001e0: eb9f 373d d677 4cbd 7279 cfbd 4981 e7bd
000001f0: 6508 afbd 2cb0 023d 44a0 a83c 3cb8 5fbd
00000200: f55f f2bd 73b7 e3bd a084 543e 7b30 f43d
00000210: 781c 433e fdab b13c b9cb 4d3e dafc 2c3d
00000220: 7dcb 793d 4b73 3a3d 22c6 d4bd d594 a43d
00000230: 856f 35bc 30dd 79bd c623 47be a0cc ed3d
00000240: 9640 273d 28b0 383b 30e2 953d b5a0 fe3d
00000250: 91b3 f9bd d271 7bbd ce86 683e 4e67 d73d
00000260: c6ee 0a3e 710c 4f3d a216 2a3d c927 14bd
00000270: 79f4 23bd cb9b 983d c066 88bb c2aa 8d3d
00000280: 867b 2d3e 3e58 42bc a6b5 58bd 77af 553e
00000290: 907d a9be 0366 4dbd 610b df3d 3041 a23d
000002a0: 3566 603d 0a15 8bbd 4267 263e 5e21 a63e
000002b0: feae 2b3c 1e1e 793d 5630 833d b58a d13c
000002c0: 1504 c9bc 1976 9c3d 529a 023e 4f8f 033e
000002d0: b901 173e 9a82 81bd 3c14 22bd e279 cfbe
000002e0: 9796 143e 883c aa3d bce1 a93d f669 0e3e
000002f0: 0961 86bd 293f 003e ff6c 153e b41a 893d
00000300: 1a21 963f 15e1 1cbe 2b10 283d 95eb 0b3e
00000310: 6ebf f73d 538e 95bd 8771 abbc 3e39 fe3d
00000320: 9f09 103e 9ed0 063e 543f d3bd 15c7 563c
00000330: 3299 873d 0ce6 cb3c 390f a0be c0f6 023e
00000340: 5714 893d 9355 eabd aea8 f83d ec37 293e
00000350: 9283 423d 28a6 433d d8f0 063e 6e35 00be
00000360: 7480 91bd 2fa2 023d 3d8c ab3c 25e6 3c3c
00000370: fd03 c53d a953 12be 1c56 003e ab1e e73d
00000380: e51e 393e cff5 80bc 84d1 663d 8c3e df3d
00000390: 757c afbe 6b06 7fbc 89f5 b93d 4341 f93d
000003a0: 5729 5a3d abaf e1bc f2e3 d1bc a07e fb3b
000003b0: a10d 87bc e2f6 073e 10b7 c63d 4132 1a3e
000003c0: c99c d5bd e742 c5bd 491e bdbd d330 32be
000003d0: 913b c33d 8f4b 223d 6d33 9c3d 8f4f 93be
000003e0: 1a11 b6bc 566c f1bc 6e3b 6dbd 135b 4cbc
000003f0: f379 c53c 91dc b43b 0235 193e 2bcf e83d

fc.bias f4 [13]
0.32940984 0.28130698 0.3453992 0.2726438 0.29955718 0.5549513 0.1259969 0.49958673
-0.09429635 0.27778798 0.30097812 0.25051934 0.4181242
00000000: 68a8 a83e 7807 903e 2ad8 b03e f897 8b3e
00000010: 8f5f 993e 4a11 0e3f 5505 013e d5c9 ff3e
00000020: 721e c1bd 3a3a 8e3e ce19 9a3e 1244 803e
00000030: 6014 d63e
