top3_models/h6_ep30_bs64.pth (torch, 38481 bytes, 6 tensors)

net.0.weight f4 [32, 13, 3]
00000000: 2d5a d0bc 00b0 1a3c c814 d03c d6f1 0bbf
00000010: a832 eb3c 8048 0c3e 6b77 c0be 7e98 c1bd
00000020: 6d2d 9ebd b503 e03c 84d8 db3d 7620 9fbd
00000030: d389 60be 18fb d8bc 60c0 063e d4b5 02be
00000040: 9be7 96bd 9536 a4bd 9600 8bbf c801 da3d
00000050: f821 09be 1820 61bf 4476 71bd b082 163c
00000060: 54f7 9abd e8d2 ae3d 14ea 19be 4b66 ad3e
00000070: 4cb8 33bd 50fc ec3d 5911 82be 2081 de3b
00000080: b6d9 203e d19a 5d3e b3f9 a4bd 38d2 7cbd
00000090: 903d 99bd 4cf0 f33d a0e2 023e 615d 2b3e
000000a0: 7346 a5bd dd78 11be a95d b8bd 0011 db3d
000000b0: 7462 0b3e ccc3 103e 984c 0a3d e0fd 5d3c
000000c0: ccf5 84be 6024 903b 94dd 073d 9ffb 15be
000000d0: a809 87bd 50e3 e53d 5426 0bbe aac6 0f3e
000000e0: 54fa 0fbe 353a 8cbf 00ae e33b 183e c63c
000000f0: 71b1 8ebf bc3a 153e 0eef 173e 6058 e63d
00000100: b886 893d a14d 99bd 60b1 02bf dc5f 633d
00000110: 91b5 86bd c037 173e b0b4 cc3d 8c98 f43d
00000120: c12e bfbb 002b cfbc 6099 d53d c9a9 03bc
00000130: 9011 2fbd cc22 d1bd 1ca7 173e bdce 0cbe
00000140: e2e4 b7bd 5f7d 3abe 0a45 093e e4fe 1cbe
00000150: 10e3 d0bd 0018 d83b 4e11 0ebe dcce 8e3e
00000160: 305e 27bc 4843 c63d 9651 933d ea78 4cbd
00000170: 7e03 193e f656 01be e2b4 b4bd c0b3 9f3b
00000180: ac1c aebf ac50 04bd 9b95 c4bd 3dc1 b3bf
00000190: c4aa f73d d8ca 103d a4cd efbd 6031 df3b
000001a0: 44f0 9a3d 29e6 633e e82d f43c e023 ffbc
000001b0: 03c5 ad3e 6491 763d a4b2 e23d 47a6 fabc
000001c0: 4407 873d 0092 d5bb 919a 3ebe c692 023e
000001d0: 00ac feb9 ba73 053e a011 523c 2c58 073e
000001e0: daed 17be d585 1abe c092 cabb fef5 903c
000001f0: 558c a4bd d5cf bebd 66e1 a13e a086 11bc
00000200: 705e 93bc ea41 9b3e d014 b93d 0019 d73b
00000210: 0444 803e 30ad 97bc ff91 85bd 693e 003d
00000220: 8be8 b6bd 5e0d 71bd 94b6 303f 84fc 103e
00000230: 881e cd3d 00df 0d3b 3851 65bd 8033 3f3c
00000240: 3983 09bf 62eb 153e a790 0abe 0fcb 7f3c
00000250: 044e d73d c042 e33d d4d5 f13d 9ff6 9dbd
00000260: 2c91 9dbd f70d 1fbf 005d 29bd 4633 33bd
00000270: c4a8 3c3e 998a 85bd db5e 11be 6f47 2f3d
00000280: 141d 97bd faa9 10be f8b9 2f3e 1866 e6bd
00000290: f09b b53d 760b a4be b83d 4c3d 807f 3b3d
000002a0: 321b f43c a066 5f3c d418 1fbe 6053 a13d
000002b0: fe70 dabd 281a 4b3d 6352 9abf ac3a 7bbd
000002c0: d6c6 49bd 1403 a5bf 51d3 0abe 7689 adbd
000002d0: 3805 cd3d dafd 5bbd c6fc 16be 05d3 0cbf
000002e0: 8f9c 06be d2db 153e 68ba 8d3e 343d 413d
000002f0: f7d9 8abd c93a 9e3c 50af fe3d 0093 e73d
00000300: 3263 0d3e 1061 a1bc fc97 173d 33e2 8b3e
00000310: f0a9 e8bd 7ca3 e63d 5ad6 a9be 8b7c b5bd
00000320: 606e 87bd da2c 2bbe b056 e13d 1877 503d
00000330: 69de 823e 78f7 e13d 14c1 9fbd ed0a 1ebd
00000340: 438f bcbd e844 d63c 821d cd3c f0a8 f13c
00000350: 0496 d23d 8337 aebf e4a1 f33d 361b 973d
00000360: 07cd 97bf 9835 98bd 38b1 c63c fb2c 23be
00000370: 8278 8cbd 7864 163d e8b3 9abe b637 1ebd
00000380: b0ec e03c 61e2 b33d 1ceb 133e 6cc8 ecbd
00000390: db0d 423d f0ee 1a3d a90d c3bd 8912 a73d
000003a0: c28a 153e a8b1 eabc 6514 833e 783e 41bd
000003b0: fc67 ba3d d321 713d f867 bbbc 0039 b93a
000003c0: b576 d53e 00de 68bb e0d6 49bc a952 86bd
000003d0: 59c4 90bd e2d6 78bd 6f5e 273e 50c4 563c
000003e0: 70f0 76bc eae8 04be 903a e6bc f815 053d
000003f0: c180 ebbc 74f3 1d3d ce36 15be 7c18 ff3e
-0.025433624 0.009441376 0.025400534 -0.5466589 0.028710678 0.13699532 -0.3759111 -0.09452914
-0.07723508 0.027345518 0.107346565 -0.07769863 -0.21927576 -0.026486918 0.13159323 -0.12764674
-0.07368394 -0.08018223 -1.0859554 0.10644871 -0.13391864 -0.87939596 -0.058950678 0.009186432
-0.07566705 0.08536321 -0.150307 0.33867106 -0.04387693 0.11571562 -0.2540386 0.0067902952
0.1570805 0.21641089 -0.08055439 -0.061723918 -0.07482445 0.11911067 0.12781763 0.1673484
-0.08070078 -0.14206262 -0.09002239 0.10696602 0.13611776 0.1413719 0.03376445 0.013549298
-0.25968778 0.0043988675 0.033170298 -0.14646767 -0.06593639 0.11224997 -0.1358884 0.14040628
-0.14060336 -1.0955263 0.0069482327 0.02419953 -1.1147901 0.14573187 0.14837286 0.11247325
0.06715149 -0.0748551 -0.510519 0.05551134 -0.065776 0.1476736 0.09995401 0.119431585
-0.005834431 -0.025289059 0.104296446 -0.008036085 -0.04274136 -0.10211715 0.14809841 -0.1375074
-0.08979203 -0.18211888 0.13405243 -0.15331608 -0.10199559 0.006594658 -0.13873789 0.27892196
-0.010215327 0.09680802 0.07193296 -0.04992 0.14942738 -0.12630829 -0.08823563 0.004873723
-1.36025 -0.032303497 -0.095988475 -1.4043347 0.12093118 0.035349697 -0.11709145 0.006811306
0.07565358 0.22255768 0.029807046 -0.031145036 0.3393937 0.06019725 0.11069229 -0.030596865
0.06593183 -0.0065176487 -0.1861365 0.12751302 -0.00048574805 0.13032427 0.012821585 0.13217229
-0.14836827 -0.15090115 -0.0061820447 0.017695423 -0.08034579 -0.093169846 0.31617278 -0.008882195
-0.017989367 0.30323726 0.09037173 0.0065642595 0.25051892 -0.0185152 -0.06521987 0.03130952
-0.08931073 -0.05885064 0.6902859 0.14158827 0.10015589 0.002164781 -0.05598566 0.011669993
-0.53715855 0.14640573 -0.13531743 0.015612378 0.10512927 0.11096716 0.118083626 -0.07713055
-0.07693705 -0.62130684 -0.041348457 -0.04375007 0.18423754 -0.06520576 -0.1419634 0.042792734
-0.07378593 -0.14127341 0.17160785 -0.112499416 0.08867633 -0.32039994 0.049863547 0.04577589
0.029798124 0.013635308 -0.15536815 0.07877231 -0.10666083 0.04958549 -1.2056392 -0.06133525
-0.04926189 -1.2891564 -0.13557173 -0.08473484 0.10010761 -0.05370889 -0.14744863 -0.5500949
-0.1314566 0.14634636 0.2768128 0.04717751 -0.06779855 0.01931514 0.12435782 0.11307335
0.13807371 -0.019699603 0.037010178 0.27321014 -0.11360538 0.11261651 -0.3317135 -0.08861645
-0.06612849 -0.16716328 0.110028625 0.050894827 0.2556031 0.11033529 -0.078004986 -0.03858464
-0.092070125 0.026155904 0.025038484 0.029499501 0.102825195 -1.3610691 0.118961126 0.07378237
-1.1859444 -0.07432097 0.024254426 -0.15935127 -0.068589225 0.03671691 -0.30215383 -0.03862735
0.027456611 0.08783413 0.14445156 -0.11561665 0.047376495 0.037825525 -0.0952409 0.08157832
0.14603713 -0.028649166 0.25601497 -0.047178715 0.09101865 0.058870148 -0.022876725 0.0014131367
0.4169213 -0.0035532713 -0.012319297 -0.06558735 -0.070687 -0.060751803 0.16344617 0.013108328
-0.015071973 -0.12979475 -0.028104097 0.032491654 -0.028747918 0.038562253 -0.14571688 0.49823368

net.0.bias f4 [32]
00000000: 4d60 923f 974a 9c3f d374 9a3f bcc0 b33f
00000010: 0d09 903f d9df 8c3f 301d a83f d83e a63f
00000020: 599f 923f 2fe8 a13f b8f7 b03f e9f4 a93f
00000030: c78e bb3f 2d77 a13f 6ce1 aa3f 6482 9a3f
00000040: b0e6 9b3f 853e b53f a344 bb3f bde7 b33f
00000050: c04c 943f 1fba a53f fbd5 983f 493d b73f
00000060: 807c c23f f3c1 b83f a99e 973f 5ec7 913f
00000070: dd00 8b3f 4d96 a13f 6bda 993f ce25 9e3f
1.1435639 1.2210263 1.2066902 1.4043193 1.1252762 1.1005813 1.3133907 1.2987928
1.1454879 1.2648982 1.3825598 1.3277866 1.4652947 1.2614495 1.3350043 1.2071042
1.2179775 1.4159704 1.4630321 1.4055096 1.1585922 1.2947425 1.1940302 1.4315578
1.5194244 1.4434189 1.1845294 1.1388967 1.0859638 1.2623993 1.2019781 1.2355287

net.2.weight f4 [64, 32, 3]
00000000: 9dfd 363f 332c 74bd d1f1 62bd d32c 243f
00000010: c2cd b23d 644b 1c3d 6ea6 443f fc6f 98bd
00000020: 604b 2d3d b941 4d3f 84d0 6f3d 34ef ccbc
00000030: e834 423f 7332 2bbd 986a 09bc 56ff 513f
00000040: 6069 e43b 3491 8bbd 6a44 073f 4035 dc3b
00000050: 811d 8dbd 6065 1b3f 544a b43c f0d1 9f3c
00000060: 8f3e 303f 603d 21bd 68db 57bc 5b02 413f
00000070: 37a6 8bbd 3469 07bd fed7 693f 68e5 1d3d
00000080: 7025 073d 0fbd 463f c969 8cbd d095 4a3d
00000090: d6f9 1f3f 1a9c b73d 2ab2 873d f59b 363f
000000a0: 785d 5d3d dc36 bbbd b7f7 233f 9a15 a3bd
000000b0: e817 7b3d 4349 213f 0e2a 91bd 4334 7dbd
000000c0: 1a5a 313f 2cbf 91bc 6688 a63d f515 153f
000000d0: 78e2 8b3d fc2f 1d3d 56b1 3e3f 0818 fabc
000000e0: ec8f a73d 9ab0 2f3f 10c3 7a3d 4c6e 03bd
000000f0: cecb 013f a31b 5ebd 6dd6 cebd 01c7 263f
00000100: 2005 c33c 27a9 c3bd b005 1c3f 0747 27bd
00000110: d47f c73d 3890 2e3f f056 59bc 3823 fdbc
00000120: 1c9c 203f f6b0 a3bd d079 033d 95e6 503f
00000130: 6876 17bd 3d26 9cbd 1f64 103f 165e 943d
00000140: 784f 293c d2e5 fa3e 6db1 b5bd 6ce9 89bd
00000150: 3200 1a3f 180b ca3d 2258 84bd fea1 4d3f
00000160: 8178 2fbd 4024 963b 0306 423f 750c 8ebd
00000170: 7805 b1bc c2fc 2e3f 18eb 9fbd 36ee 973d
00000180: 908d 32bc 5977 d0bd 80af b93a 052d 2a3d
00000190: 9429 7b3d 9c70 9b3d 16b0 c4bd 400e cf3c
000001a0: 96ca 8f3d 7983 5cbe 1a1c 2ebd e896 70bc
000001b0: e489 debd cade 87bd ce05 98bd fa1d 5abe
000001c0: c436 b13d 4c03 453d 1acd 033d 34b5 9e3c
000001d0: 7c68 9bbd 5773 4c3d 4e34 a43d 986d 2c3c
000001e0: cd1c 05be e49d 89bc 48e2 1d3c 0cb1 173a
000001f0: 5823 263d f043 633d 69f6 e03d d085 653d
00000200: 24b9 1cbd fdae f0bd 6516 80bd 78bf 923d
00000210: 86fb 98bd 30bc a33b 509b 1abc 2158 103e
00000220: ea38 9e3d 649d 7f3d 73cc 9b3d 883f a53c
00000230: 2c15 1d3d 9aef 3f3e 0129 b6bd e0f2 ae3c
00000240: e036 323e e936 a2bd 7444 c73d 01fc 973d
00000250: 34ad 233d 50aa 17bc c146 233d 1b3d 6abd
00000260: 3012 94bd 66d3 9dbc 9314 38bd b0a4 573d
00000270: 3dda d3bb b2a3 b0bd cc20 a23c 01e9 2d3e
00000280: 0e59 8b3d f239 18bd 5367 9a3d c007 973d
00000290: 6a52 b53d fb3f 4f3e e685 66bd 92e2 5dbd
000002a0: 2fea a1bd 5803 a53d 97f7 cbbd a59f 30be
000002b0: e0ac e4bb 0421 a13d 0053 29bc 208c e93c
000002c0: ec70 613d 6f92 233e c0fd c13d 3aa2 c9bd
000002d0: c110 91bd 2775 32bd 70e2 32bc d326 7abd
000002e0: d806 c93d b0cd b0bd 3a87 1f3e f070 103d
000002f0: 5abe 943d bcae afbd e406 ecbc 8057 3c3d
00000300: eaea 393f 7c12 103d 08b4 cbbc 6560 1d3f
00000310: 002d fabc 7084 8a3b 55f3 5b3f d6ae cf3d
00000320: e81d b43c cf8c 503f 146e f4bc e01a b73b
00000330: d609 483f f40e 483d 7e8f c9bd 91dd 563f
00000340: 7c9e 9abc aa41 d0bd a92a 163f 7c76 a53c
00000350: b095 803b 9b98 2a3f 583a e63c 6456 dbbc
00000360: 04a5 0d3f 9079 c5bb 0057 cdbc 6beb 123f
00000370: 2a5f 55bd 5cc5 2c3d f728 563f 1246 9cbd
00000380: 9428 5a3d ea48 4f3f c6b3 82bd 68ac 6ebd
00000390: dbed 093f 78cb 7dbd a4cb c3bd 0a6c 513f
000003a0: ca1c b53d b0bd 90bd 881b 303f 4dfc 81bd
000003b0: 20c9 4b3d ac6f 213f 20b5 d6bb fc91 8e3d
000003c0: 5c36 3e3f 9788 c9bd da30 963d 8095 183f
000003d0: a194 b4bd 8c6d 233d b393 3b3f 7275 0ebd
000003e0: d8de 67bd e9b3 133f d825 3e3c e402 2abd
000003f0: ffa1 053f 90d1 81bc b0c2 d93c 3ada 2a3f
0.71480733 -0.059612464 -0.055406395 0.64130896 0.087306514 0.038157836 0.7681645 -0.07443234
0.04230821 0.8017841 0.058548465 -0.025016405 0.7586198 -0.04179616 -0.00838723 0.82030237
0.0069705695 -0.06814805 0.52838767 0.006720215 -0.06890393 0.6070156 0.022008099 0.019509286
0.68845457 -0.039365172 -0.013174869 0.7539422 -0.06818812 -0.033059314 0.913452 0.038548857
0.032994688 0.7763223 -0.068561144 0.04945928 0.62490594 0.08965321 0.06625779 0.7133172
0.054044217 -0.09141323 0.6404986 -0.079631045 0.061302096 0.63002414 -0.070880994 -0.06181742
0.6927811 -0.017791353 0.08131485 0.5823663 0.06830305 0.03837584 0.74489343 -0.030529037
0.08181748 0.6862885 0.061221182 -0.03208761 0.50701606 -0.054225575 -0.10099492 0.65147406
0.023806155 -0.095537476 0.6094618 -0.04083922 0.09741178 0.6818881 -0.013265356 -0.030900583
0.62738204 -0.07992737 0.03209859 0.8160184 -0.036978155 -0.07624481 0.5640277 0.07244508
0.010333888 0.49003464 -0.08871732 -0.06733975 0.6015655 0.09865397 -0.064621225 0.80325305
-0.04283953 0.004581958 0.75790423 -0.0693597 -0.021609053 0.6835443 -0.078085124 0.07418482
-0.010898009 -0.10179014 0.0014166683 0.04154684 0.06131895 0.07589838 -0.09603898 0.02527535
0.07021062 -0.21534528 -0.04250727 -0.014684416 -0.10866144 -0.066342905 -0.07422982 -0.21300498
0.08653024 0.048098847 0.032178022 0.019373514 -0.07588288 0.049914684 0.08017789 0.010524176
-0.12999268 -0.01679892 0.009636469 0.0005786575 0.04056105 0.055484712 0.10984499 0.056035817
-0.0382625 -0.11752126 -0.062542714 0.07165426 -0.07469849 0.004996799 -0.009436443 0.14096119
0.07725699 0.06240596 0.07607355 0.020171896 0.03835027 0.18743744 -0.088945396 0.021356046
0.17403746 -0.079206295 0.09729853 0.07421113 0.0399601 -0.009256914 0.039862398 -0.05718718
-0.072300315 -0.019265842 -0.044941496 0.052647293 -0.006465225 -0.086249724 0.01979103 0.16983415
0.06804095 -0.037164636 0.07539239 0.07374525 0.0885361 0.2023925 -0.05628004 -0.054171152
-0.07905995 0.080572784 -0.099593334 -0.172484 -0.006978616 0.07867625 -0.01033473 0.0285092
0.05503933 0.15973829 0.09472227 -0.098453954 -0.07083274 -0.043568756 -0.010918245 -0.061072182
0.098157585 -0.08632982 0.15578929 0.035263956 0.07262869 -0.0857825 -0.02881188 0.045981884
0.72624075 0.035173878 -0.024866119 0.6147521 -0.030539036 0.0042272136 0.8591817 0.10140769
0.021986917 0.81464857 -0.029837646 0.0055879205 0.7814001 0.048842385 -0.09841822 0.83931834
-0.0188744 -0.101687744 0.58658844 0.0201981 0.003924094 0.6663911 0.028103992 -0.026774593
0.5532992 -0.0060264543 -0.025065899 0.5739047 -0.05209271 0.042180404 0.8365626 -0.07630552
0.053261355 0.80970633 -0.06381945 -0.05826989 0.53878564 -0.06196162 -0.09560326 0.8180548
0.08843382 -0.0706743 0.6879201 -0.06346951 0.049752355 0.6306102 -0.0065523535 0.06961438
0.74301696 -0.098405056 0.073335364 0.5960312 -0.08817411 0.039899394 0.73272246 -0.034779973
-0.056609005 0.57696396 0.011605702 -0.041506663 0.5220031 -0.015846997 0.026582092 0.6673924

net.2.bias f4 [64]
00000000: 8e83 443f 724a b9bd 2d7a 553f 7d95 583f
00000010: 3ad8 493f 4f11 383f 0902 a03c 9aca 413f
00000020: 5379 a6bd cf18 573f 1ac0 10bf 7238 07bd
00000030: 42af 333d 680b 233d 57ea 533f c004 573f
00000040: 75e5 393f 9870 d83c e687 613f 69b6 bd3c
00000050: 8ee1 4c3f 2b03 113d 61b6 513f d474 aabd
00000060: 9b24 b9bd 5f3f 413c 0b61 463f f5c6 543f
00000070: 7cfe 55bf 99b7 303f c884 a3bd 91b0 0bbd
00000080: 3158 403f 9e9c 523f 40b0 673f 7edc 573f
00000090: 6f8e 5f3f 4f92 3f3f 2691 413f e610 3b3f
000000a0: 9cae b03f c1fe 06be cd86 c1bc c1b4 5b3f
000000b0: 8a1d 393f 8bc6 c1bd c1a9 393f 114d 3cbd
000000c0: a016 093d 5a8f 503f 0365 4b3f 8beb 5b3d
000000d0: a0ed 4e3f 4cb7 c03b 6ef1 3b3f 44a4 6e3f
000000e0: f724 01be 5468 5b3f 3022 673f 8b10 3b3f
000000f0: 5850 62bf e70b 653f 7434 713f 12e8 993c
0.76763237 -0.090474024 0.8338955 0.846031 0.7884556 0.7190141 0.01953222 0.7569977
-0.081286095 0.8402223 -0.56543124 -0.033012815 0.04386831 0.0398058 0.8277945 0.8399162
0.7261575 0.026420876 0.8809799 0.023158269 0.8003167 0.03540341 0.81918913 -0.083230644
-0.09040185 0.011794894 0.77491826 0.83116084 -0.8359144 0.6903015 -0.079843104 -0.034103934
0.7513457 0.8227023 0.9050331 0.8432082 0.8732671 0.74832624 0.75612104 0.7307266
1.3803287 -0.13183118 -0.023623848 0.85822684 0.723107 -0.09461697 0.7252465 -0.045971934
0.033468843 0.8146874 0.79451007 0.05369143 0.80831337 0.0058812257 0.7341527 0.932194
-0.12611757 0.8570607 0.9028654 0.7307212 -0.88403845 0.89471287 0.9422066 0.018787418

fc.weight f4 [13, 64]
00000000: f2a1 83bd f982 ed3d 0825 6dbd 4f6f 91bc
00000010: eb19 2c3e fac8 8c3d f91c 4dbd 0df6 0c3e
00000020: ba86 81bc 2d98 bd3d 5b51 0ebe 6900 d0bd
00000030: 1497 a3bd e924 e73d 3baa 8abc b99f 1fbc
00000040: aa0b 623b 3bf5 88bc e2e1 673d 3ba1 b4bc
00000050: f505 a43c 32ca e7bc cb36 be3c 58a0 f63c
00000060: e351 d4bd 39d3 a43d fbd4 acbb 1769 9a3d
00000070: b3d6 12be b8f8 483d 7923 563b 6874 873d
00000080: eab5 98bd a06b 9cba b33c 113d e0af 893d
00000090: 1266 d8bb bf25 043e f644 c93d 07a3 003d
000000a0: b644 84bd 1824 6abd 5a67 97bc 2972 3fbd
000000b0: 95a0 113e a64e 38bd a952 0fbd ac36 123e
000000c0: fe80 a6bc 0000 41ba eeb6 4c3d eb58 003d
000000d0: 2838 cd3a a5be 32bd 9fd2 3fbd 2467 9fbd
000000e0: cfff 8dbd b598 503d b0bb 14be edc1 133e
000000f0: 7319 dfbd d881 84bc 5aa4 163d 5fa6 a53c
00000100: a103 12ba da7b 4c3d 10fb 18bd d252 0d3e
00000110: ec6d 8d3d 10bc 42bd dce2 84bc 38cc 59bd
00000120: 83f2 bb3d 6fca 0f3e 1884 78be 0324 cc3c
00000130: d197 20bd 1720 8a3d 9083 61bd 6631 cd3d
00000140: 1f53 c33d db2c dd3d f17c 7b3d 3d95 8cbd
00000150: 0fb0 fa3d 8930 86bd cab1 a13d 34fe 38bd
00000160: cd96 543d f284 013e 34e6 3a3e 08e9 0fbd
00000170: 83d9 4dbe 1501 a03d cdbe aabd 3953 633d
00000180: d74c 8dbd 5ac7 003e 8e8a 4b3d eda3 973d
00000190: 8c8f 8e3c 6523 60bc 8375 76bd 2580 053e
000001a0: bff2 e5bd cf8a 0bbc 4bb8 ce3c 0a1c b43d
000001b0: d3eb d1bc b580 943c 81a4 14bd ef2c 4e3d
000001c0: 9a62 78bd 5993 013e 143e d03d 68ff b03d
000001d0: 1ae4 b9bd 473a a83c 0679 febc 410f 3ebd
000001e0: e358 c53d 5bf7 1a3e 5747 9cbe a7b0 07bc
000001f0: cf15 50be ee60 0dbd a7f6 9e3c c5d1 3dbd
00000200: fbbd 90bd 0483 67be 6ffa 9d3d f6ea 0d3e
00000210: c783 0d3e 50a2 59bd e9af 0f3d 1fb9 80bd
00000220: b68c 933d 1032 1a3d 402c c83d 19fd 6a3d
00000230: cb1b 43bd 808e 1c3d 979a 313e a7ce 60bc
00000240: 00be 543d e9bb b83c 9d8d 533e 4a78 0b3d
00000250: 0bcd 50bd 0857 b1bc 9d04 cb3d eeda e6bd
00000260: 5780 823d 05ef bcbb 69d2 013e 972e a73c
00000270: 4c65 fabe d8d2 bf3d 7095 73bd ea2a f33d
00000280: 6c78 b13d 9b18 823d 1dd0 293e 6942 90bc
00000290: 4ef0 433e d391 1ebd c9a0 8dbc c453 143e
000002a0: 7ba6 5d3e a8c3 e43d 2480 f13d 8dde fa3c
000002b0: 44cd 82bc f544 9c3d 7cfb 953d c62a 6cbd
000002c0: b089 39bd 6305 543b 6117 b2bb 6b2d 3d3d
000002d0: 8081 d13d 6280 7c3c 7a96 6dbd 4c63 0a3e
000002e0: 8540 04bd 5448 853d a4cb b8bc d870 2f3e
000002f0: 9d75 b9be 9460 893d 1f34 2b3e e01a c03d
00000300: fca3 163e b148 6b3e c9e5 0d3e d244 d73d
00000310: dad6 e3bb ccd1 86bd 0f07 c93d 8780 6fbd
00000320: 2d2d 88bd 0bcf aebd 3152 473f ac1c 953b
00000330: 07f4 033d 2349 be3c 5253 77bc 8891 123e
00000340: 64c9 033e bc3a a2bd b4ee 35bd 87e3 36bd
00000350: 471d c4bc 2479 ca3c dd2c f63d f42e a83d
00000360: 963b a3bd 4ec5 8c3b 8f43 9fbd b8fd 283c
00000370: 80dc 97be 8343 643d 4fe2 023e 1c71 c83d
00000380: 3623 e43d f9bb 853d b471 7a3d 0190 0f3d
00000390: f562 7c3d 96fc dabc 9580 7dbd 0e9e bebd
000003a0: 7b6d 4dbe 4852 b03d ac17 5dbd 8838 6c3d
000003b0: 3e18 4cbd 3b94 6abd e55a 833d d7c1 d3bb
000003c0: 8d67 e73d 8c07 9fbd 3833 42bd 1067 273d
000003d0: 7384 2a3e cbbd a03c 1c60 bf3d fa8a c13d
000003e0: 1860 1b3e a1cc a5bd 0dad debd e5be 61bd
000003f0: c276 5bbe 896a 88bd 7895 b23c 6e99 1dbd
-0.06427373 0.11597247 -0.057896644 -0.017753271 0.16806762 0.06874271 -0.05007646 0.13765736
-0.015811313 0.09257541 -0.13898222 -0.10156328 -0.079878 0.11286337 -0.016926875 -0.009742671
0.0034491816 -0.016718497 0.056611903 -0.022049537 0.020022372 -0.028294656 0.023219487 0.030105755
-0.10367181 0.080481 -0.0052744127 0.075395755 -0.14339714 0.04906532 0.0032674952 0.066139996
-0.07456572 -0.001193393 0.035458278 0.067229986 -0.0066039646 0.12905024 0.098276064 0.031405475
-0.06458418 -0.057163328 -0.018481899 -0.04673973 0.14221413 -0.04499688 -0.03499094 0.14278668
-0.02032518 -0.0007362366 0.049979143 0.0313348 0.0015656995 -0.043638844 -0.046831723 -0.077833444
-0.06933557 0.050926883 -0.14524722 0.14429446 -0.10893526 -0.016175196 0.03677783 0.020220933
-0.0005569999 0.0499228 -0.037348807 0.13801125 0.069057316 -0.04754263 -0.016221456 -0.053173274
0.09177115 0.14042066 -0.2426914 0.024919515 -0.039207283 0.06744402 -0.05505711 0.10019188
0.095373385 0.10799571 0.06139845 -0.068644024 0.12240612 -0.06552226 0.07895239 -0.045164302
0.051901627 0.12648371 0.18251878 -0.035134345 -0.20102505 0.078127064 -0.083371736 0.05549929
-0.06899422 0.12576047 0.049692683 0.07404313 0.017402433 -0.013680314 -0.06017066 0.13037165
-0.11227941 -0.008516981 0.025234362 0.087944105 -0.025625145 0.018127779 -0.036289696 0.05033582
-0.06064091 0.12653865 0.101680905 0.08642465 -0.0907671 0.020535601 -0.031063568 -0.046401266
0.096360944 0.15133421 -0.30523178 -0.008281863 -0.2032082 -0.034516267 0.019404722 -0.04634263
-0.07067486 -0.22608572 0.07713782 0.13859162 0.138198 -0.05313331 0.03507987 -0.06285309
0.07204573 0.0376454 0.09774065 0.05737028 -0.047633927 0.038221836 0.17344128 -0.013721145
0.05193901 0.02255054 0.2065949 0.034050263 -0.050976794 -0.021647945 0.09912989 -0.11272226
0.06372135 -0.005765798 0.12677921 0.020407958 -0.48905408 0.09366387 -0.059468687 0.118734196
0.08665547 0.06352349 0.16583295 -0.017609792 0.19134638 -0.038713288 -0.017288582 0.14485079
0.21645539 0.11170131 0.11792019 0.030623699 -0.015967019 0.0763034 0.073233575 -0.05765798
-0.045297325 0.0032351844 -0.005434916 0.046185892 0.10229778 0.015411468 -0.058004834 0.13514441
-0.032288093 0.06507936 -0.02255804 0.1713289 -0.36222544 0.06707874 0.16719101 0.09380126
0.14710993 0.22976948 0.13857187 0.10511173 -0.0069531025 -0.06582984 0.098157994 -0.058472183
-0.066492416 -0.08535584 0.7785979 0.004550537 0.032215144 0.023228234 -0.015095549 0.14313328
0.12869793 -0.07921359 -0.0444171 -0.04465058 -0.023939742 0.024715967 0.12020276 0.082120806
-0.079703495 0.0042959815 -0.07776558 0.0103143975 -0.29660416 0.055728447 0.12781642 0.09787199
0.111395285 0.065299936 0.061143592 0.035049442 0.06161781 -0.02673177 -0.061890204 -0.0930749
-0.20061295 0.08609444 -0.053977653 0.0576711 -0.049827807 -0.05727027 0.06413821 -0.0064623165
0.112990476 -0.07765111 -0.047412127 0.040869772 0.16652088 0.01962175 0.09344503 0.09450336
0.15173376 -0.080956705 -0.108728506 -0.05511369 -0.21432021 -0.06660945 0.021799788 -0.0384764

fc.bias f4 [13]
00000000: e1d4 ba3e 0388 593e 9f60 9d3e 1ef9 353e
00000010: e332 d03e 3e6b fa3e 52fe 3d3e 74f1 f03e
00000020: 0e89 01bd 3a6e 7c3e 079d ea3e 3d5c c63e
00000030: aea4 af3e
0.3649054 0.2124329 0.3073778 0.17770812 0.40663823 0.48909944 0.18554047 0.47059214
-0.031624846 0.24651423 0.45822927 0.38742247 0.34305328
