model.pth (torch, 451669 bytes, 44 tensors)

network.0.conv1.bias f4 [32]
00000000: 1c04 45be 5774 c3be d51d 27be 0f8a 75be
00000010: c160 0abe 44e6 32be 7763 25bf a5d2 b7be
00000020: fc5b 5dbe 7dea 54bf 625b febe 0a4d 3fbe
00000030: 19fa b3be 7539 81be ba1e fabd 4425 f5bd
00000040: 7299 04bf 9e58 34be 043d c7be 4feb 05bf
00000050: 45d7 f7be d5c7 6cbe dd56 22bf 7c85 b83c
00000060: c13e e9be b316 92be 7ba4 17bf b000 85be
00000070: caa3 c0be 370f 0bbe 5056 8ebd 604a cfbe
-0.19239849 -0.38174698 -0.16319974 -0.23978446 -0.13513471 -0.17470652 -0.64604896 -0.35902897
-0.2161712 -0.831703 -0.49679095 -0.18681732 -0.35151747 -0.2523915 -0.12212892 -0.119699985
-0.5179664 -0.1761193 -0.3891374 -0.5231218 -0.48406425 -0.23123105 -0.6341379 0.022524588
-0.4555569 -0.28532943 -0.5923535 -0.25977087 -0.3762496 -0.13580023 -0.069500566 -0.4048643

network.0.conv1.weight_g f4 [32, 1, 1]
00000000: c4a0 433f d1d8 423f a685 fc3e 3096 2b3f
00000010: bd8e 293f 57ac 363f 7ca9 193f a5fb 4a3f
00000020: 314c 323f a114 2f3f d243 263f 36c2 1c3f
00000030: c3d8 473f d484 373f 39c6 1d3f aff5 ef3e
00000040: ba9a 2a3f e22c 013f 3074 2b3f 5a2c 1d3f
00000050: 07a4 213f ee17 4b3f e32f 403f 9e46 aa3e
00000060: 1962 2c3f b308 383f cab1 343f b97c 293f
00000070: 0f69 323f 191a 753f 83ba b43e f4e8 293f
0.76417184 0.76112086 0.49320716 0.6702604 0.66233426 0.7135672 0.6002424 0.7929023
0.6964751 0.6839085 0.64947236 0.6123384 0.7806513 0.71687055 0.6163059 0.4686713
0.66642344 0.5045911 0.66974163 0.613958 0.6314091 0.7933339 0.7507307 0.33257002
0.67337185 0.71888274 0.70583785 0.66205937 0.69691557 0.95742947 0.35298547 0.66371083

network.0.conv1.weight_v f4 [32, 13, 3]
00000000: f5e1 363e 6714 343e 9c0d 683d 978f b3bd
00000010: f087 13be 03c5 e9bd 12d0 8abe 5a92 c83d
00000020: 9574 ed3d 4b34 6bbe f631 adbe 2de9 58be
00000030: 4e8b 483e c7cd 9c3e 595e 813e 0c7f babe
00000040: 092a 47be 87b4 c93d 0876 a2be 1a65 3fbf
00000050: 4ac5 cfbe 61a5 113e b3e4 2dbe dafe f03e
00000060: 263e 7f39 ee35 8639 06f4 d7ac 4207 2fbe
00000070: 05bc a3bd 7663 d53d f2db 03be 87cc 5e3d
00000080: b1d5 d63c 0490 013c 41d0 6fbc 1d05 0a3e
00000090: 5cb4 0dbe c796 fdbd c4f1 6d3e f7bd 593c
000000a0: 97e6 f1bd 0c22 81bb 68e1 c63d 7aa0 babc
000000b0: 2436 ffbd 6907 46be 6abf 0a3d 3787 9e3e
000000c0: 2aef 90be c8e3 5e3e 8722 173f 61a2 2bbf
000000d0: 6955 67be da90 cd3e 343f bb3e 10a5 eabd
000000e0: 21c6 bcbe 78ad e83d 189c 193c 825f 163d
000000f0: a357 ca3d bde0 83bc c882 cb3d 2d7c abac
00000100: a0fc 16be 25ec a0b8 8e75 59bc 5bc8 363e
00000110: 02fd 033d 0b2d 1cbe 13d9 273e 3bbd a03e
00000120: 0911 61bd be32 8bbd 3fa6 d53d 1e6b e1bd
00000130: 9a31 33be 49e6 5b3e 810e 303e acfe 743e
00000140: fafe 35bd 94ea 813e 9204 153d d94c 4bbc
00000150: 5e63 b03e 1b9b 843e 5be5 13be b402 4e3d
00000160: 890a fd3d f194 9d3d ec9f 153e 4ac5 a9bc
00000170: b50d 2ebe 0b9a e93e 1c72 c63e 673c bd38
00000180: f7e1 b5bd 771e 87bd 4aea d2bc 4c01 efbe
00000190: ebb4 1cbf 01e5 53bf a72c f73d 6a48 a63d
000001a0: 8221 a9bd b3f5 13bd 05c7 2bbe 55a6 b8bd
000001b0: 4add 083e 1930 ed3d 46c3 f6bc f036 a63d
000001c0: 38d0 a4ba ee7a 8fbd 310a 3abc eb93 c03d
000001d0: 54ca c43d b98e 683d a160 c4bd 1194 a43d
000001e0: 30a2 7f3d 168e 173d 1123 833d 8dda 773e
000001f0: 3093 213e 1ec9 1cbe be01 23be 0455 cbbe
00000200: b29c 06bf 8107 0c3f a144 0d3f 51b2 7c3e
00000210: c6da 503d 87b5 e23d 3779 dfba 1b02 413e
00000220: c712 3fbe 097d 04bf ae34 32be 8d67 b9bd
00000230: 679e 813d 971b 8922 ed83 01b1 0fa4 9ebd
00000240: 309d 19be f090 c3bd 9fba 053e 385a 4dbd
00000250: 2967 d1bd 9fbf e7bd ea70 b83b 4363 83bd
00000260: c4f0 30be 188c 7ebd d2d3 96bd 85bd 01be
00000270: 9b8c d83e b33c acbc cede 31be 04f8 183e
00000280: 9dba 1d3d 3ff8 9ebd fa27 923e 7a62 633e
00000290: f41a 55bd 93f0 423e 0dd4 773d b7e7 28bd
000002a0: a274 803e 7192 013d f0a9 05be a2df b93e
000002b0: ef34 ce3d dfbb 243e f161 f4be 90af 57bf
000002c0: 3990 c1bf ac43 1f3e 6413 57bd a5a9 44be
000002d0: 84fc 912c 8d96 b5b7 c44c 1eb8 21ca 5c3d
000002e0: ad9d a6bd 9a64 be3e 6b2b 8d3e 1171 a03d
000002f0: 3318 97be f657 3c3d 8e0e 18bc ac70 dabb
00000300: 89d6 193e 9866 4c3c 3706 22bd 029e 8bbe
00000310: ff72 84be 01fa 78bd 303d 99be f566 8fbd
00000320: 8155 5abe 79bc 2a3d 007a 89be fe80 bfbe
00000330: 5617 e93a 07c4 eb3c 162a 303e ef20 213e
00000340: 1e0f adbd 9d38 863d 2fca 94be 609f fcbe
00000350: 54a3 6fbf 3253 683c c356 083d 0c9b 97bd
00000360: 8f65 353e 8ae9 853e 6757 46be 30ab 5137
00000370: aa97 562b 14e9 55b9 e2e7 61bc 6915 91bd
00000380: bf21 2a3d 9e9b 703e 30dd 083d 22de f1bc
00000390: 5bfb 333d 5933 ba3d f009 2ebe a4ea 983d
000003a0: dda7 f23d c4ae 5cbe 9a28 5cbe 38c0 35bd
000003b0: e602 333e 8b46 55be 6b8f b9bd b7e2 213e
000003c0: 0adb 353d 7797 15be f546 e5be 21aa b9bc
000003d0: 4227 573e 42fd 913e e890 27be 1857 60bd
000003e0: 0efc 5cbd 724f 553e bb44 413e 332c 91bd
000003f0: 7d09 953e 170b 563e b940 833e 6f0e 65be
0.17859633 0.17585908 0.056653604 -0.08767622 -0.14407325 -0.1141453 -0.2711187 0.09793539
0.11594502 -0.22969167 -0.3382718 -0.211827 0.1958439 0.30625746 0.25267294 -0.36425054
-0.19449629 0.09848886 -0.31730676 -0.74763644 -0.40580207 0.14223243 -0.16981773 0.47069436
0.00024341847 0.00025598652 -6.1377596e-12 -0.17092612 -0.07994846 0.10419361 -0.12876871 0.05439427
0.026224943 0.007907871 -0.014637054 0.13478513 -0.13838333 -0.12382274 0.23236758 0.01328992
-0.1181156 -0.0039408263 0.097109616 -0.0227816 -0.124614984 -0.19338764 0.033873953 0.30962536
-0.28307468 0.21766579 0.5903706 -0.67044646 -0.22591175 0.40149575 0.36571658 -0.114572644
-0.3686991 0.113612115 0.009375595 0.036712177 0.09879997 -0.016098375 0.09937054 -4.8738986e-12
-0.14744806 -7.67338e-05 -0.013272656 0.17849867 0.03222371 -0.15251558 0.16391401 0.3139437
-0.054947887 -0.06796788 0.104320996 -0.11006759 -0.1749939 0.21474566 0.17193033 0.23925275
-0.044432618 0.2537428 0.03638131 -0.012408459 0.3445081 0.25899586 -0.14442961 0.050295547
0.12355525 0.07694424 0.14611787 -0.020723958 -0.16997416 0.45625338 0.38758934 9.023473e-05
-0.0888099 -0.065976076 -0.025746483 -0.46680677 -0.6121356 -0.8277131 0.12069064 0.08119281
-0.08258344 -0.03612299 -0.16775139 -0.090161 0.13365665 0.115814395 -0.03012241 0.08115947
-0.0012574261 -0.07005869 -0.011354969 0.09403213 0.096089035 0.056776736 -0.09588743 0.08036054
0.062410533 0.037000738 0.06403173 0.24204464 0.15778804 -0.15311095 -0.15918633 -0.397133
-0.5258285 0.5469895 0.55182844 0.24677397 0.05098989 0.1106978 -0.0017049675 0.1884846
-0.18659507 -0.5175329 -0.17402908 -0.09052954 0.06329041 3.7163136e-18 -1.8846962e-09 -0.077461354
-0.15001369 -0.09549129 0.13059472 -0.050134867 -0.10224754 -0.11315846 0.005628695 -0.06415417
-0.17279345 -0.062145323 -0.0736462 -0.12669952 0.42294773 -0.021025037 -0.1737015 0.1493836
0.038508046 -0.07762193 0.28546125 0.22205535 -0.052027658 0.19037084 0.06050496 -0.041236605
0.25088984 0.031633798 -0.13053107 0.3630343 0.1006869 0.16087292 -0.47730973 -0.8425226
-1.5122138 0.15553159 -0.052508727 -0.19205339 4.1491827e-12 -2.1646987e-05 -3.774163e-05 0.053903703
-0.08135543 0.37186128 0.27572188 0.07834066 -0.2951065 0.045982324 -0.009280814 -0.0066662636
0.15023245 0.012475632 -0.03955671 -0.27268988 -0.25868985 -0.060785297 -0.29929495 -0.07002059
-0.2132168 0.041683648 -0.2685089 -0.374031 0.0017783444 0.028779997 0.17203555 0.1573522
-0.08450149 0.06553767 -0.29060504 -0.49340343 -0.93608594 0.014179992 0.033285867 -0.0740262
0.17714523 0.2615474 -0.19369279 1.2497228e-05 7.623855e-13 -0.00020400091 -0.013788195 -0.07084162
0.04153609 0.23496863 0.033414066 -0.029524866 0.043940883 0.09091825 -0.16995978 0.07466629
0.11848424 -0.21551043 -0.21499863 -0.044372767 0.17481574 -0.20827691 -0.09060558 0.15809141
0.044398345 -0.1460856 -0.44780698 -0.022664132 0.2101107 0.28513533 -0.16363871 -0.05477056
-0.053951316 0.20831087 0.18873875 -0.070885085 0.291088 0.20902668 0.25635317 -0.22368787

network.0.conv2.bias f4 [32]
00000000: 6535 ca3e 3669 56bc ad0e 2e3e 6cca 733e
00000010: f267 b4bd 722e 3e3e f939 333e d96b f6bc
00000020: 765f 62bd e837 b9bc 5511 1ebd 3aec 743d
00000030: 0476 35bc 7d07 283d 7af0 87bc 8b5e 443e
00000040: 68a6 6a3e ed1b 8f3e 76db 563e e8f8 1e3e
00000050: 595d 743e 9e96 7e3e 18a3 f93d b5c2 b93d
00000060: 94c8 02bc c272 d43d 7b7b 7e3c 5b43 dd3d
00000070: dad0 d3bc dde9 653e 6811 503e 9ddf 823e
0.39493862 -0.013086608 0.16997786 0.23807687 -0.088088885 0.18572405 0.17502584 -0.030080723
-0.05526682 -0.022609666 -0.038590748 0.059795596 -0.0110755 0.041022766 -0.01659416 0.1917669
0.22915041 0.27950993 0.20982155 0.15524638 0.23863734 0.24862143 0.12189311 0.090703405
-0.007982392 0.10373451 0.01553237 0.10803863 -0.025856424 0.22452493 0.2031914 0.25561228

network.0.conv2.weight_g f4 [32, 1, 1]
00000000: 1cbc d43f a741 1d3f ac2e 8c3f 9405 993f
00000010: f9ab 0c3f fb46 893f 21ef a13f e21d fc3e
00000020: 903f 293f 717d 843d 2a8a 0d3f ee27 213f
00000030: 93ec 293f e41f 003f bb16 033f a19d 783f
00000040: e0c8 783f 7e9f aa3f 39c5 5e3f 4f01 893f
00000050: 1dc0 ec3f 5645 e33f 0263 603f 5bd6 9d3f
00000060: 9e80 093f ee99 a73f e742 813f 2e1c 863f
00000070: 1fdf 173f cb5e ab3f 9e86 883f 0bac be3f
1.6619906 0.614283 1.0951743 1.1954827 0.5494991 1.0724787 1.2651101 0.4924155
0.66112614 0.064692385 0.55288947 0.6295155 0.6637661 0.5004866 0.5120656 0.9711552
0.9718151 1.3329923 0.8701969 1.0703524 1.8496128 1.7755535 0.87651074 1.2331041
0.5371188 1.3093851 1.0098542 1.047735 0.5932483 1.3388304 1.0666082 1.4896253

network.0.conv2.weight_v f4 [32, 32, 3]
00000000: eb55 eabd c9af cc3d f8c2 30bf 88cd 3c3d
00000010: a09c ce3d d049 6dbd 2d1c 28be 1159 2ebf
00000020: c235 a9be 1347 a33c 7086 153d 3ee4 d2b9
00000030: e7c9 c6be 2bdc 00bf 95a6 76be e585 34bd
00000040: 79ab e33d 7fac aa3e 9bb5 2ebe 2915 41be
00000050: 75ba 7ebe 9d34 3f3e 5a98 29bd 2097 c2be
00000060: df75 8e3d fb08 c53e ec42 d7be 0714 d7bc
00000070: 0e3b cd3d 0390 17bd 1911 96bd e7c4 99bb
00000080: f0f7 ee3d d22e 5abd 84ae 4e3e d5d0 f83c
00000090: 7474 b43d b237 fb3d 1486 023e 347f 933c
000000a0: bdd3 05bb a445 d6bc 494f 883d 109c f8bc
000000b0: ddea 803e 82f8 a5bc dac2 ef3d ada7 b7be
000000c0: 4d77 20be 9973 16be cdb9 863d c38e e33c
000000d0: 0b6d 923a ef74 083c 9ba8 a73b 158d 013e
000000e0: 0ca6 963e 4696 8d3d f897 e4bd 6507 133e
000000f0: 5072 073d 7ed6 a43d 0df1 e4bd 5373 b0bc
00000100: 8461 a0be 0455 0b3f cc1d 68be 4aaa b5be
00000110: 9683 c7be 782b b83d defe 8a3e 27c7 833d
00000120: ce12 273e 3027 5abe 9db9 9ebe c20d 2cbd
00000130: 9128 c13d 08e6 6a3e f5bd c3bb 4c74 083d
00000140: c7e0 c33d 97b5 073e 74e8 ae3c bdfe 513e
00000150: bddf d03d 3c1e 78bc 8f13 5a3e 21d6 82be
00000160: b187 ccbd 2b59 bdbe ad32 313d e354 0a3e
00000170: 04a0 aa3d adbd 9cbc fc5a 4dbf 720a 05bf
00000180: 12d6 7ebc 1de8 04be 2300 f4bd 7fb2 c7bd
00000190: dd1a afbd 555f 1dbe 137c b1bc ac1d babd
000001a0: 7530 a1bc 33d4 cdbc 9807 fabd 138f 2abd
000001b0: b225 44bd 4c79 a03b a202 d9bc 5fd3 88bd
000001c0: 66d1 aabd 17b4 b5bd e138 61bd d238 a6bd
000001d0: c620 48bd e187 0bbd da64 16be 01e7 d7bd
000001e0: fc2f 77bc 7e03 06be 2c8e e8bb 5260 f3bd
000001f0: d07a d4bd 30bc fbbd 7ede a5bd 8082 2fbc
00000200: 996e 88bd 5def 4dbd 58d9 b6bd 9891 c1bc
00000210: a18d cebd c158 9dbc 27f4 debd af04 c6bd
00000220: 13ca 68bc 47ae efbd 3206 16be 5176 b4bd
00000230: 9b5a b9bd 5a7b 45be 966d 31bc 9d5e 78bc
00000240: 204e 06bd 735b b0bd 6c81 97bd 78ab 1fbe
00000250: 0be0 b2bd 5747 f3bd 9aff 22bd 1922 0a3d
00000260: 8551 bebc d00a 1dbe fab1 97bd 3a23 13bd
00000270: 3043 fabd 814b 0abd 3f97 11bd e4d1 1fbd
00000280: 1de5 a3bd 381c d5bd 7646 92bd 72c1 02bc
00000290: afdd 90bd 04e0 78be e2b3 55be 4d67 3fbe
000002a0: 3622 e7bd eb1e b3bd f8d5 10be 1396 a4bd
000002b0: 65b8 03be 5c3c 14be 279b c23c 9ff1 96bd
000002c0: 50b2 15bd 59c3 1cbe c39d 2abd 8b01 343b
000002d0: 95a5 4e3d 9588 e4bd 3f04 debd 3381 5dbe
000002e0: 704c 903c 0c1d 423d 3f93 60be 2cdc 90bd
000002f0: c5ee 9abd c817 cbbd 9db9 09bd 827b d4bd
00000300: bef6 82bd 4712 98be 61dc aebe 1f67 6b3d
00000310: d653 513e 8984 f33e e342 2e3d b47d 0dbd
00000320: 9b59 5ebd a73f de3d 884e 13bd 4fb6 c0bd
00000330: 3c3f 38be 883a a1be 156b 5abe 3e92 a0bd
00000340: 9773 f53d a4ad 313e f728 4bbd 3190 01be
00000350: 615c 40be 5a56 943d 434c f33d 0f27 123e
00000360: face 38bb b076 4ebd cae5 55be 7f0a 003e
00000370: ebaf 5c3d 83bf 523d 9ee0 923d 1fce 1c3e
00000380: 5b1b a13d dc04 99bd ecd2 f3bd fe1d 6dbe
00000390: 9465 fdbb 69d9 1fbc 2c42 c73c fb40 ddbe
000003a0: fd93 94be 0a4f 4ebc 4bda 013d 7540 b23d
000003b0: c82e 013e 1212 293e 486d ff3d aac6 213d
000003c0: 47d5 273e 0bdd 433e 164b 1e3e 9f2b b73e
000003d0: 5899 be3e 89c8 853e b5d9 763e 4d99 f93d
000003e0: 5cf2 493c 02e1 adbe 327c d3be 11f6 a3be
000003f0: 2c66 7d3d ab73 853b 0e11 76bc 0f5b e3be
-0.11442169 0.09994466 -0.690475 0.046094447 0.100884676 -0.05793172 -0.16416998 -0.68104655
-0.33048826 0.019931352 0.036505163 -0.00040224375 -0.38825914 -0.5033595 -0.24086984 -0.044073004
0.1111669 0.3333473 -0.17061464 -0.18855728 -0.24875815 0.18672414 -0.04140506 -0.38005924
0.06956076 0.38483414 -0.42043245 -0.026254667 0.100210294 -0.037002575 -0.0732748 -0.004692662
0.11668384 -0.053267308 0.2018376 0.030373016 0.08811274 0.122664824 0.12746459 0.018004991
-0.0020420395 -0.026156254 0.066557474 -0.030347854 0.25179186 -0.0202601 0.11707087 -0.35870114
-0.1567051 -0.14692535 0.065784074 0.027778035 0.0011171413 0.00832866 0.005116535 0.12651475
0.2942356 0.06913428 -0.11161798 0.1435829 0.033068 0.08048724 -0.11178789 -0.021539366
-0.313244 0.544266 -0.22667617 -0.35481483 -0.3896758 0.08992666 0.27147573 0.0643447
0.16315767 -0.21304011 -0.31000987 -0.042005308 0.094315656 0.22939312 -0.0059735724 0.033314034
0.09564357 0.13252865 0.021351077 0.20507331 0.10198925 -0.015143927 0.21296524 -0.25553992
-0.099868186 -0.36982092 0.04326122 0.13508944 0.08331302 -0.019133413 -0.80216956 -0.51969063
-0.015553968 -0.12979169 -0.119140886 -0.09750842 -0.08550046 -0.15368398 -0.021665609 -0.09087691
-0.019676426 -0.025125599 -0.1220848 -0.041640352 -0.04788751 0.004897272 -0.026490513 -0.06680941
-0.08340721 -0.0887224 -0.054985885 -0.08116306 -0.04885938 -0.03406513 -0.1468691 -0.105421074
-0.015087124 -0.1308727 -0.0070970263 -0.11883606 -0.10374987 -0.12291753 -0.08099078 -0.010712266
-0.0666172 -0.050277103 -0.08928174 -0.023628995 -0.10085607 -0.01920736 -0.10886412 -0.09668862
-0.0142083345 -0.11703163 -0.14650801 -0.088116296 -0.09050485 -0.19285336 -0.01082935 -0.015159276
-0.03278935 -0.086111926 -0.07397732 -0.15592754 -0.08734139 -0.11878841 -0.039794542 0.033723924
-0.02323223 -0.15336156 -0.07406993 -0.035922267 -0.12219846 -0.033763412 -0.03554463 -0.039018527
-0.08002684 -0.10405773 -0.071423456 -0.007980691 -0.07073533 -0.24304205 -0.20869401 -0.1869175
-0.11285822 -0.087461315 -0.14144123 -0.08036437 -0.1286331 -0.1447615 0.023755623 -0.07370304
-0.036547005 -0.15308894 -0.04165436 0.002746674 0.05045088 -0.111588635 -0.10840654 -0.21631317
0.017614573 0.047390983 -0.2193117 -0.070732445 -0.07565073 -0.09916645 -0.03362428 -0.1037512
-0.063947186 -0.29701445 -0.3415251 0.05747139 0.20442137 0.47562054 0.042544257 -0.034543708
-0.054284673 0.108519845 -0.035963565 -0.094097726 -0.17992872 -0.31489968 -0.21329911 -0.078403935
0.11984938 0.17351395 -0.049599614 -0.12652661 -0.1878524 0.07243033 0.1187978 0.14272712
-0.002819954 -0.050406158 -0.20888439 0.12504004 0.053878706 0.05145217 0.071717486 0.15313004
0.07866546 -0.0747163 -0.119054645 -0.23155972 -0.0077330563 -0.009756424 0.024323545 -0.4321364
-0.29019156 -0.012592087 0.03170232 0.087037005 0.12615502 0.165108 0.124720156 0.0394961
0.16389953 0.1912729 0.1545833 0.35775468 0.37226367 0.2612956 0.24106486 0.12187443
0.012325849 -0.3396073 -0.4130569 -0.3202367 0.061865017 0.0040726266 -0.015018715 -0.4440541

network.0.net.0.bias f4 [32]
00000000: 1c04 45be 5774 c3be d51d 27be 0f8a 75be
00000010: c160 0abe 44e6 32be 7763 25bf a5d2 b7be
00000020: fc5b 5dbe 7dea 54bf 625b febe 0a4d 3fbe
00000030: 19fa b3be 7539 81be ba1e fabd 4425 f5bd
00000040: 7299 04bf 9e58 34be 043d c7be 4feb 05bf
00000050: 45d7 f7be d5c7 6cbe dd56 22bf 7c85 b83c
00000060: c13e e9be b316 92be 7ba4 17bf b000 85be
00000070: caa3 c0be 370f 0bbe 5056 8ebd 604a cfbe
-0.19239849 -0.38174698 -0.16319974 -0.23978446 -0.13513471 -0.17470652 -0.64604896 -0.35902897
-0.2161712 -0.831703 -0.49679095 -0.18681732 -0.35151747 -0.2523915 -0.12212892 -0.119699985
-0.5179664 -0.1761193 -0.3891374 -0.5231218 -0.48406425 -0.23123105 -0.6341379 0.022524588
-0.4555569 -0.28532943 -0.5923535 -0.25977087 -0.3762496 -0.13580023 -0.069500566 -0.4048643

network.0.net.0.weight_g f4 [32, 1, 1]
00000000: c4a0 433f d1d8 423f a685 fc3e 3096 2b3f
00000010: bd8e 293f 57ac 363f 7ca9 193f a5fb 4a3f
00000020: 314c 323f a114 2f3f d243 263f 36c2 1c3f
00000030: c3d8 473f d484 373f 39c6 1d3f aff5 ef3e
00000040: ba9a 2a3f e22c 013f 3074 2b3f 5a2c 1d3f
00000050: 07a4 213f ee17 4b3f e32f 403f 9e46 aa3e
00000060: 1962 2c3f b308 383f cab1 343f b97c 293f
00000070: 0f69 323f 191a 753f 83ba b43e f4e8 293f
0.76417184 0.76112086 0.49320716 0.6702604 0.66233426 0.7135672 0.6002424 0.7929023
0.6964751 0.6839085 0.64947236 0.6123384 0.7806513 0.71687055 0.6163059 0.4686713
0.66642344 0.5045911 0.66974163 0.613958 0.6314091 0.7933339 0.7507307 0.33257002
0.67337185 0.71888274 0.70583785 0.66205937 0.69691557 0.95742947 0.35298547 0.66371083

network.0.net.0.weight_v f4 [32, 13, 3]
00000000: f5e1 363e 6714 343e 9c0d 683d 978f b3bd
00000010: f087 13be 03c5 e9bd 12d0 8abe 5a92 c83d
00000020: 9574 ed3d 4b34 6bbe f631 adbe 2de9 58be
00000030: 4e8b 483e c7cd 9c3e 595e 813e 0c7f babe
00000040: 092a 47be 87b4 c93d 0876 a2be 1a65 3fbf
00000050: 4ac5 cfbe 61a5 113e b3e4 2dbe dafe f03e
00000060: 263e 7f39 ee35 8639 06f4 d7ac 4207 2fbe
00000070: 05bc a3bd 7663 d53d f2db 03be 87cc 5e3d
00000080: b1d5 d63c 0490 013c 41d0 6fbc 1d05 0a3e
00000090: 5cb4 0dbe c796 fdbd c4f1 6d3e f7bd 593c
000000a0: 97e6 f1bd 0c22 81bb 68e1 c63d 7aa0 babc
000000b0: 2436 ffbd 6907 46be 6abf 0a3d 3787 9e3e
000000c0: 2aef 90be c8e3 5e3e 8722 173f 61a2 2bbf
000000d0: 6955 67be da90 cd3e 343f bb3e 10a5 eabd
000000e0: 21c6 bcbe 78ad e83d 189c 193c 825f 163d
000000f0: a357 ca3d bde0 83bc c882 cb3d 2d7c abac
00000100: a0fc 16be 25ec a0b8 8e75 59bc 5bc8 363e
00000110: 02fd 033d 0b2d 1cbe 13d9 273e 3bbd a03e
00000120: 0911 61bd be32 8bbd 3fa6 d53d 1e6b e1bd
00000130: 9a31 33be 49e6 5b3e 810e 303e acfe 743e
00000140: fafe 35bd 94ea 813e 9204 153d d94c 4bbc
00000150: 5e63 b03e 1b9b 843e 5be5 13be b402 4e3d
00000160: 890a fd3d f194 9d3d ec9f 153e 4ac5 a9bc
00000170: b50d 2ebe 0b9a e93e 1c72 c63e 673c bd38
00000180: f7e1 b5bd 771e 87bd 4aea d2bc 4c01 efbe
00000190: ebb4 1cbf 01e5 53bf a72c f73d 6a48 a63d
000001a0: 8221 a9bd b3f5 13bd 05c7 2bbe 55a6 b8bd
000001b0: 4add 083e 1930 ed3d 46c3 f6bc f036 a63d
000001c0: 38d0 a4ba ee7a 8fbd 310a 3abc eb93 c03d
000001d0: 54ca c43d b98e 683d a160 c4bd 1194 a43d
000001e0: 30a2 7f3d 168e 173d 1123 833d 8dda 773e
000001f0: 3093 213e 1ec9 1cbe be01 23be 0455 cbbe
00000200: b29c 06bf 8107 0c3f a144 0d3f 51b2 7c3e
00000210: c6da 503d 87b5 e23d 3779 dfba 1b02 413e
00000220: c712 3fbe 097d 04bf ae34 32be 8d67 b9bd
00000230: 679e 813d 971b 8922 ed83 01b1 0fa4 9ebd
00000240: 309d 19be f090 c3bd 9fba 053e 385a 4dbd
00000250: 2967 d1bd 9fbf e7bd ea70 b83b 4363 83bd
00000260: c4f0 30be 188c 7ebd d2d3 96bd 85bd 01be
00000270: 9b8c d83e b33c acbc cede 31be 04f8 183e
00000280: 9dba 1d3d 3ff8 9ebd fa27 923e 7a62 633e
00000290: f41a 55bd 93f0 423e 0dd4 773d b7e7 28bd
000002a0: a274 803e 7192 013d f0a9 05be a2df b93e
000002b0: ef34 ce3d dfbb 243e f161 f4be 90af 57bf
000002c0: 3990 c1bf ac43 1f3e 6413 57bd a5a9 44be
000002d0: 84fc 912c 8d96 b5b7 c44c 1eb8 21ca 5c3d
000002e0: ad9d a6bd 9a64 be3e 6b2b 8d3e 1171 a03d
000002f0: 3318 97be f657 3c3d 8e0e 18bc ac70 dabb
00000300: 89d6 193e 9866 4c3c 3706 22bd 029e 8bbe
00000310: ff72 84be 01fa 78bd 303d 99be f566 8fbd
00000320: 8155 5abe 79bc 2a3d 007a 89be fe80 bfbe
00000330: 5617 e93a 07c4 eb3c 162a 303e ef20 213e
00000340: 1e0f adbd 9d38 863d 2fca 94be 609f fcbe
00000350: 54a3 6fbf 3253 683c c356 083d 0c9b 97bd
00000360: 8f65 353e 8ae9 853e 6757 46be 30ab 5137
00000370: aa97 562b 14e9 55b9 e2e7 61bc 6915 91bd
00000380: bf21 2a3d 9e9b 703e 30dd 083d 22de f1bc
00000390: 5bfb 333d 5933 ba3d f009 2ebe a4ea 983d
000003a0: dda7 f23d c4ae 5cbe 9a28 5cbe 38c0 35bd
000003b0: e602 333e 8b46 55be 6b8f b9bd b7e2 213e
000003c0: 0adb 353d 7797 15be f546 e5be 21aa b9bc
000003d0: 4227 573e 42fd 913e e890 27be 1857 60bd
000003e0: 0efc 5cbd 724f 553e bb44 413e 332c 91bd
000003f0: 7d09 953e 170b 563e b940 833e 6f0e 65be
0.17859633 0.17585908 0.056653604 -0.08767622 -0.14407325 -0.1141453 -0.2711187 0.09793539
0.11594502 -0.22969167 -0.3382718 -0.211827 0.1958439 0.30625746 0.25267294 -0.36425054
-0.19449629 0.09848886 -0.31730676 -0.74763644 -0.40580207 0.14223243 -0.16981773 0.47069436
0.00024341847 0.00025598652 -6.1377596e-12 -0.17092612 -0.07994846 0.10419361 -0.12876871 0.05439427
0.026224943 0.007907871 -0.014637054 0.13478513 -0.13838333 -0.12382274 0.23236758 0.01328992
-0.1181156 -0.0039408263 0.097109616 -0.0227816 -0.124614984 -0.19338764 0.033873953 0.30962536
-0.28307468 0.21766579 0.5903706 -0.67044646 -0.22591175 0.40149575 0.36571658 -0.114572644
-0.3686991 0.113612115 0.009375595 0.036712177 0.09879997 -0.016098375 0.09937054 -4.8738986e-12
-0.14744806 -7.67338e-05 -0.013272656 0.17849867 0.03222371 -0.15251558 0.16391401 0.3139437
-0.054947887 -0.06796788 0.104320996 -0.11006759 -0.1749939 0.21474566 0.17193033 0.23925275
-0.044432618 0.2537428 0.03638131 -0.012408459 0.3445081 0.25899586 -0.14442961 0.050295547
0.12355525 0.07694424 0.14611787 -0.020723958 -0.16997416 0.45625338 0.38758934 9.023473e-05
-0.0888099 -0.065976076 -0.025746483 -0.46680677 -0.6121356 -0.8277131 0.12069064 0.08119281
-0.08258344 -0.03612299 -0.16775139 -0.090161 0.13365665 0.115814395 -0.03012241 0.08115947
-0.0012574261 -0.07005869 -0.011354969 0.09403213 0.096089035 0.056776736 -0.09588743 0.08036054
0.062410533 0.037000738 0.06403173 0.24204464 0.15778804 -0.15311095 -0.15918633 -0.397133
-0.5258285 0.5469895 0.55182844 0.24677397 0.05098989 0.1106978 -0.0017049675 0.1884846
-0.18659507 -0.5175329 -0.17402908 -0.09052954 0.06329041 3.7163136e-18 -1.8846962e-09 -0.077461354
-0.15001369 -0.09549129 0.13059472 -0.050134867 -0.10224754 -0.11315846 0.005628695 -0.06415417
-0.17279345 -0.062145323 -0.0736462 -0.12669952 0.42294773 -0.021025037 -0.1737015 0.1493836
0.038508046 -0.07762193 0.28546125 0.22205535 -0.052027658 0.19037084 0.06050496 -0.041236605
0.25088984 0.031633798 -0.13053107 0.3630343 0.1006869 0.16087292 -0.47730973 -0.8425226
-1.5122138 0.15553159 -0.052508727 -0.19205339 4.1491827e-12 -2.1646987e-05 -3.774163e-05 0.053903703
-0.08135543 0.37186128 0.27572188 0.07834066 -0.2951065 0.045982324 -0.009280814 -0.0066662636
0.15023245 0.012475632 -0.03955671 -0.27268988 -0.25868985 -0.060785297 -0.29929495 -0.07002059
-0.2132168 0.041683648 -0.2685089 -0.374031 0.0017783444 0.028779997 0.17203555 0.1573522
-0.08450149 0.06553767 -0.29060504 -0.49340343 -0.93608594 0.014179992 0.033285867 -0.0740262
0.17714523 0.2615474 -0.19369279 1.2497228e-05 7.623855e-13 -0.00020400091 -0.013788195 -0.07084162
0.04153609 0.23496863 0.033414066 -0.029524866 0.043940883 0.09091825 -0.16995978 0.07466629
0.11848424 -0.21551043 -0.21499863 -0.044372767 0.17481574 -0.20827691 -0.09060558 0.15809141
0.044398345 -0.1460856 -0.44780698 -0.022664132 0.2101107 0.28513533 -0.16363871 -0.05477056
-0.053951316 0.20831087 0.18873875 -0.070885085 0.291088 0.20902668 0.25635317 -0.22368787

network.0.net.4.bias f4 [32]
00000000: 6535 ca3e 3669 56bc ad0e 2e3e 6cca 733e
00000010: f267 b4bd 722e 3e3e f939 333e d96b f6bc
00000020: 765f 62bd e837 b9bc 5511 1ebd 3aec 743d
00000030: 0476 35bc 7d07 283d 7af0 87bc 8b5e 443e
00000040: 68a6 6a3e ed1b 8f3e 76db 563e e8f8 1e3e
00000050: 595d 743e 9e96 7e3e 18a3 f93d b5c2 b93d
00000060: 94c8 02bc c272 d43d 7b7b 7e3c 5b43 dd3d
00000070: dad0 d3bc dde9 653e 6811 503e 9ddf 823e
0.39493862 -0.013086608 0.16997786 0.23807687 -0.088088885 0.18572405 0.17502584 -0.030080723
-0.05526682 -0.022609666 -0.038590748 0.059795596 -0.0110755 0.041022766 -0.01659416 0.1917669
0.22915041 0.27950993 0.20982155 0.15524638 0.23863734 0.24862143 0.12189311 0.090703405
-0.007982392 0.10373451 0.01553237 0.10803863 -0.025856424 0.22452493 0.2031914 0.25561228

network.0.net.4.weight_g f4 [32, 1, 1]
00000000: 1cbc d43f a741 1d3f ac2e 8c3f 9405 993f
00000010: f9ab 0c3f fb46 893f 21ef a13f e21d fc3e
00000020: 903f 293f 717d 843d 2a8a 0d3f ee27 213f
00000030: 93ec 293f e41f 003f bb16 033f a19d 783f
00000040: e0c8 783f 7e9f aa3f 39c5 5e3f 4f01 893f
00000050: 1dc0 ec3f 5645 e33f 0263 603f 5bd6 9d3f
00000060: 9e80 093f ee99 a73f e742 813f 2e1c 863f
00000070: 1fdf 173f cb5e ab3f 9e86 883f 0bac be3f
1.6619906 0.614283 1.0951743 1.1954827 0.5494991 1.0724787 1.2651101 0.4924155
0.66112614 0.064692385 0.55288947 0.6295155 0.6637661 0.5004866 0.5120656 0.9711552
0.9718151 1.3329923 0.8701969 1.0703524 1.8496128 1.7755535 0.87651074 1.2331041
0.5371188 1.3093851 1.0098542 1.047735 0.5932483 1.3388304 1.0666082 1.4896253

network.0.net.4.weight_v f4 [32, 32, 3]
00000000: eb55 eabd c9af cc3d f8c2 30bf 88cd 3c3d
00000010: a09c ce3d d049 6dbd 2d1c 28be 1159 2ebf
00000020: c235 a9be 1347 a33c 7086 153d 3ee4 d2b9
00000030: e7c9 c6be 2bdc 00bf 95a6 76be e585 34bd
00000040: 79ab e33d 7fac aa3e 9bb5 2ebe 2915 41be
00000050: 75ba 7ebe 9d34 3f3e 5a98 29bd 2097 c2be
00000060: df75 8e3d fb08 c53e ec42 d7be 0714 d7bc
00000070: 0e3b cd3d 0390 17bd 1911 96bd e7c4 99bb
00000080: f0f7 ee3d d22e 5abd 84ae 4e3e d5d0 f83c
00000090: 7474 b43d b237 fb3d 1486 023e 347f 933c
000000a0: bdd3 05bb a445 d6bc 494f 883d 109c f8bc
000000b0: ddea 803e 82f8 a5bc dac2 ef3d ada7 b7be
000000c0: 4d77 20be 9973 16be cdb9 863d c38e e33c
000000d0: 0b6d 923a ef74 083c 9ba8 a73b 158d 013e
000000e0: 0ca6 963e 4696 8d3d f897 e4bd 6507 133e
000000f0: 5072 073d 7ed6 a43d 0df1 e4bd 5373 b0bc
00000100: 8461 a0be 0455 0b3f cc1d 68be 4aaa b5be
00000110: 9683 c7be 782b b83d defe 8a3e 27c7 833d
00000120: ce12 273e 3027 5abe 9db9 9ebe c20d 2cbd
00000130: 9128 c13d 08e6 6a3e f5bd c3bb 4c74 083d
00000140: c7e0 c33d 97b5 073e 74e8 ae3c bdfe 513e
00000150: bddf d03d 3c1e 78bc 8f13 5a3e 21d6 82be
00000160: b187 ccbd 2b59 bdbe ad32 313d e354 0a3e
00000170: 04a0 aa3d adbd 9cbc fc5a 4dbf 720a 05bf
00000180: 12d6 7ebc 1de8 04be 2300 f4bd 7fb2 c7bd
00000190: dd1a afbd 555f 1dbe 137c b1bc ac1d babd
000001a0: 7530 a1bc 33d4 cdbc 9807 fabd 138f 2abd
000001b0: b225 44bd 4c79 a03b a202 d9bc 5fd3 88bd
000001c0: 66d1 aabd 17b4 b5bd e138 61bd d238 a6bd
000001d0: c620 48bd e187 0bbd da64 16be 01e7 d7bd
000001e0: fc2f 77bc 7e03 06be 2c8e e8bb 5260 f3bd
000001f0: d07a d4bd 30bc fbbd 7ede a5bd 8082 2fbc
00000200: 996e 88bd 5def 4dbd 58d9 b6bd 9891 c1bc
00000210: a18d cebd c158 9dbc 27f4 debd af04 c6bd
00000220: 13ca 68bc 47ae efbd 3206 16be 5176 b4bd
00000230: 9b5a b9bd 5a7b 45be 966d 31bc 9d5e 78bc
00000240: 204e 06bd 735b b0bd 6c81 97bd 78ab 1fbe
00000250: 0be0 b2bd 5747 f3bd 9aff 22bd 1922 0a3d
00000260: 8551 bebc d00a 1dbe fab1 97bd 3a23 13bd
00000270: 3043 fabd 814b 0abd 3f97 11bd e4d1 1fbd
00000280: 1de5 a3bd 381c d5bd 7646 92bd 72c1 02bc
00000290: afdd 90bd 04e0 78be e2b3 55be 4d67 3fbe
000002a0: 3622 e7bd eb1e b3bd f8d5 10be 1396 a4bd
000002b0: 65b8 03be 5c3c 14be 279b c23c 9ff1 96bd
000002c0: 50b2 15bd 59c3 1cbe c39d 2abd 8b01 343b
000002d0: 95a5 4e3d 9588 e4bd 3f04 debd 3381 5dbe
000002e0: 704c 903c 0c1d 423d 3f93 60be 2cdc 90bd
000002f0: c5ee 9abd c817 cbbd 9db9 09bd 827b d4bd
00000300: bef6 82bd 4712 98be 61dc aebe 1f67 6b3d
00000310: d653 513e 8984 f33e e342 2e3d b47d 0dbd
00000320: 9b59 5ebd a73f de3d 884e 13bd 4fb6 c0bd
00000330: 3c3f 38be 883a a1be 156b 5abe 3e92 a0bd
00000340: 9773 f53d a4ad 313e f728 4bbd 3190 01be
00000350: 615c 40be 5a56 943d 434c f33d 0f27 123e
00000360: face 38bb b076 4ebd cae5 55be 7f0a 003e
00000370: ebaf 5c3d 83bf 523d 9ee0 923d 1fce 1c3e
00000380: 5b1b a13d dc04 99bd ecd2 f3bd fe1d 6dbe
00000390: 9465 fdbb 69d9 1fbc 2c42 c73c fb40 ddbe
000003a0: fd93 94be 0a4f 4ebc 4bda 013d 7540 b23d
000003b0: c82e 013e 1212 293e 486d ff3d aac6 213d
000003c0: 47d5 273e 0bdd 433e 164b 1e3e 9f2b b73e
000003d0: 5899 be3e 89c8 853e b5d9 763e 4d99 f93d
000003e0: 5cf2 493c 02e1 adbe 327c d3be 11f6 a3be
000003f0: 2c66 7d3d ab73 853b 0e11 76bc 0f5b e3be
-0.11442169 0.09994466 -0.690475 0.046094447 0.100884676 -0.05793172 -0.16416998 -0.68104655
-0.33048826 0.019931352 0.036505163 -0.00040224375 -0.38825914 -0.5033595 -0.24086984 -0.044073004
0.1111669 0.3333473 -0.17061464 -0.18855728 -0.24875815 0.18672414 -0.04140506 -0.38005924
0.06956076 0.38483414 -0.42043245 -0.026254667 0.100210294 -0.037002575 -0.0732748 -0.004692662
0.11668384 -0.053267308 0.2018376 0.030373016 0.08811274 0.122664824 0.12746459 0.018004991
-0.0020420395 -0.026156254 0.066557474 -0.030347854 0.25179186 -0.0202601 0.11707087 -0.35870114
-0.1567051 -0.14692535 0.065784074 0.027778035 0.0011171413 0.00832866 0.005116535 0.12651475
0.2942356 0.06913428 -0.11161798 0.1435829 0.033068 0.08048724 -0.11178789 -0.021539366
-0.313244 0.544266 -0.22667617 -0.35481483 -0.3896758 0.08992666 0.27147573 0.0643447
0.16315767 -0.21304011 -0.31000987 -0.042005308 0.094315656 0.22939312 -0.0059735724 0.033314034
0.09564357 0.13252865 0.021351077 0.20507331 0.10198925 -0.015143927 0.21296524 -0.25553992
-0.099868186 -0.36982092 0.04326122 0.13508944 0.08331302 -0.019133413 -0.80216956 -0.51969063
-0.015553968 -0.12979169 -0.119140886 -0.09750842 -0.08550046 -0.15368398 -0.021665609 -0.09087691
-0.019676426 -0.025125599 -0.1220848 -0.041640352 -0.04788751 0.004897272 -0.026490513 -0.06680941
-0.08340721 -0.0887224 -0.054985885 -0.08116306 -0.04885938 -0.03406513 -0.1468691 -0.105421074
-0.015087124 -0.1308727 -0.0070970263 -0.11883606 -0.10374987 -0.12291753 -0.08099078 -0.010712266
-0.0666172 -0.050277103 -0.08928174 -0.023628995 -0.10085607 -0.01920736 -0.10886412 -0.09668862
-0.0142083345 -0.11703163 -0.14650801 -0.088116296 -0.09050485 -0.19285336 -0.01082935 -0.015159276
-0.03278935 -0.086111926 -0.07397732 -0.15592754 -0.08734139 -0.11878841 -0.039794542 0.033723924
-0.02323223 -0.15336156 -0.07406993 -0.035922267 -0.12219846 -0.033763412 -0.03554463 -0.039018527
-0.08002684 -0.10405773 -0.071423456 -0.007980691 -0.07073533 -0.24304205 -0.20869401 -0.1869175
-0.11285822 -0.087461315 -0.14144123 -0.08036437 -0.1286331 -0.1447615 0.023755623 -0.07370304
-0.036547005 -0.15308894 -0.04165436 0.002746674 0.05045088 -0.111588635 -0.10840654 -0.21631317
0.017614573 0.047390983 -0.2193117 -0.070732445 -0.07565073 -0.09916645 -0.03362428 -0.1037512
-0.063947186 -0.29701445 -0.3415251 0.05747139 0.20442137 0.47562054 0.042544257 -0.034543708
-0.054284673 0.108519845 -0.035963565 -0.094097726 -0.17992872 -0.31489968 -0.21329911 -0.078403935
0.11984938 0.17351395 -0.049599614 -0.12652661 -0.1878524 0.07243033 0.1187978 0.14272712
-0.002819954 -0.050406158 -0.20888439 0.12504004 0.053878706 0.05145217 0.071717486 0.15313004
0.07866546 -0.0747163 -0.119054645 -0.23155972 -0.0077330563 -0.009756424 0.024323545 -0.4321364
-0.29019156 -0.012592087 0.03170232 0.087037005 0.12615502 0.165108 0.124720156 0.0394961
0.16389953 0.1912729 0.1545833 0.35775468 0.37226367 0.2612956 0.24106486 0.12187443
0.012325849 -0.3396073 -0.4130569 -0.3202367 0.061865017 0.0040726266 -0.015018715 -0.4440541

network.0.downsample.weight f4 [32, 13, 1]
00000000: e3fb 6dbd 1656 f7bd a731 7cbe e042 173e
00000010: 713c cdbd 354c 903d ea1d 523d 99e7 b83e
00000020: 41c6 3cbe 3f7e 38be ab55 273e 56c1 f0bc
00000030: 0140 8abd ccf3 69bc a09f 593d b6c8 7a3c
00000040: eb94 9abc c2e0 b03c e22b c03b 6208 613c
00000050: f4d1 eb3b 8927 00be e950 063f df3c 02bd
00000060: f73c 853a 05c5 c23b ae34 4b3d 403b eabe
00000070: b473 eb3d 42ae 38be 6218 d5bd a546 8ebe
00000080: 5d2d 733d f0f8 313d fd87 8c3e 1c32 b83e
00000090: 9d65 153f b01a 32be 6dcc c23d 82a7 c2bd
000000a0: 7e88 333e a5b4 8d3d 09f8 883e e38b bbbe
000000b0: 5bea 153e b79c a9bc 40be 8ebd 9990 183e
000000c0: 6e27 ebbd 2fc2 2a3f 23ee 053c 3f54 d03e
000000d0: 40d0 8dbd c50b 4f3c f961 29bd 5ce0 c13a
000000e0: 4e9a 8dbb 6d06 5a3b 7018 93bd 5061 03bf
000000f0: 2b02 ba3c 9746 843b 6d63 4d3d 47ac 71bb
00000100: a274 d93a 7afa cf3c fd25 c5bd fdbf 2cbe
00000110: e19d 013e 95e5 f5be 45d9 19be 7d75 13be
00000120: f234 cabd ee9b b3bd c401 133f ad5c 07bf
00000130: ed0a 52bd c6d2 90bd 3f03 32be 7505 aebe
00000140: 51f3 81bd 2394 35be 86aa ef3c ecde 653e
00000150: f9dd d7bb 410a 0e3c 16d1 2d3e c234 29bd
00000160: 0dfa 4bbf e16e 5a3c 6590 adbe e850 c7bd
00000170: b9e5 d63d fcf4 05be 1156 2d3e fee5 f0bd
00000180: 6835 c13d 0f19 983a 2177 c63d 1acd 85bd
00000190: 1f09 90be e6a8 b13d 43de b3bc 38f7 0b3e
000001a0: 08c6 553c 4c1d 86bb ec80 1dbe 2199 f03b
000001b0: 3616 11bd 1f85 54be 05de ea3c afdb c63c
000001c0: 18e0 25be 7d58 3dbe a137 80be a0a4 d63c
000001d0: 9e7d ae3d 60bb 193d 4251 223e 5a6a a03d
000001e0: 7688 25be 2a76 3e3e ff8e e23d f2ac 2cbc
000001f0: 31d3 843d 88da 383e 46aa 15be 3083 0fbd
00000200: 81e7 32bd a7e0 05be e246 8ebc 42f5 e73c
00000210: 2c64 1b3c d070 a03c 3f0b 92bc 968a 0cbb
00000220: 70c1 393d b628 de3e f2e7 9e3d b8a0 03bb
00000230: 126c 1dbc fda1 623e ec8c 3d3c 7dee ffbd
00000240: eaa6 613d 3044 1bbf dfd2 9b3e ccb6 833d
00000250: 5c4c 673e 2298 9ebf d966 c73c 3111 8dbe
00000260: 0f70 93be 8575 babe 5857 56bb e876 933d
00000270: 89d5 d83d 1e35 eabd 6619 283e d940 d6bd
00000280: 3d5a f13d ce98 143b 55cc c6bc e082 8b3e
00000290: 002d ed3c 86d7 7f3d ad65 d7bc 15b0 1bbe
000002a0: b154 abbc 3f25 7b3d 4461 9b3c 35e4 663d
000002b0: a762 443c 3797 ccba 93ff 363b f8cc c2be
000002c0: 4779 e3be a0ff c1bd 64a7 13bc f1cd 81bd
000002d0: 8e02 41bb 723e a9bc e473 fcbb ce21 8dbd
000002e0: 6a89 15bd aab0 193d 4ec0 1fbd 41c8 81bc
000002f0: e6d3 333c 8043 70bc 29ba 883e ac82 063f
00000300: 8039 5d3d 6c7e 21bb 92f5 b33a 5ceb e43d
00000310: d604 fdbc 2b55 373d 0146 e63d 5ce9 ab3c
00000320: c7c8 cd3e 5598 fdbd 3be8 89bf 8723 e5bd
00000330: 6c3f c4bd 900d 5f3e fc5c 313e d244 e53d
00000340: 7728 fa3c ec36 233d 5a78 babe dc8e 48bd
00000350: 54d6 623d cf4d f93e 1831 183d 3124 323e
00000360: 126f 27be 8e90 053e a2ec 6d3e 711c a0bc
00000370: a221 243e 6540 aebe 6094 4c3e c728 ff3a
00000380: f672 abbd db78 c93e 9e69 883c cef7 94bc
00000390: dd11 d1ba 5c82 78bd acbe 543e d264 753d
000003a0: 3687 c33d c06a e13d ca7a 9d3d 36d5 633e
000003b0: c703 2b3c dd03 88be 85ab 843c 1b56 89bd
000003c0: 0b38 d5bc a18e af3d e7f0 d73d ba5d cebe
000003d0: 3191 87bd 9b48 ce3d b544 213e 518f 8e3e
000003e0: aa89 3a3e 20ec 073f e518 da3e 8105 b9be
000003f0: 023b 6cbe a90c 923d cdee 76be d7f7 98bd
-0.058101546 -0.120769665 -0.24628316 0.14771605 -0.10021294 0.07045785 0.05129806 0.36114195
-0.18435003 -0.18016909 0.16341273 -0.029389065 -0.06750489 -0.014279317 0.053130746 0.015306642
-0.018869838 0.021591548 0.0058646062 0.013734909 0.007196659 -0.12515081 0.5246721 -0.031796332
0.0010165264 0.0059438967 0.049610786 -0.4574833 0.11496678 -0.18035224 -0.10405041 -0.27788273
0.059369434 0.043450296 0.274475 0.3597573 0.58358175 -0.17392993 0.095116474 -0.09504606
0.17532536 0.06919221 0.26751736 -0.36630163 0.14640181 -0.02070461 -0.06969881 0.1489891
-0.1148213 0.6670255 0.008174452 0.40689275 -0.06924486 0.012637083 -0.0413532 0.0014791596
-0.004321373 0.003326799 -0.071823955 -0.5132036 0.022706112 0.0040367353 0.050143648 -0.0036876367
0.0016590545 0.025387991 -0.09626386 -0.16870113 0.12657882 -0.4802672 -0.15024288 -0.14400287
-0.0987338 -0.087699756 0.5742457 -0.52875787 -0.05127995 -0.07071452 -0.17384051 -0.33988538
-0.06345237 -0.17732291 0.029256117 0.22448319 -0.0065877405 0.008669437 0.16974291 -0.04131008
-0.7967842 0.0133321 -0.33899227 -0.097322285 0.10493035 -0.13081735 0.16927363 -0.117626175
0.094340146 0.0011604148 0.09690691 -0.06533261 -0.2813196 0.08674793 -0.021956569 0.13668525
0.013047703 -0.004092848 -0.15381211 0.007342473 -0.035421573 -0.20753907 0.02867032 0.024274675
-0.16198766 -0.18490787 -0.2504244 0.026201546 0.08520053 0.03753221 0.1585131 0.07832785
-0.16165337 0.18599764 0.110624306 -0.01053928 0.06485594 0.18052113 -0.14615735 -0.03503722
-0.04367781 -0.1307398 -0.017367784 0.02831519 0.009484332 0.019585043 -0.017827628 -0.0021444908
0.045350492 0.43390435 0.07759084 -0.002008481 -0.0096082855 0.22132106 0.011569243 -0.1249666
0.055090822 -0.6065092 0.3043432 0.0643135 0.22587723 -1.2390177 0.024341034 -0.27552179
-0.2879643 -0.36417785 -0.003270587 0.07200414 0.105876036 -0.114359125 0.16415939 -0.104615875
0.1178479 0.0022674087 -0.024267355 0.27248287 0.028952122 0.0624614 -0.0262936 -0.15203889
-0.020914407 0.061314818 0.018967278 0.05636998 0.011986411 -0.001560903 0.002792333 -0.38047004
-0.44428465 -0.09472585 -0.009012077 -0.06338108 -0.0029450986 -0.020659659 -0.007704245 -0.06891213
-0.036508 0.037521996 -0.039001755 -0.015842559 0.0109758135 -0.014664531 0.2670453 0.5254314
0.054009914 -0.0024642004 0.0013729802 0.11177704 -0.030886095 0.044758957 0.11243821 0.020985298
0.40192243 -0.12382571 -1.0773996 -0.11188417 -0.09582409 0.21782517 0.17320627 0.11194767
0.030536873 0.0398473 -0.36419946 -0.048964366 0.05538018 0.48692176 0.037156194 0.17396618
-0.16350964 0.13043424 0.232348 -0.019544812 0.16028455 -0.34033504 0.19978476 0.0019467109
-0.083715364 0.39350018 0.016651925 -0.018184569 -0.0015950758 -0.060671195 0.2077586 0.059910603
0.09547274 0.11006689 0.07689436 0.22249302 0.010437912 -0.26565447 0.016195068 -0.067058764
-0.0260277 0.08572126 0.10543995 -0.40305883 -0.0661949 0.10072442 0.15748866 0.27843717
0.18216577 0.53094673 0.42597118 -0.36137012 -0.23069385 0.07131321 -0.24114533 -0.07469147

network.0.downsample.bias f4 [32]
00000000: ab23 4d3e ea08 f93e 57a6 f8bc b35d b83e
00000010: de45 363f dcf8 cd3e d3e9 b43e d7e9 6a3f
00000020: 6381 263f c81e e93e 00d2 743e 48fc 1a3f
00000030: f8e1 363f f0c9 113f 1474 f13e 445e d5bd
00000040: 2122 1a3f 5403 d63e 9303 ac3e cdaf 6d3e
00000050: eb21 893e 86b0 1a3f eebc aebe 563f c3be
00000060: d3cd 6a3f 3187 f73d 2d60 13be 6778 a43d
00000070: 0806 c03e f815 b7be 901b a73e c1ed c83e
0.20033138 0.48639613 -0.030352755 0.36008987 0.7120036 0.40228927 0.35334644 0.9176306
0.6504118 0.45531297 0.23908234 0.605412 0.7143855 0.5694876 0.47158873 -0.1041837
0.60208327 0.41799414 0.33596477 0.23211594 0.2678369 0.60425603 -0.34128517 -0.3813426
0.9172031 0.120863326 -0.14392157 0.080307774 0.375046 -0.35758948 0.32638216 0.39243892

network.1.conv1.bias f4 [64]
00000000: 78f3 68bd 9412 723e 62e8 d63e 46e4 fe3d
00000010: c073 0d3e 240d 833d a8e6 0d3d 409e f03c
00000020: 0e90 2a3d 9ec7 923e a40e 8c3e fea1 1e3e
00000030: 9d13 b43d 56d9 ff3c 6bc3 213e 1529 673e
00000040: eb95 753e f29c bf3d 717f f03d 1c8a 77be
00000050: 0714 6b3d 78cd dd3e 299a 1dbb c922 a33e
00000060: eba5 e03d f5b7 6f3e 622b 803e 392e fc3e
00000070: e357 113e 94b2 20be 9972 ccbe 1dbd 3b3e
00000080: eedc 203d 0915 ebbc 8595 053e 57a0 683e
00000090: 4b2e 5e3e e738 d63d 4cfd c33d 924c 213e
000000a0: 9deb 4e3e 21e8 b2bd 4f2d c7bd 8609 6bbe
000000b0: 2369 6c3e d751 a03e fa83 d73c 8057 20bf
000000c0: 63d1 a33e ee22 413e 8176 653e d198 933e
000000d0: 0a2c 663e 1cf7 6dbd 6ab6 063e c7a8 873e
000000e0: 342d f13e 3c9f 9c3d b0b4 9b3e 16ac 9d3e
000000f0: efdb e3be 0893 8e3d aab1 123e 44d0 e33d
-0.056872815 0.236399 0.4197417 0.124458835 0.13813686 0.06398991 0.0346438 0.029372334
0.041641288 0.2866792 0.2735492 0.15491483 0.087928034 0.031231564 0.15797202 0.22574265
0.2398297 0.09356107 0.117430575 -0.24173778 0.057392146 0.43320823 -0.0024048185 0.31862476
0.10969146 0.23410018 0.25033098 0.49254015 0.14193682 -0.15693122 -0.3993118 0.1833386
0.039273195 -0.028696554 0.13045318 0.22717415 0.21697347 0.10460072 0.09569797 0.15751866
0.20207067 -0.08735681 -0.09725439 -0.22952852 0.23086981 0.3131244 0.026308049 -0.62633514
0.31995687 0.18860981 0.22408487 0.28827527 0.22477737 -0.05809699 0.13155523 0.26495954
0.471048 0.07647559 0.3041129 0.30795354 -0.44503734 0.06961638 0.14325586 0.11123708

network.1.conv1.weight_g f4 [64, 1, 1]
00000000: 0e07 b43f a3a3 863f faba 263f 2fd5 9f3f
00000010: 3930 983f 9818 883f a974 863f b452 a13f
00000020: 6dfd 923f 0e37 043f 0621 d53f ccb8 a23f
00000030: c774 ae3f 4778 503f c5d0 dc3f 960a 843f
00000040: 718c a73f 3e41 6a3f c35f c93f 5340 cc3f
00000050: c9af 8a3f f51d 533f 2892 913f 44bb 7b3f
00000060: 9594 873f 5538 9e3f a361 a23f 8119 783f
00000070: e0bd e23f 8727 0a3f fb06 803f 91ba bc3f
00000080: a035 a93f 221f 0f3f 1e53 843f fe82 ad3f
00000090: 4efa 893f e290 603f d2e7 aa3f 52c7 933f
000000a0: 4307 523f cdc7 073f 4773 053f 231d a83f
000000b0: 580c 8d3f 84b8 b13f c48d ca3f 14d5 3c3f
000000c0: 1687 2d3f fc11 2a3f 1748 843f 73ab 713f
000000d0: a098 073f 6742 893f e6f9 823f 9063 623f
000000e0: ab05 873f 5f92 9d3f 38a4 6e3f 8965 743f
000000f0: 7b3a 503f eb14 803f e791 c93f 83d3 763f
1.4064653 1.0518688 0.65129054 1.2486933 1.1889716 1.0632505 1.0504352 1.2603364
1.148359 0.51646507 1.6650703 1.2712646 1.3629388 0.8143353 1.7251211 1.031573
1.3089734 0.915058 1.5732349 1.595713 1.0834895 0.82467586 1.1372728 0.9833262
1.0592219 1.2360941 1.2686046 0.96913916 1.7714195 0.53966564 1.000213 1.4744436
1.321949 0.5590688 1.0337865 1.3555601 1.0779512 0.87721074 1.3351996 1.1545203
0.8204233 0.53039247 0.52129024 1.3133892 1.1019392 1.3884435 1.5824513 0.7376263
0.6778425 0.6643369 1.03345 0.94402236 0.5296726 1.0723389 1.0232513 0.8843317
1.0548605 1.2310294 0.9321933 0.9546743 0.81339234 1.0006384 1.5747651 0.9641649

network.1.conv1.weight_v f4 [64, 32, 3]
00000000: 8ff6 59be e231 243d c731 dabd 9bb5 9b3e
00000010: 31ca ab3d b16d aabd b346 283e 990e f8bc
00000020: 848c 04be 244e 46be a759 783d 6a63 c1bd
00000030: 8180 3fbb 1a17 25bd 801d 61bd 7f4a c03d
00000040: 1c0b 023e b619 543e 9918 ee3d 933e 2bbe
00000050: 8d68 8dbd 8a43 58be 3e44 82bd c8ba 76be
00000060: 2f27 fdbd ba7d e0bd c676 74bc 4e32 7abe
00000070: 503f a2bd 1278 92bb 325a 683d 67ae 0e3c
00000080: 8b2f 31bd c628 d0be ea25 dcbe 3a55 2bbf
00000090: a9b9 e13d decb 1b3e 5c05 1a3d 4bb6 ac3c
000000a0: ae0e 193e 33d4 d53d 10fa 7f3e 4df5 7e3e
000000b0: 1ec2 8f3d cc4e d63b b513 1bbe 8171 d2be
000000c0: 96a4 87be 8688 a2be a6e9 0ebf f529 823e
000000d0: 4a0e 443e 14a4 46be 0d72 6dbe 35c9 5abd
000000e0: 8012 e83d 7963 0b3d 74f1 e73d 003f 7a3b
000000f0: a0dd 5fbe ec7f debd fd92 28bd ed8c b5bd
00000100: 8d74 5f3d 25a6 113f da5b 1bbe 450d 0f3e
00000110: b117 973e e17b 4e3e 442b 913e 68ef 1a3f
00000120: 2a32 f6bd ad1d 22be e9da 833c a2b1 7cbe
00000130: c246 42be 31db d2be d972 adbd 4103 adbe
00000140: 037c 19bf 30d7 76bd fdb9 36be ae5f f43d
00000150: a993 1fbe 21ba ecbd 3e7b 95bd 97b0 663e
00000160: aa28 5d3e 9196 d63d 9e20 923e c2be 603e
00000170: 5fdc b9be bfe2 b43e 5074 c73b f13b 7e3e
00000180: 1e22 0e3d a9d0 713d 5406 0a3c 3b09 0dbd
00000190: a539 9c3d b2a4 033e c556 22be d487 40be
000001a0: 0511 ef3d d84f 22be 095a e1be 35ac f1be
000001b0: e6a3 923e 0ce6 773e f73c 193e 1081 fabe
000001c0: d4ac adbe b935 563d 4232 dabe 368a 8dbe
000001d0: 7d90 70be 4ff1 b13d 9e21 b63d 46de 0a3e
000001e0: e012 16be 0432 033a fe3d 393e 024d a43e
000001f0: 5db4 573e ed17 f0bd 4094 69bd c46c 16bd
00000200: 5f67 f53c e8c7 50bd 86fd 4c3e 3aec 273e
00000210: e4f7 523e 3617 d33d dd4d c13d fe21 c83d
00000220: fdd3 6e3d 237e 573d 9aeb b7bd c761 d9bd
00000230: 4c5b 153d 81c9 d03e 301a ab3d 895c 94bc
00000240: 106e 603e 9526 723d c419 843d 0418 8e3e
00000250: 8ec6 bd3d 390d 42bd 7c27 0d3e 0968 a83d
00000260: 27b1 aabd fbab b0be 411a 9ebe dce9 e7be
00000270: e3d1 0abe 82a9 093e 8ce0 1c3e 1b53 41be
00000280: 6613 07bd 45c2 12be c018 91bd d7b5 e33c
00000290: 9941 88be 101a 3bbe 6d79 ce3d 2536 ba3d
000002a0: 15ca 343e ce70 9b3e 3567 8c3e c731 75bd
000002b0: 1fda e23c 6aea 06be 1289 7ebc ff48 ffbc
000002c0: d8c8 ab3d 5908 e0be f8bf 87be bebe cebd
000002d0: 0d70 693e 9901 523e 1023 013e 1a30 90bd
000002e0: be26 d2bd 54b1 63be 71c5 9c3d 9fde 2b3d
000002f0: 7c79 3cbe 0a55 33be 7084 e83c 53b2 bdbd
00000300: b9ea 61bd fb5f 8f3e fce8 cdbe 1900 273e
00000310: 4773 103e 15e0 73be ccb1 9dbd 3183 743e
00000320: 0a4b f3be 9379 55bc 974f 6d3d f88c bebe
00000330: a04b e03d 3e41 c8bd 5b98 153e 1fb0 09be
00000340: 1c67 6fbe 0af8 f6be a020 27be f0fd 853c
00000350: 573a 7d3e 3d64 413e e48d f33d 23e2 b83d
00000360: b755 11be 2643 0dbd d3ef a6bd c741 513d
00000370: dca2 083e c21e 75bd 59d7 12bd 2511 9a3e
00000380: fa83 7abd 70e7 10be d3f3 4ebe f440 fcbe
00000390: f38e 113e b904 213e 39a8 c3bc 3393 6c3d
000003a0: 8ffa 39be a565 98bd ad8e 603d 9712 d23d
000003b0: bfd5 b2be c948 223e 3598 22be 976e b4bd
000003c0: 5f32 3e3e 23b2 d93d 481c c3be b6e9 c5bd
000003d0: 1739 673c 90bd c0be 7704 5c3d 7718 df3d
000003e0: 7481 1abe acb4 253c a669 183e b578 663e
000003f0: 3f98 e03c b6aa 6ebb b057 b1bc 11e9 86bd
-0.21285461 0.040086634 -0.106540255 0.3041199 0.08388174 -0.08321703 0.1643322 -0.030280398
-0.12944227 -0.19365746 0.060632374 -0.0944279 -0.0029220881 -0.040305234 -0.054959774 0.09389209
0.1269955 0.20712933 0.116257854 -0.16723089 -0.06904707 -0.21119514 -0.063606724 -0.24094689
-0.12360989 -0.109614804 -0.014920896 -0.24433252 -0.07922232 -0.00446988 0.056726642 0.008708573
-0.04325823 -0.40656108 -0.42997676 -0.6692692 0.1102174 0.15214488 0.037602767 0.021083018
0.14947006 0.104408644 0.24997735 0.24898262 0.07019447 0.006540155 -0.15144236 -0.41102222
-0.26492757 -0.31744784 -0.5582527 0.25422636 0.19146076 -0.19398528 -0.23188038 -0.053414542
0.113316536 0.03403041 0.113253504 0.0038184524 -0.21861887 -0.10864243 -0.041155804 -0.0886477
0.05455451 0.5689414 -0.15171757 0.13969906 0.29510263 0.20164444 0.28353322 0.60521555
-0.12021287 -0.15831633 0.016095595 -0.24677137 -0.18972304 -0.41182855 -0.08469171 -0.33791545
-0.5995485 -0.060263813 -0.17844386 0.11932312 -0.15583672 -0.11558939 -0.07298897 0.22528301
0.21597543 0.10477937 0.2854051 0.21947768 -0.36300942 0.35329244 0.0060868636 0.24827553
0.034700505 0.059036884 0.00842436 -0.03443263 0.07628182 0.12855795 -0.15853412 -0.18801814
0.11673168 -0.1585077 -0.44014004 -0.47201696 0.2864067 0.2420885 0.14964662 -0.48926592
-0.3392092 0.052297328 -0.4261647 -0.2764451 -0.23492618 0.08688604 0.08893131 0.13561353
-0.14655638 0.00050047063 0.18090054 0.32090002 0.21064897 -0.117233135 -0.057026148 -0.03672482
0.029956518 -0.050971895 0.20018587 0.16398707 0.20602375 0.103071615 0.09438679 0.097721085
0.058307637 0.052610528 -0.08980484 -0.10614353 0.03646402 0.40778735 0.08354604 -0.01811053
0.21916986 0.059118826 0.06450227 0.27752697 0.09266387 -0.04737589 0.13784593 0.08222968
-0.083345704 -0.3450621 -0.30879405 -0.45295608 -0.13556628 0.13443568 0.15320033 -0.18879358
-0.032977484 -0.1433192 -0.07084799 0.027796669 -0.26612547 -0.18271661 0.10081754 0.090923585
0.17655213 0.303595 0.2742249 -0.059861924 0.027691899 -0.1317536 -0.01553561 -0.031162737
0.08387917 -0.4375637 -0.26513648 -0.10094975 0.2279665 0.20508422 0.12611032 -0.07040425
-0.10261296 -0.22235614 0.076548465 0.041960355 -0.18405718 -0.17512909 0.028383464 -0.09262528
-0.05515549 0.28002915 -0.40216815 0.16308631 0.14106475 -0.2381595 -0.07699928 0.2387817
-0.47518188 -0.013029474 0.05793723 -0.37216926 0.10951924 -0.09778069 0.146089 -0.13446091
-0.23379177 -0.48236114 -0.16321039 0.016356438 0.24729286 0.18885894 0.11892298 0.09027507
-0.14192854 -0.034487866 -0.081512116 0.05108812 0.13343376 -0.059843786 -0.035849903 0.30091205
-0.06116102 -0.14150786 -0.20210199 -0.49268305 0.14214687 0.15724458 -0.023883926 0.057757568
-0.18161987 -0.07441262 0.054823566 0.10257452 -0.349287 0.15848078 -0.15878375 -0.08810156
0.18573903 0.1062968 -0.38107514 -0.096637174 0.014112732 -0.37644625 0.053715196 0.10893338
-0.15088445 0.010113876 0.14884052 0.22506984 0.027416347 -0.003641767 -0.021648258 -0.06587423

network.1.conv2.bias f4 [64]
00000000: f883 e33e 389e 7e3e 5a0e 353d c67c b63e
00000010: a201 933e 393c bc3e b480 ca3a 1123 693d
00000020: 14ca b5bc ca81 723c 0742 463e f19f 0e3e
00000030: ecbd 3e3e 2ce3 d53e 9fdb 473e d374 833e
00000040: 556f 843c 692e 403c 40a7 863e 869a 36be
00000050: 1793 67bb 4d30 0b3d 8c23 603e 1cf3 9dbc
00000060: 9d6f 61bd d24e cb3c dcc6 983e 1116 2c3c
00000070: e99c bf3e 2841 7e3e b45b c13d 7106 cb3e
00000080: a693 8e3c e1d5 d33c 841b 693e 22e6 9d3e
00000090: 8bfd b53c 2af3 893c 59c4 433e 71f1 81bc
000000a0: a496 843e 224d ce3e 66b9 cd3e 2b9b 843e
000000b0: ee0a c43c 0e0e 1f3d 9771 d93c 38f2 903c
000000c0: e518 fdbc ca7c f73e 0bae 483d 241a 5e3e
000000d0: 49e6 123e ee80 c9bd 7d8a ce3d e14d 813e
000000e0: c3ed 0b3d 9381 803d be49 c83d 0aed 083f
000000f0: b68a 893e a679 8f3e 9730 6b3e e128 813e
0.44436622 0.24865043 0.04420314 0.3564207 0.28712183 0.36764696 0.0015449733 0.056918208
-0.022191085 0.014801452 0.19361125 0.139282 0.18627137 0.4177488 0.19517373 0.25675067
0.016166368 0.011729815 0.26299477 -0.17832384 -0.0035335475 0.03398161 0.2188856 -0.019280963
-0.055038083 0.024817858 0.29839218 0.010503308 0.374244 0.24829543 0.09441319 0.39653352
0.017404389 0.025858821 0.22764403 0.3083964 0.022215625 0.016839582 0.1911787 -0.015862199
0.2589618 0.40293223 0.4018051 0.25899634 0.023930993 0.038831763 0.026543422 0.017693624
-0.03089566 0.48337394 0.048994105 0.2168966 0.1434566 -0.098390445 0.10085008 0.2525473
0.034162294 0.06274714 0.0977969 0.5348669 0.2686364 0.28022498 0.22967754 0.252265

network.1.conv2.weight_g f4 [64, 1, 1]
00000000: 6c89 c63f 4196 c03f ba57 4c3e 3091 b33f
00000010: 1467 603f 261d c03f 47ea f33d 0991 8e3e
00000020: d40d 0f3f aaca 8a3d 0685 a73f b3dd f73f
00000030: d67d e13f 9ca2 f83f e314 c93e 99d3 8f3f
00000040: 5a79 1c3e ce1c cc3d 0184 5f3f 05f4 e43e
00000050: 9667 e33e 350a b93d bc56 923f b154 b83e
00000060: 7ade 063f adbc 153e 4375 c33f 1016 733d
00000070: 1a63 bd3f d057 ed3f 692c 613f b18d 953f
00000080: 51e3 143e 2d80 223f 0ae3 ad3f eb47 c13f
00000090: fb55 9d3d e7bd e23d 0b42 b63f d06c ca3e
000000a0: 89fb 583f a5f0 a63f 8e08 1140 b25b 513f
000000b0: 92de 5a3e 73bc 343e da67 ac3d 5d88 d73d
000000c0: 476e 073f 6859 d33f e3d6 8e3e ab40 c33f
000000d0: 0163 cb3f 1425 093f 2453 0740 f1e9 a43f
000000e0: bdec ee3d 50fc 933e 9ce7 843f 18f5 e83f
000000f0: 0711 743f e345 0d40 98fb dd3f 3f64 fc3f
1.5510688 1.5045854 0.1995534 1.4028683 0.87657285 1.5008895 0.11909919 0.27845028
0.55880475 0.06776936 1.308747 1.9364532 1.7616527 1.9424624 0.39273748 1.123645
0.15280667 0.099664316 0.87310797 0.44717422 0.44414967 0.0903515 1.1432719 0.36002114
0.5268322 0.14622755 1.527016 0.059347212 1.4795868 1.8542423 0.8795839 1.1683866
0.1453984 0.6347683 1.3584912 1.5100073 0.07682415 0.11071377 1.4238905 0.39536142
0.8475881 1.3042189 2.2661471 0.8178054 0.21373966 0.17650013 0.084182456 0.10524056
0.52902645 1.651166 0.2789832 1.525411 1.5889589 0.535722 2.1144495 1.2883893
0.11666248 0.28903437 1.0383182 1.8199797 0.9533848 2.2073905 1.7342405 1.9718093
