production_ready/weather_prod_model.pth (torch, 38481 bytes, 6 tensors)

net.0.weight f4 [32, 13, 3]
0	0x3e5de04b	0.21667592
1	0xbd4b2c3a	-0.049602725
2	0xbe08f752	-0.13375595
3	0xbe8681de	-0.26270956
4	0x3d740edc	0.059584484
5	0x3c9ef450	0.019403607
6	0x3d93f2a9	0.07224018
7	0x3dbb332c	0.0914062
8	0xbb214880	-0.0024609864
9	0x3d531e57	0.051542606
10	0x3db4ba5c	0.08824608
11	0xbe1a48fa	-0.15066901
12	0x3d0c5791	0.034263197
13	0x3da8fc1a	0.082512096
14	0x3d8d1a5e	0.06889795
15	0xbdad4fcb	-0.08462485
16	0x3d761174	0.06007524
17	0xbc5c97c0	-0.013463914
18	0x3df6fdd6	0.12060134
19	0xbe056afa	-0.1302909
20	0xbd6f707a	-0.058456875
21	0x3f483fef	0.78222555
22	0x3d3c0f10	0.045912802
23	0xbd72a350	-0.05923778
24	0x3e165150	0.14679456
25	0xbe138588	-0.14406407
26	0xbca9c478	-0.020723566
27	0x3ef4864d	0.47758713
28	0x3e060fe0	0.13091993
29	0x3d393eb0	0.0452258
30	0x3de833d7	0.11338013
31	0xbd83f2d5	-0.06442801
32	0x3e0679b8	0.1313237
33	0xbe176c80	-0.14787483
34	0x3c25f380	0.010128856
35	0x3df270c8	0.118379176
36	0x3daccaf0	0.08437145
37	0x3de12514	0.109934
38	0x3d853cb8	0.06505722
39	0x3e9c9595	0.30582872
40	0x3c538300	0.012909651
41	0xbd1664c0	-0.036717176
42	0x3d744d0d	0.059643794
43	0xbcb8c9e8	-0.022557214
44	0x3d517d24	0.051144734
45	0xbedda328	-0.4328854
46	0x3cf04340	0.029328942
47	0xbe196ade	-0.14982173
48	0x3ccde424	0.0251332
49	0x3dab27d0	0.08357203
50	0xbdd1c740	-0.10243082
51	0xbe5ba502	-0.21449664
52	0xbe1484a9	-0.14503731
53	0x3d4fac64	0.050701514
54	0xbdc139f1	-0.094348796
55	0xbd32cba6	-0.043651246
56	0xbe07eef7	-0.13274752
57	0xbe41f44a	-0.18940845
58	0x3da4d302	0.08048059
59	0x3e0b2896	0.13589701
60	0x3f047c0f	0.517518
61	0x3d10d78c	0.03536181
62	0xbe18a71e	-0.149075
63	0x3e068b16	0.13138995
64	0x3d154dfc	0.036451325
65	0xbc814860	-0.015781581
66	0xbebcaeea	-0.368522
67	0x3dcd83ac	0.1003488
68	0x3e015da4	0.12633377
69	0x3d599aec	0.05312626
70	0xbe0a9ef0	-0.13537192
71	0x3dbe5530	0.09293592
72	0xbe7017f3	-0.23446636
73	0x3e138e3e	0.1440973
74	0xbd81b8ad	-0.06334052
75	0xbd57daba	-0.05269883
76	0xbb2ae240	-0.0026074797
77	0xbce70ec0	-0.028205276
78	0x3deb1aa3	0.1147969
79	0xbc51cc40	-0.012805045
80	0x3dc95d24	0.09832218
81	0xbe961377	-0.29311725
82	0x3dfdf93c	0.12401053
83	0x3c370a00	0.011171818
84	0xbdea7d14	-0.11449638
85	0xbd93488b	-0.07191571
86	0xbce533a0	-0.027978718
87	0x3e76f4c4	0.24116808
88	0x3cc36680	0.023852587
89	0x3d3a4e88	0.04548505
90	0x3e249b8f	0.16074966
91	0xbd6e217c	-0.058137402
92	0xbcaca4f0	-0.021074742
93	0xbcadc622	-0.021212641
94	0xbe1e1d5a	-0.15440884
95	0xbd1e7806	-0.038688682
96	0xbdb61f72	-0.088927165
97	0x3e13892a	0.14407793
98	0x3e0d01ee	0.13770267
99	0x3e106fc9	0.14105143
100	0x3d019f98	0.03164634
101	0x3d1f8dc8	0.038953573
102	0xbdfe1aeb	-0.12407478
103	0xbe198afc	-0.14994425
104	0xbd3d9128	-0.04628101
105	0x3edd617f	0.43238446
106	0x3e09bd0c	0.13451022
107	0x3b7400c0	0.0037231892
108	0x3e455cea	0.19273725
109	0x3d118df4	0.035535768
110	0xbddb260c	-0.10700616
111	0x3c7b5e0f	0.01534225
112	0xbda11690	-0.078656316
113	0xbd113eb8	-0.035460204
114	0xbf08a980	-0.53383636
115	0x3da5932e	0.08084713
116	0xbd114aee	-0.03547185
117	0x3e85a0f3	0.26099357
118	0x3e046d54	0.1293233
119	0xbce60440	-0.028078198
120	0xbe5ef611	-0.21773554
121	0x3ce6a490	0.028154641
122	0xbe1ed3c1	-0.15510465
123	0x3e653650	0.22384
124	0xbd03e658	-0.032202095
125	0x3d55d760	0.05220735
126	0xbd76907c	-0.060196385
127	0xbe1b65f2	-0.15175608
128	0xbce76620	-0.02824694
129	0x3ce94942	0.028477315
130	0xbd1b29de	-0.037881725
131	0xbd4d4ebe	-0.050123923
132	0x3c879f52	0.016555462
133	0x3d527eec	0.051390573
134	0x3dbac1a8	0.09118968
135	0xbfbc3bf9	-1.4705802
136	0xbdeb9cbb	-0.11504503
137	0xbdae3497	-0.085061245
138	0xbfb7a292	-1.4346488
139	0x3d081c8c	0.03323035
140	0xbd8d738d	-0.06906805
141	0x3d9f0eb2	0.07766475
142	0x3dcaf550	0.09910071
143	0x3d06f390	0.032947123
144	0x3e20f952	0.15720108
145	0x3e14043e	0.14454743
146	0xbdebd896	-0.1151592
147	0x3e89496e	0.26813835
148	0x3da93d4e	0.08263646
149	0xbcb79b48	-0.022412911
150	0x3ca48d13	0.0200868
151	0x3bcf4160	0.006324932
152	0x3da2c98a	0.07948597
153	0xbc287986	-0.01028288
154	0xbe055340	-0.13020039
155	0x3e20fa66	0.1572052
156	0x3eed49cb	0.46345362
157	0xbcd3a900	-0.025837421
158	0xbe1d68bd	-0.15371986
159	0x3d9027f4	0.070388705
160	0xbe11ad33	-0.14226227
161	0x3d66dd58	0.056363434
162	0xbe5065d0	-0.20351338
163	0xbdcc9d70	-0.09990966
164	0x3dc0a474	0.09406367
165	0x3e5fa673	0.21840839
166	0xbcafad50	-0.021444947
167	0xbe1c99df	-0.15293072
168	0xbdf799c2	-0.12089874
169	0x3e22e500	0.15907669
170	0x3d770334	0.06030579
171	0xbd8acb0c	-0.06777009
172	0xbe0d1602	-0.13777927
173	0x3d0ffb7c	0.035151944
174	0xbe2d682e	-0.16934273
175	0x3d43fd40	0.04784894
176	0x3d9ca2da	0.07648249
177	0x3edf9712	0.43669945
178	0xbd4486a4	-0.047979966
179	0x3dc336b8	0.09531921
180	0x3d80358a	0.06260212
181	0x3d7bda34	0.06148739
182	0xbb095940	-0.0020957738
183	0x3e98d97e	0.29853433
184	0xbdd2e0bc	-0.10296771
185	0xbe107751	-0.14108016
186	0x3ee8f458	0.4549892
187	0xbb033580	-0.0020020902
188	0xbdc8a28c	-0.09796628
189	0x3cb06c10	0.021535903
190	0xbe2177c8	-0.15768349
191	0x3c346c30	0.011012122
192	0x3c9fe17b	0.019516697
193	0xbd093ec0	-0.03350711
194	0xbccc3b18	-0.024930522
195	0x3e0d6ca4	0.13810974
196	0xba60e600	-0.00085791945
197	0xbd414250	-0.04718238
198	0xbe50dfe6	-0.2039791
199	0x3dc292c4	0.095006496
200	0x3d6dcbc8	0.05805567
201	0x3ece2e86	0.4026987
202	0xbe198b5b	-0.14994566
203	0xbbc3c8a0	-0.005974844
204	0xbde9cb57	-0.11415737
205	0xbde6305e	-0.11239694
206	0xbdabf28c	-0.083958715
207	0x3e140e20	0.14458513
208	0x3ce94668	0.028475955
209	0xbdc8f9d0	-0.09813273
210	0xbd19341a	-0.037403204
211	0xbc6f66d0	-0.014611915
212	0xbca26b98	-0.019826695
213	0x3d8f7ce8	0.07006246
214	0x3e20b73a	0.15694895
215	0xbdb3514c	-0.087557405
216	0x3eb1ddf0	0.34739637
217	0xbe1e2578	-0.1544398
218	0x3e1c397c	0.15256304
219	0xbd8f78e2	-0.070054784
220	0x3d0dcb60	0.03461778
221	0x3dad568e	0.084637746
222	0x3ea1a9f3	0.31574973
223	0xbe01eeaa	-0.126887
224	0x3e0fb8f6	0.14035401
225	0xbd795885	-0.060875434
226	0xbe1a3c28	-0.1506201
227	0x3e072670	0.13198256
228	0xbe5a71d2	-0.21332482
229	0x3dac906a	0.08425982
230	0xbe01289f	-0.12613152
231	0x3e95f0b4	0.29285204
232	0x3d74b314	0.059741095
233	0xbd8c01aa	-0.06836255
234	0x3c37ab6e	0.011210306
235	0xbcb2a4b8	-0.02180706
236	0x3d0fbafc	0.03509043
237	0xbe2ffcda	-0.17186299
238	0xbded88fa	-0.11598392
239	0xbe034f50	-0.12823224
240	0x3d645277	0.055742707
241	0xbdfaaeb5	-0.12240354
242	0xbd7e29a2	-0.062051423
243	0xbe46a4b8	-0.19398773
244	0xbb473180	-0.0030394495
245	0x3d9a7d3a	0.07543416
246	0x3d9a1d57	0.075251274
247	0x3c948578	0.01813005
248	0xbde429fa	-0.11140819
249	0x3d8be908	0.068315566
250	0xbd618568	-0.055058867
251	0xbd92661d	-0.07148383
252	0xbe377747	-0.17916594
253	0xbd358a98	-0.044321626
254	0x3d2dfd44	0.04247786
255	0x3f222282	0.63333905

net.0.bias f4 [32]
0	0x3fc1cbd7	1.5140332
1	0x3fb27b6b	1.3943914
2	0x3fcb0811	1.5861837
3	0x3faf2977	1.3684529
4	0x3fb67509	1.4254466
5	0x3fb8d5d3	1.4440254
6	0x3fba7406	1.4566658
7	0x3fabaf63	1.3412899
8	0x3facab49	1.3489772
9	0x3fc6e2e3	1.553799
10	0x3f8afd5a	1.0858567
11	0x3fc5edc2	1.5463183
12	0x3f820bfc	1.0159907
13	0x3f6e429c	0.9307039
14	0x3f9edc46	1.2410972
15	0x3f8e167b	1.110061
16	0x3f8413dc	1.0318561
17	0x3f885691	1.0651418
18	0x3f978b0a	1.1839306
19	0x3fc75ef6	1.5575855
20	0x3faa34b1	1.329733
21	0x3fc3076f	1.5236644
22	0x3f879e36	1.0595157
23	0x3fc14edc	1.5102191
24	0x3fab7217	1.3394192
25	0x3fb185e0	1.386898
26	0x3fb51241	1.4146196
27	0x3f8371a4	1.0269055
28	0x3f9265f8	1.1437368
29	0x3fa62b61	1.2981988
30	0x3fb460e4	1.4092069
31	0x3fa9f42f	1.3277644

net.2.weight f4 [64, 32, 3]
0	0x3f43e1f6	0.76516664
1	0x3dc2a636	0.095043585
2	0xbd035a6e	-0.032068662
3	0x3f3f528b	0.74735326
4	0xbd74606b	-0.059662264
5	0xbdb5004e	-0.08837949
6	0x3f6538e4	0.89539933
7	0x3d19839c	0.037479028
8	0x3d4c2d10	0.049847662
9	0x3f652847	0.89514583
10	0xbd45c5cb	-0.048284333
11	0x3d3d466c	0.046209738
12	0x3f229b9b	0.63518685
13	0xbcdec5bc	-0.027193896
14	0x3d95839e	0.073004946
15	0x3f491b67	0.7855744
16	0x3db5349e	0.088479266
17	0x3d170384	0.036868587
18	0x3f3b9e0b	0.7328803
19	0xbbbc5e50	-0.0057485476
20	0xbb0913c0	-0.0020916313
21	0x3f1f60d2	0.6225711
22	0xbcb29c60	-0.021803081
23	0x3d9b9112	0.07596029
24	0x3f3c9d82	0.7367784
25	0x3d05ac8c	0.032635257
26	0x3d78ffe8	0.060790926
27	0x3f6b91a4	0.92019105
28	0xbc893d00	-0.01675272
29	0xbce2e734	-0.027698137
30	0x3ed18c11	0.40927175
31	0x3d270738	0.04077837
32	0xbd4bdd92	-0.049771853
33	0x3f5fc177	0.8740458
34	0x3d2fb588	0.04289773
35	0x3d6edf9c	0.05831872
36	0x3ecbb8bc	0.3978938
37	0xbd064fd6	-0.03279098
38	0xbdb17a6f	-0.086659305
39	0x3f1b9111	0.6076823
40	0xbd05ac96	-0.032635294
41	0x3d40c058	0.047058433
42	0x3f37b4da	0.7176033
43	0x3abbca80	0.0014327317
44	0xbd549226	-0.05189719
45	0x3f0439db	0.5165078
46	0xbd8cbf79	-0.06872458
47	0x3d2f0e8c	0.042738482
48	0x3f230b9a	0.6368958
49	0xbd3fb2fe	-0.04680156
50	0xbd24b332	-0.040209956
51	0x3ee1c280	0.44093704
52	0x3d63a4d4	0.055577114
53	0x3cb2f9dc	0.021847658
54	0x3f130354	0.57426953
55	0x3d90ccd4	0.07070318
56	0x3c68bb68	0.014204837
57	0x3f778aaa	0.9669596
58	0x3ce4f040	0.027946591
59	0x3d455460	0.04817617
60	0x3f4f1961	0.808981
61	0x3dbd5cf2	0.092462435
62	0xbcbeae5c	-0.0232765
63	0x3f4e7206	0.80642736
64	0x3cd992f0	0.026559323
65	0x3c354228	0.011063136
66	0x3f0f42e4	0.5596144
67	0x3db55552	0.08854164
68	0xbc1f9790	-0.009740725
69	0x3f60f0b2	0.8786727
70	0x3dafd824	0.085861474
71	0xbd68e886	-0.056862377
72	0x3f46ba25	0.77627784
73	0xbd961a50	-0.073292375
74	0xbd9349ce	-0.071918115
75	0x3f4536cb	0.7703673
76	0x3d9992d0	0.074987054
77	0x3d0f4ca0	0.034985185
78	0x3f6ccd8f	0.9250116
79	0xbd0a6766	-0.033790015
80	0xbc826354	-0.015916504
81	0x3f1985a7	0.5996956
82	0xbd8ef2de	-0.06979917
83	0xbd9bbd00	-0.07604408
84	0x3f1f5954	0.6224568
85	0x3db4422a	0.08801682
86	0xbda86db0	-0.08224046
87	0x3f06ccf2	0.5265647
88	0x3d4cc050	0.04998809
89	0x3d399b74	0.045314267
90	0x3f5317ad	0.82458
91	0x3d2b6d40	0.041852236
92	0x3d5fe94c	0.05466585
93	0x3f394856	0.72376
94	0xbdba8736	-0.09107821
95	0x3dcd42ac	0.10022482
96	0x3f4eaed2	0.80735505
97	0x3d8c0f50	0.06838858
98	0xbc73adf0	-0.014873013
99	0x3ef7a1c2	0.483656
100	0x3cc18e70	0.02362749
101	0xbd3224c4	-0.043492094
102	0x3f3832ad	0.71952325
103	0xbc929c88	-0.017896906
104	0xbd14e1ec	-0.03634827
105	0x3f65a4c7	0.89704555
106	0x3a303600	0.0006721914
107	0xbdc0c8da	-0.094133094
108	0x3f1d67b3	0.6148636
109	0xbc2a98f8	-0.010412447
110	0xbd99be86	-0.075070426
111	0x3f596d66	0.84932554
112	0x3d19c73c	0.03754352
113	0xbdc9089e	-0.09816097
114	0x3f51052e	0.8164853
115	0xbdb648a2	-0.08900572
116	0x3d918354	0.07105127
117	0x3f32751b	0.6970994
118	0x3cc629d8	0.024189875
119	0x3d983f4c	0.07433948
120	0x3f552650	0.83261585
121	0xbd7892d6	-0.06068691
122	0x3b01ecc0	0.0019824952
123	0x3f3c8bfe	0.7365111
124	0x3b11cbe0	0.0022246763
125	0xbd21485c	-0.039375648
126	0x3efddf67	0.49584505
127	0x3da4c536	0.080454275
128	0x3dbdd710	0.092695355
129	0x3f502589	0.81307274
130	0x3bcca000	0.0062446594
131	0xbd1c34ee	-0.038136415
132	0x3ec970f6	0.39343995
133	0x3d9ea7ce	0.0774685
134	0x3a817000	0.0009875298
135	0x3f073267	0.5281128
136	0xb9aea100	-0.0003330782
137	0x3d0f460c	0.03497891
138	0x3f4924e1	0.785719
139	0x3d4b71c4	0.049669042
140	0xbd718014	-0.058960035
141	0x3f131129	0.5744806
142	0x3c65fd20	0.0140374005
143	0xbd57274e	-0.05252772
144	0x3ebaaac6	0.36458415
145	0xbc534568	-0.012894966
146	0x3d7adc28	0.061245114
147	0x3f024d5b	0.50899285
148	0x3d9c11aa	0.07620557
149	0x3d352a90	0.044230044
150	0x3f19ac15	0.600282
151	0x3da3a98a	0.079913214
152	0x3c4fdc28	0.012686767
153	0x3f417361	0.7556668
154	0x3ce890f0	0.028389424
155	0xbcb8d448	-0.022562161
156	0x3f4bd039	0.796146
157	0x3b94db00	0.0045427084
158	0x3da37678	0.079815805
159	0x3f48614d	0.7827347
160	0xbbdf96e0	-0.0068234056
161	0x3c23a7c8	0.009988733
162	0x3f1cff6c	0.6132724
163	0x3d50e6f4	0.051001504
164	0x3db19f2e	0.08672939
165	0x3f698a8c	0.9122703
166	0x3d91dcf8	0.071222246
167	0x3ca672b8	0.020318374
168	0x3f45d1ee	0.7727345
169	0xbc361d58	-0.0111153945
170	0xbd83d700	-0.06437492
171	0x3f41b67c	0.75669074
172	0xbc8a38d8	-0.016872808
173	0xbd090fdc	-0.03346239
174	0x3f82857b	1.0196985
175	0xbd88effd	-0.06686399
176	0xbb939090	-0.004503317
177	0x3e9f46b5	0.31108633
178	0x3d2f948c	0.042866275
179	0x3db17202	0.086643234
180	0x3f000c8e	0.50019157
181	0x3d18ad14	0.037274435
182	0xbd923455	-0.07138888
183	0x3ef8180d	0.4845585
184	0xbcec5f70	-0.028854102
185	0xbda8c029	-0.08239777
186	0x3f3462dc	0.7046335
187	0x3da25dfa	0.07928081
188	0xbd83a586	-0.064280555
189	0x3f1616dc	0.5862863
190	0x3d83d6ba	0.0643744
191	0x3d97c8ae	0.074113235
192	0x3d905039	0.07046551
193	0xbd967b62	-0.07347752
194	0x3d64b138	0.05583307
195	0xbdd0c5a4	-0.10193947
196	0xbdbe8779	-0.09303183
197	0xbda382ab	-0.07983907
198	0xbcdd6e19	-0.027030038
199	0x3da984e6	0.082773015
200	0x3da1b75e	0.07896303
201	0x3d863f26	0.06555013
202	0xbc652660	-0.0139862
203	0xbdbe86a5	-0.09303025
204	0xbc9faa69	-0.019490438
205	0x3ba02e30	0.0048883185
206	0xbcfd6ee4	-0.030936666
207	0xbd31c93c	-0.043404803
208	0xbcb6e414	-0.022325553
209	0x3b710c00	0.0036780834
210	0x3c2501fa	0.010071272
211	0xbdc2c81c	-0.09510824
212	0xbd6c011d	-0.05761825
213	0xbda09b95	-0.07842175
214	0x3d0acea8	0.03388849
215	0xbc849bc4	-0.016187556
216	0xbdbb9d68	-0.09160882
217	0x3cc57d58	0.02410762
218	0xbc02b538	-0.007977776
219	0xbc1692cf	-0.009190275
220	0x3dcacb0a	0.09902008
221	0x3be47690	0.0069721416
222	0xbdbb4a82	-0.091450706
223	0xbcfb6a34	-0.03069029
224	0xbd1ba6bc	-0.038000807
225	0xbd4cc8df	-0.049996253
226	0xbd9f960d	-0.07792292
227	0x3bbd34d0	0.005774118
228	0xbd7f4350	-0.062320054
229	0x3ccda4c8	0.025102988
230	0xbd518545	-0.051152486
231	0xbdef90df	-0.11697554
232	0x3db8bf22	0.09020831
233	0x3daca87e	0.08430575
234	0xbbdcb272	-0.0067351395
235	0x3ba20140	0.0049439967
236	0xbd2de4d9	-0.042454574
237	0x3d3d56d4	0.046225384
238	0xbd258966	-0.040414236
239	0xbb979610	-0.004626043
240	0xbd1424a9	-0.036167774
241	0xbda94efa	-0.08267017
242	0xbd8eef9a	-0.06979294
243	0xbdaad5be	-0.08341549
244	0x3da1ed9e	0.0790665
245	0xbd8564f6	-0.065133974
246	0xbde48703	-0.11158564
247	0x3d8894fc	0.066690415
248	0xbd8df714	-0.06931892
249	0x3c90def3	0.017684435
250	0xbda210fe	-0.07913397
251	0xbd9a0eba	-0.0752234
252	0xbd9350a1	-0.07193113
253	0x3d31b178	0.043382138
254	0x3d81f524	0.06345585
255	0x3d08f339	0.03343508

net.2.bias f4 [64]
0	0x3f67fe7d	0.90622693
1	0x3f55d84f	0.83533186
2	0xbc277e25	-0.010222946
3	0x3f752b9a	0.95769656
4	0x3f50cdc6	0.81563985
5	0x3f5f430f	0.872117
6	0xbd37f601	-0.044912342
7	0x3d33c297	0.043886747
8	0x3f3b4ddc	0.7316568
9	0x3f51adfe	0.81906116
10	0x3fac81ec	1.3477149
11	0xbd8519f9	-0.064990945
12	0xbdf9d658	-0.12199086
13	0x3d206963	0.039163005
14	0x3c9c3b62	0.019071285
15	0x3f4ae8ad	0.79261285
16	0x3f5f9b3c	0.87346244
17	0xbdf7e848	-0.12104851
18	0x3f5617a6	0.83629835
19	0x3ca576b2	0.0201982
20	0x3f447a55	0.76749164
21	0x3f35f57d	0.7107771
22	0x3f53bb6e	0.8270787
23	0x3f51d87c	0.81970954
24	0x3f326976	0.6969217
25	0xbd7a6851	-0.06113464
26	0x3f4a404d	0.79004365
27	0x3f443896	0.76648843
28	0x3f536a8c	0.8258445
29	0x3c6d80ef	0.014496072
30	0x3f3eb267	0.7449097
31	0x3f63a87e	0.88928974
32	0xbd984422	-0.0743487
33	0x3f6f7644	0.93539834
34	0x3f443c4d	0.7665451
35	0x3f56d7ef	0.8392324
36	0xbdc719ec	-0.09721741
37	0xbde46528	-0.111521065
38	0x3f4329d1	0.7623568
39	0x3f55d5c1	0.8352929
40	0x3f3b71a4	0.73220277
41	0x3abfa220	0.001462046
42	0x3f4bd963	0.7962858
43	0x3cdf5742	0.027263287
44	0x3f753c5f	0.95795244
45	0x3f50994a	0.814839
46	0xbd454613	-0.04816253
47	0x3f444e07	0.7668156
48	0xbdb760c5	-0.08954004
49	0xbd5ba4fd	-0.053624142
50	0x3f3df0fb	0.7419583
51	0x3f590f99	0.84789425
52	0xbda2ba2e	-0.07945667
53	0x3f524ea0	0.8215122
54	0x3f575caa	0.8412577
55	0x3f3e8036	0.74414384
56	0x3f404eed	0.7512043
57	0x3f5462e4	0.82963395
58	0x3f5c3e8b	0.86032933
59	0xbd2747fc	-0.040840134
60	0x3f426aa6	0.7594398
61	0x3cf5a8b6	0.029987674
62	0x3f36045d	0.7110041
63	0x3f74695a	0.95473254

fc.weight f4 [13, 64]
0	0x3da79758	0.081831634
1	0x3d404995	0.046945173
2	0x3c57c809	0.013170251
3	0x33c2d000	9.071664e-08
4	0x3de86c54	0.11348787
5	0x3d8a6cc0	0.06759024
6	0xbd2b6a36	-0.041849338
7	0x3d95aee5	0.07308749
8	0xbd72736a	-0.0591921
9	0xbd80dbcf	-0.06291925
10	0xbd12142e	-0.035663776
11	0x3e06231b	0.13099329
12	0x3df7e889	0.121048994
13	0xbd457fb2	-0.048217483
14	0xbd92e3d2	-0.071723595
15	0xbd43b66f	-0.047781404
16	0xbcb1fd97	-0.021727366
17	0xbdc052af	-0.09390771
18	0x3e505585	0.20345123
19	0xbcc81143	-0.024422294
20	0xbc08b582	-0.008344056
21	0xbdd95e8c	-0.106137365
22	0x3d71c386	0.059024356
23	0x3dd9328c	0.10605344
24	0x3d8af056	0.06784122
25	0xbdce2dcb	-0.10067328
26	0xbd925e55	-0.07146899
27	0x3cc28ed7	0.023749752
28	0xbd268554	-0.040654495
29	0x3d652c9e	0.055950753
30	0x3e0c8dd5	0.1372598
31	0x3e0a4880	0.13504219
32	0xbd520366	-0.051272772
33	0xbd3b80a1	-0.045776967
34	0xbd6af0d4	-0.057358578
35	0xbac175ff	-0.0014759897
36	0x3d7d8943	0.06189848
37	0xbda3bfaa	-0.079955414
38	0x3e1c9757	0.15292107
39	0xbda86fef	-0.08224475
40	0x3e2e6afe	0.17033002
41	0xbd08ad38	-0.03336832
42	0xbd5501e1	-0.052003745
43	0xbd9d0cd8	-0.076684654
44	0xbeaafdb6	-0.3339669
45	0xbd7934b0	-0.060841262
46	0x3d4a0b63	0.049327265
47	0x3e0dc665	0.13845213
48	0x3dac9e73	0.08428659
49	0x3e08433f	0.13306902
50	0xbd0aeeee	-0.033919267
51	0xbd05de9f	-0.03268301
52	0x3c0ce6f2	0.0085999835
53	0x3de747cf	0.11292993
54	0xbdfadc8a	-0.12249096
55	0x3d965f18	0.073423564
56	0x3d7c8527	0.06165042
57	0x3df2c972	0.11854829
58	0x3db3c1a8	0.087771714
59	0xbd6a3422	-0.057178624
60	0xbd767e63	-0.060179126
61	0x3d830b87	0.06398683
62	0x3d374d79	0.044751618
63	0x3dbce1d5	0.092227615
64	0xbdeefa79	-0.116688676
65	0xbddd8973	-0.10817232
66	0xbc6daff4	-0.0145072825
67	0x3d994321	0.07483507
68	0x3e0692eb	0.13141982
69	0x3d9dfb2a	0.07713921
70	0xbd8c88f6	-0.06862061
71	0x3d4926a7	0.049109127
72	0x3d6366d4	0.055517986
73	0x3c2b1a42	0.010443272
74	0xbd0e3e21	-0.03472722
75	0xbc9b94a4	-0.018991776
76	0x3c67b3a6	0.014141953
77	0x3d47234c	0.048617646
78	0xbdc4a110	-0.09601033
79	0x3b071083	0.0020609207
80	0x3dab8e17	0.08376711
81	0xbcb54e77	-0.022132142
82	0xbc578613	-0.013154524
83	0xbd149126	-0.036271237
84	0x3db9f03d	0.09079025
85	0x3dbc9e52	0.09209885
86	0x3e03fc03	0.12889104
87	0x3d3ecb63	0.046580683
88	0xbcc43c0c	-0.023954414
89	0x3e04f24a	0.12983051
90	0x3c63d168	0.013904907
91	0xbdac5e84	-0.08416465
92	0x3d1e9e80	0.038725376
93	0x3c3b3391	0.011425869
94	0x3dc50130	0.09619367
95	0x3e2bd99a	0.16782227
96	0x3b0a2170	0.002107706
97	0xbe10d919	-0.14145316
98	0x3d87bbd8	0.06627625
99	0x3c631b1e	0.013861446
100	0x3bb0f93a	0.005400804
101	0xbdc3fd65	-0.095698155
102	0xbd45db90	-0.048305094
103	0xbe922134	-0.28540957
104	0x3e10ecee	0.14152882
105	0x3de72344	0.11286023
106	0x3e1c6759	0.15273799
107	0xbd5de15e	-0.054170005
108	0xbe9926c0	-0.29912376
109	0x3d9627d8	0.07331818
110	0xbc2decdd	-0.010615555
111	0x3e200221	0.15625812
112	0x3d450b4b	0.048106473
113	0xbd1ffb2e	-0.039057903
114	0x3a997259	0.0011707052
115	0x3ca99eb2	0.020705555
116	0x3d72b8ff	0.059258457
117	0xbca9e225	-0.020737717
118	0xbe65206b	-0.22375648
119	0x3d3f6b22	0.04673303
120	0x3dbbbd2d	0.09166942
121	0xbdb17d25	-0.086664476
122	0x3dd80409	0.10547645
123	0xbca5d22f	-0.020241825
124	0x3dcf978e	0.10136329
125	0xbcd09d68	-0.025465682
126	0x3e2fb303	0.17158131
127	0x3d8f7138	0.07004017
128	0x3e1a1c44	0.15049845
129	0xbc2e0ab0	-0.010622665
130	0x3d031c01	0.03200913
131	0x3de0193d	0.10942314
132	0x3e4c4804	0.19949347
133	0xbd376811	-0.04477698
134	0x3c019fcd	0.007911635
135	0xbce6748c	-0.028131746
136	0x3c4541e4	0.012039635
137	0x3e702867	0.23452912
138	0x3d92b7de	0.07163976
139	0x3d785053	0.06062348
140	0x3e14651d	0.14491697
141	0x3c248370	0.010041103
142	0x3df07979	0.11741919
143	0x3e1b485a	0.15164319
144	0x3e806bf5	0.25082365
145	0x3d67bfcf	0.056579407
146	0xbde0c1f2	-0.10974492
147	0xbd91344d	-0.07090054
148	0xbadff404	-0.0017086272
149	0x3dc98560	0.098398924
150	0x3e57886a	0.21048132
151	0xbd1a09a8	-0.037606865
152	0x3e6fd84a	0.23422351
153	0xba8debce	-0.0010827722
154	0x3da90b58	0.08254117
155	0xbc340364	-0.0109871365
156	0x3d3aeba7	0.04563489
157	0x3de9aaa5	0.11409501
158	0xbd425ec1	-0.047453646
159	0xbe0ed237	-0.13947378
160	0x3d2035db	0.03911386
161	0xbd65c213	-0.056093287
162	0x3e55d8e1	0.20883514
163	0x3e263078	0.16229427
164	0xbda3c1a1	-0.07995916
165	0xbc235fef	-0.009971603
166	0x3dcf455e	0.101206526
167	0xbecd7bea	-0.401336
168	0xbe01e1d1	-0.12683798
169	0x3c44e903	0.012018445
170	0x3ca2fa28	0.019894674
171	0x3cb67325	0.022271702
172	0xbe0a52e8	-0.13508189
173	0x3cbeedc3	0.023306733
174	0xbdbc43a1	-0.09192587
175	0x3daf031e	0.085455164
176	0xbdccb242	-0.099949375
177	0xbd2a4081	-0.041565422
178	0xbcc131bd	-0.023583287
179	0x3e14ff49	0.14550509
180	0x3e0eec41	0.13957311
181	0x3e533ab8	0.20627868
182	0xbe5fff0e	-0.2187464
183	0x3e30ee40	0.17278385
184	0x3e07766d	0.1322877
185	0x3e291c8a	0.16514793
186	0x3d2bf318	0.04197988
187	0x3dd0eaa6	0.10201006
188	0x3e622c11	0.22087122
189	0xbd94179d	-0.072310664
190	0x3cb3997b	0.021923771
191	0x3df58f3f	0.11990213
192	0x3dae75ba	0.08518548
193	0x3dda0f0c	0.10647401
194	0xbc848c8a	-0.016180295
195	0xbdc0dd17	-0.094171695
196	0xbd6c27c5	-0.057655115
197	0xbb825221	-0.0039770757
198	0x3e0116d8	0.1260637
199	0x3d488196	0.048951708
200	0x3e6ed004	0.23321539
201	0x3c0d108c	0.008609902
202	0xbf187d1b	-0.59565896
203	0x3e03fbdd	0.12889047
204	0x3d56fc6b	0.05248682
205	0xbbe76257	-0.0070612836
206	0x3dad1704	0.084516555
207	0x3ce7e2b5	0.028306345
208	0xbd621f92	-0.05520589
209	0xbcc8a725	-0.024493763
210	0x3e191364	0.14948803
211	0xbd6d469c	-0.057928666
212	0x3dda7231	0.106663115
213	0x3e66e6f7	0.22549044
214	0x3e03f381	0.12885858
215	0x3dacfb32	0.08446349
216	0xbda76e31	-0.08175314
217	0x3c038dfb	0.008029456
218	0x3e817f30	0.2529235
219	0xbd64495d	-0.055734027
220	0x3e837a86	0.25679415
221	0x3c2113c2	0.009831371
222	0x3da36c6b	0.079796635
223	0xbdd7bf23	-0.10534503
224	0x3ca9aa1b	0.020710995
225	0x3e33c5a9	0.1755587
226	0xbce2f4b3	-0.027704572
227	0x3e20e335	0.15711673
228	0xbcfa048b	-0.030519744
229	0xbaa19ccb	-0.0012330053
230	0x3e321894	0.17392188
231	0xbed48a4a	-0.41511756
232	0x3cbd9f22	0.02314717
233	0x3d6e83a7	0.058231022
234	0x3d23cd37	0.03999063
235	0x3de40aea	0.11134894
236	0xbdeb4611	-0.114879735
237	0x3de25554	0.11051431
238	0x3d692e9f	0.056929227
239	0x3e7fd104	0.24982077
240	0x3de4233e	0.111395344
241	0xbd80237a	-0.062567666
242	0xbdaefa96	-0.08543889
243	0xbc3ea5c4	-0.011636201
244	0x3ddf6da1	0.10909582
245	0xbe3a2124	-0.18176705
246	0xbea674e8	-0.32511067
247	0x3e830f10	0.2559743
248	0xbe976ee8	-0.29576802
249	0xbe037497	-0.12837444
250	0xbe0443e1	-0.12916519
251	0xbd25cfc6	-0.04048135
252	0x3e9c8c22	0.30575663
253	0x3dd9c070	0.10632408
254	0xbe0036a1	-0.1252084
255	0xbe0d6466	-0.1380783

fc.bias f4 [13]
0	0x3e869771	0.26287416
1	0x3eaf1712	0.3419729
2	0x3ecade51	0.3962274
3	0x3e57c768	0.21072161
4	0x3e8cacc9	0.27475575
5	0x3eeafb43	0.45894822
6	0x3e536dfe	0.20647427
7	0x3e9003e0	0.28127956
8	0x3b94b097	0.0045376527
9	0x3e94847d	0.2900733
10	0x3e95fe1d	0.29295436
11	0x3ea5f136	0.32410592
12	0x3eb0d404	0.34536755
