production_ready/weather_prod_model_finetuned.pth (torch, 37457 bytes, 6 tensors)

net.0.weight f4 [32, 13, 3]
0	0x3e698151	0.22803237
1	0xbd4b2c3a	-0.049602725
2	0xbe08f752	-0.13375595
3	0xbe812c0f	-0.25228927
4	0x3d740edc	0.059584484
5	0x3c9ef450	0.019403607
6	0x3d73d911	0.059533183
7	0x3dbb332c	0.0914062
8	0xbb214880	-0.0024609864
9	0x3d35e773	0.04441018
10	0x3db4ba5c	0.08824608
11	0xbe1a48fa	-0.15066901
12	0x3cd70472	0.026247237
13	0x3da8fc1a	0.082512096
14	0x3d8d1a5e	0.06889795
15	0xbdba89e9	-0.091083355
16	0x3d761174	0.06007524
17	0xbc5c97c0	-0.013463914
18	0x3df876b4	0.12132016
19	0xbe056afa	-0.1302909
20	0xbd6f707a	-0.058456875
21	0x3f45fa24	0.7733481
22	0x3d3c0f10	0.045912802
23	0xbd72a350	-0.05923778
24	0x3e165150	0.14679456
25	0xbe138588	-0.14406407
26	0xbca9c478	-0.020723566
27	0x3efc909c	0.49329078
28	0x3e060fe0	0.13091993
29	0x3d393eb0	0.0452258
30	0x3de90725	0.11378316
31	0xbd83f2d5	-0.06442801
32	0x3e0679b8	0.1313237
33	0xbe1252e0	-0.14289427
34	0x3c25f380	0.010128856
35	0x3df270c8	0.118379176
36	0x3d9dff9d	0.0771477
37	0x3de12514	0.109934
38	0x3d853cb8	0.06505722
39	0x3e96687f	0.293766
40	0x3c538300	0.012909651
41	0xbd1664c0	-0.036717176
42	0x3d490c70	0.049084127
43	0xbcb8c9e8	-0.022557214
44	0x3d517d24	0.051144734
45	0xbed73832	-0.4203506
46	0x3cf04340	0.029328942
47	0xbe196ade	-0.14982173
48	0x3d1d5324	0.038409367
49	0x3dab27d0	0.08357203
50	0xbdd1c740	-0.10243082
51	0xbe4dc3d5	-0.20094235
52	0xbe1484a9	-0.14503731
53	0x3d4fac64	0.050701514
54	0xbde6d4e6	-0.11271076
55	0xbd32cba6	-0.043651246
56	0xbe07eef7	-0.13274752
57	0xbe2d0504	-0.16896445
58	0x3da4d302	0.08048059
59	0x3e0b2896	0.13589701
60	0x3f07a1b4	0.52981114
61	0x3d10d78c	0.03536181
62	0xbe18a71e	-0.149075
63	0x3e068b16	0.13138995
64	0x3d154dfc	0.036451325
65	0xbc814860	-0.015781581
66	0xbec6fc92	-0.3886457
67	0x3dcd83ac	0.1003488
68	0x3e015da4	0.12633377
69	0x3d74d1b0	0.059770286
70	0xbe0a9ef0	-0.13537192
71	0x3dbe5530	0.09293592
72	0xbe74c3cc	-0.23902816
73	0x3e138e3e	0.1440973
74	0xbd81b8ad	-0.06334052
75	0xbd20e995	-0.03928526
76	0xbb2ae240	-0.0026074797
77	0xbce70ec0	-0.028205276
78	0x3dd956af	0.10612237
79	0xbc51cc40	-0.012805045
80	0x3dc95d24	0.09832218
81	0xbe9999a7	-0.3000004
82	0x3dfdf93c	0.12401053
83	0x3c370a00	0.011171818
84	0xbdd89b11	-0.105764516
85	0xbd93488b	-0.07191571
86	0xbce533a0	-0.027978718
87	0x3e818150	0.2529397
88	0x3cc36680	0.023852587
89	0x3d3a4e88	0.04548505
90	0x3e30e8e6	0.17276344
91	0xbd6e217c	-0.058137402
92	0xbcaca4f0	-0.021074742
93	0xbd1efc5a	-0.03881488
94	0xbe1e1d5a	-0.15440884
95	0xbd1e7806	-0.038688682
96	0xbd8c5c5b	-0.06853553
97	0x3e13892a	0.14407793
98	0x3e0d01ee	0.13770267
99	0x3e1bac97	0.15202557
100	0x3d019f98	0.03164634
101	0x3d1f8dc8	0.038953573
102	0xbdfe1aeb	-0.12407478
103	0xbe198afc	-0.14994425
104	0xbd3d9128	-0.04628101
105	0x3ed34566	0.41263884
106	0x3e09bd0c	0.13451022
107	0x3b7400c0	0.0037231892
108	0x3e4b6435	0.19862445
109	0x3d118df4	0.035535768
110	0xbddb260c	-0.10700616
111	0x3c4c52aa	0.0124708805
112	0xbda11690	-0.078656316
113	0xbd113eb8	-0.035460204
114	0xbf05548c	-0.52082133
115	0x3da5932e	0.08084713
116	0xbd114aee	-0.03547185
117	0x3e8bda46	0.27314967
118	0x3e046d54	0.1293233
119	0xbce60440	-0.028078198
120	0xbe53275b	-0.20620482
121	0x3ce6a490	0.028154641
122	0xbe1ed3c1	-0.15510465
123	0x3e5cd220	0.21564531
124	0xbd03e658	-0.032202095
125	0x3d55d760	0.05220735
126	0xbd8a4272	-0.06750955
127	0xbe1b65f2	-0.15175608
128	0xbce76620	-0.02824694
129	0x3ca5aec5	0.020224938
130	0xbd1b29de	-0.037881725
131	0xbd4d4ebe	-0.050123923
132	0xbb14b456	-0.0022690496
133	0x3d527eec	0.051390573
134	0x3dbac1a8	0.09118968
135	0xbfbd25b5	-1.4777132
136	0xbdeb9cbb	-0.11504503
137	0xbdae3497	-0.085061245
138	0xbfb5bf35	-1.4198977
139	0x3d081c8c	0.03323035
140	0xbd8d738d	-0.06906805
141	0x3d9f0eb2	0.07766475
142	0x3dcaf550	0.09910071
143	0x3d06f390	0.032947123
144	0x3e1bed1e	0.15227172
145	0x3e14043e	0.14454743
146	0xbdebd896	-0.1151592
147	0x3e8d265a	0.27568322
148	0x3da93d4e	0.08263646
149	0xbcb79b48	-0.022412911
150	0x3cf98565	0.030459115
151	0x3bcf4160	0.006324932
152	0x3da2c98a	0.07948597
153	0x3abd0972	0.0014422371
154	0xbe055340	-0.13020039
155	0x3e20fa66	0.1572052
156	0x3eed1457	0.4630458
157	0xbcd3a900	-0.025837421
158	0xbe1d68bd	-0.15371986
159	0x3d90ff57	0.07079952
160	0xbe11ad33	-0.14226227
161	0x3d66dd58	0.056363434
162	0xbe4f267b	-0.20229523
163	0xbdcc9d70	-0.09990966
164	0x3dc0a474	0.09406367
165	0x3e657f2b	0.22411792
166	0xbcafad50	-0.021444947
167	0xbe1c99df	-0.15293072
168	0xbdec3e26	-0.115352914
169	0x3e22e500	0.15907669
170	0x3d770334	0.06030579
171	0xbdaa1f71	-0.08306778
172	0xbe0d1602	-0.13777927
173	0x3d0ffb7c	0.035151944
174	0xbe1e8573	-0.15480594
175	0x3d43fd40	0.04784894
176	0x3d9ca2da	0.07648249
177	0x3ee027eb	0.43780455
178	0xbd4486a4	-0.047979966
179	0x3dc336b8	0.09531921
180	0x3d80358a	0.06260212
181	0x3d7bda34	0.06148739
182	0xbb095940	-0.0020957738
183	0x3e93f382	0.2889672
184	0xbdd2e0bc	-0.10296771
185	0xbe107751	-0.14108016
186	0x3eeab9ab	0.45844778
187	0xbb033580	-0.0020020902
188	0xbdc8a28c	-0.09796628
189	0x3caddaa3	0.021222418
190	0xbe2177c8	-0.15768349
191	0x3c346c30	0.011012122
192	0x3cbbb890	0.022915155
193	0xbd093ec0	-0.03350711
194	0xbccc3b18	-0.024930522
195	0x3e1e3caf	0.15452836
196	0xba60e600	-0.00085791945
197	0xbd414250	-0.04718238
198	0xbe40fd68	-0.18846667
199	0x3dc292c4	0.095006496
200	0x3d6dcbc8	0.05805567
201	0x3ec4f6c1	0.38469508
202	0xbe198b5b	-0.14994566
203	0xbbc3c8a0	-0.005974844
204	0xbe0495fc	-0.1294784
205	0xbde6305e	-0.11239694
206	0xbdabf28c	-0.083958715
207	0x3e03ee4f	0.12883876
208	0x3ce94668	0.028475955
209	0xbdc8f9d0	-0.09813273
210	0xbccaacfb	-0.024740687
211	0xbc6f66d0	-0.014611915
212	0xbca26b98	-0.019826695
213	0x3d5bb716	0.0536414
214	0x3e20b73a	0.15694895
215	0xbdb3514c	-0.087557405
216	0x3eaa075d	0.33208743
217	0xbe1e2578	-0.1544398
218	0x3e1c397c	0.15256304
219	0xbd8f78e2	-0.070054784
220	0x3d0dcb60	0.03461778
221	0x3dad568e	0.084637746
222	0x3eab5285	0.33461395
223	0xbe01eeaa	-0.126887
224	0x3e0fb8f6	0.14035401
225	0xbd85cf99	-0.06533737
226	0xbe1a3c28	-0.1506201
227	0x3e072670	0.13198256
228	0xbe4ff292	-0.20307377
229	0x3dac906a	0.08425982
230	0xbe01289f	-0.12613152
231	0x3e8e66a7	0.27812693
232	0x3d74b314	0.059741095
233	0xbd8c01aa	-0.06836255
234	0x3cccd0d3	0.025001919
235	0xbcb2a4b8	-0.02180706
236	0x3d0fbafc	0.03509043
237	0xbe2305cb	-0.15920179
238	0xbded88fa	-0.11598392
239	0xbe034f50	-0.12823224
240	0x3d23e8e4	0.040017024
241	0xbdfaaeb5	-0.12240354
242	0xbd7e29a2	-0.062051423
243	0xbe52672b	-0.20547168
244	0xbb473180	-0.0030394495
245	0x3d9a7d3a	0.07543416
246	0x3d811cec	0.063043445
247	0x3c948578	0.01813005
248	0xbde429fa	-0.11140819
249	0x3d8e11c2	0.06936981
250	0xbd618568	-0.055058867
251	0xbd92661d	-0.07148383
252	0xbe408e76	-0.18804345
253	0xbd358a98	-0.044321626
254	0x3d2dfd44	0.04247786
255	0x3f1efba3	0.6210272

net.0.bias f4 [32]
0	0x3fc2498d	1.5178696
1	0x3fb22373	1.3917068
2	0x3fcad4a0	1.5846138
3	0x3fb07d5a	1.3788254
4	0x3fb6862a	1.4259694
5	0x3fb9cb9f	1.4515265
6	0x3fbb2144	1.4619527
7	0x3fab21eb	1.3369726
8	0x3fad148e	1.3521898
9	0x3fc76201	1.5576783
10	0x3f8b15ca	1.0866024
11	0x3fc63580	1.5485077
12	0x3f82dfcf	1.0224551
13	0x3f6a56eb	0.91538876
14	0x3f9fc2f0	1.2481365
15	0x3f8f0bb7	1.117545
16	0x3f822a8b	1.0169233
17	0x3f893e91	1.0722219
18	0x3f973b8b	1.1815046
19	0x3fc863e9	1.565549
20	0x3faaeefb	1.3354181
21	0x3fc35ca6	1.5262649
22	0x3f893a48	1.0720911
23	0x3fc206ec	1.5158362
24	0x3fabadb9	1.3412391
25	0x3fb177e0	1.3864708
26	0x3fb510d0	1.4145756
27	0x3f829f04	1.0204778
28	0x3f92167a	1.1413109
29	0x3fa5db64	1.2957578
30	0x3fb4d6ff	1.4128112
31	0x3faa53fe	1.3306882

net.2.weight f4 [64, 32, 3]
0	0x3f46c88a	0.7764975
1	0x3dc2a636	0.095043585
2	0xbd035a6e	-0.032068662
3	0x3f426010	0.7592783
4	0xbd74606b	-0.059662264
5	0xbdb5004e	-0.08837949
6	0x3f6703a6	0.9023994
7	0x3d19839c	0.037479028
8	0x3d4c2d10	0.049847662
9	0x3f64c8f5	0.89369136
10	0xbd45c5cb	-0.048284333
11	0x3d3d466c	0.046209738
12	0x3f25aabe	0.64713657
13	0xbcdec5bc	-0.027193896
14	0x3d95839e	0.073004946
15	0x3f4b4f85	0.7941821
16	0x3db5349e	0.088479266
17	0x3d170384	0.036868587
18	0x3f3e00d6	0.74220026
19	0xbbbc5e50	-0.0057485476
20	0xbb0913c0	-0.0020916313
21	0x3f1f89bb	0.62319535
22	0xbcb29c60	-0.021803081
23	0x3d9b9112	0.07596029
24	0x3f3f75ed	0.74789315
25	0x3d05ac8c	0.032635257
26	0x3d78ffe8	0.060790926
27	0x3f6be312	0.92143357
28	0xbc893d00	-0.01675272
29	0xbce2e734	-0.027698137
30	0x3ecf2e8d	0.40465203
31	0x3d270738	0.04077837
32	0xbd4bdd92	-0.049771853
33	0x3f6263bb	0.88433427
34	0x3d2fb588	0.04289773
35	0x3d6edf9c	0.05831872
36	0x3ecbea4d	0.39827195
37	0xbd064fd6	-0.03279098
38	0xbdb17a6f	-0.086659305
39	0x3f1a32e0	0.6023388
40	0xbd05ac96	-0.032635294
41	0x3d40c058	0.047058433
42	0x3f3aa0e3	0.72901744
43	0x3abbca80	0.0014327317
44	0xbd549226	-0.05189719
45	0x3f04ac58	0.51825476
46	0xbd8cbf79	-0.06872458
47	0x3d2f0e8c	0.042738482
48	0x3f210330	0.6289549
49	0xbd3fb2fe	-0.04680156
50	0xbd24b332	-0.040209956
51	0x3ee2c5db	0.44291577
52	0x3d63a4d4	0.055577114
53	0x3cb2f9dc	0.021847658
54	0x3f12e6d1	0.5738345
55	0x3d90ccd4	0.07070318
56	0x3c68bb68	0.014204837
57	0x3f7836b9	0.969585
58	0x3ce4f040	0.027946591
59	0x3d455460	0.04817617
60	0x3f51d15a	0.8196007
61	0x3dbd5cf2	0.092462435
62	0xbcbeae5c	-0.0232765
63	0x3f504079	0.8134838
64	0x3cd992f0	0.026559323
65	0x3c354228	0.011063136
66	0x3f103501	0.5633088
67	0x3db55552	0.08854164
68	0xbc1f9790	-0.009740725
69	0x3f632d95	0.8874143
70	0x3dafd824	0.085861474
71	0xbd68e886	-0.056862377
72	0x3f46e224	0.77688813
73	0xbd961a50	-0.073292375
74	0xbd9349ce	-0.071918115
75	0x3f4847c3	0.782345
76	0x3d9992d0	0.074987054
77	0x3d0f4ca0	0.034985185
78	0x3f6fc95d	0.9366663
79	0xbd0a6766	-0.033790015
80	0xbc826354	-0.015916504
81	0x3f15b376	0.5847696
82	0xbd8ef2de	-0.06979917
83	0xbd9bbd00	-0.07604408
84	0x3f1f6aea	0.6227251
85	0x3db4422a	0.08801682
86	0xbda86db0	-0.08224046
87	0x3f094b85	0.5363086
88	0x3d4cc050	0.04998809
89	0x3d399b74	0.045314267
90	0x3f54ad90	0.83077335
91	0x3d2b6d40	0.041852236
92	0x3d5fe94c	0.05466585
93	0x3f3b3f13	0.7314312
94	0xbdba8736	-0.09107821
95	0x3dcd42ac	0.10022482
96	0x3f51f0e4	0.82008195
97	0x3d8c0f50	0.06838858
98	0xbc73adf0	-0.014873013
99	0x3efc3fb6	0.49267358
100	0x3cc18e70	0.02362749
101	0xbd3224c4	-0.043492094
102	0x3f3c6c25	0.73602515
103	0xbc929c88	-0.017896906
104	0xbd14e1ec	-0.03634827
105	0x3f69d45e	0.9133967
106	0x3a303600	0.0006721914
107	0xbdc0c8da	-0.094133094
108	0x3f213670	0.6297369
109	0xbc2a98f8	-0.010412447
110	0xbd99be86	-0.075070426
111	0x3f5b364e	0.8562974
112	0x3d19c73c	0.03754352
113	0xbdc9089e	-0.09816097
114	0x3f5495b4	0.8304093
115	0xbdb648a2	-0.08900572
116	0x3d918354	0.07105127
117	0x3f3720fd	0.7153471
118	0x3cc629d8	0.024189875
119	0x3d983f4c	0.07433948
120	0x3f57e84d	0.8433884
121	0xbd7892d6	-0.06068691
122	0x3b01ecc0	0.0019824952
123	0x3f3961eb	0.72415036
124	0x3b11cbe0	0.0022246763
125	0xbd21485c	-0.039375648
126	0x3efca4a2	0.49344355
127	0x3da4c536	0.080454275
128	0x3dbdd710	0.092695355
129	0x3f53da87	0.8275532
130	0x3bcca000	0.0062446594
131	0xbd1c34ee	-0.038136415
132	0x3ed18196	0.4091918
133	0x3d9ea7ce	0.0774685
134	0x3a817000	0.0009875298
135	0x3f0b5c64	0.5443785
136	0xb9aea100	-0.0003330782
137	0x3d0f460c	0.03497891
138	0x3f4c927e	0.7991103
139	0x3d4b71c4	0.049669042
140	0xbd718014	-0.058960035
141	0x3f1727e6	0.59045255
142	0x3c65fd20	0.0140374005
143	0xbd57274e	-0.05252772
144	0x3ebedbf2	0.3727718
145	0xbc534568	-0.012894966
146	0x3d7adc28	0.061245114
147	0x3f065c9d	0.52485067
148	0x3d9c11aa	0.07620557
149	0x3d352a90	0.044230044
150	0x3f1df797	0.6170592
151	0x3da3a98a	0.079913214
152	0x3c4fdc28	0.012686767
153	0x3f3c7d18	0.7362838
154	0x3ce890f0	0.028389424
155	0xbcb8d448	-0.022562161
156	0x3f4e8e1c	0.8068559
157	0x3b94db00	0.0045427084
158	0x3da37678	0.079815805
159	0x3f463868	0.7742982
160	0xbbdf96e0	-0.0068234056
161	0x3c23a7c8	0.009988733
162	0x3f210701	0.6290131
163	0x3d50e6f4	0.051001504
164	0x3db19f2e	0.08672939
165	0x3f6d1a8c	0.9261863
166	0x3d91dcf8	0.071222246
167	0x3ca672b8	0.020318374
168	0x3f410e6c	0.7541263
169	0xbc361d58	-0.0111153945
170	0xbd83d700	-0.06437492
171	0x3f4240f4	0.7588036
172	0xbc8a38d8	-0.016872808
173	0xbd090fdc	-0.03346239
174	0x3f839eb2	1.0282805
175	0xbd88effd	-0.06686399
176	0xbb939090	-0.004503317
177	0x3e9f2bdb	0.31088147
178	0x3d2f948c	0.042866275
179	0x3db17202	0.086643234
180	0x3f042a16	0.5162672
181	0x3d18ad14	0.037274435
182	0xbd923455	-0.07138888
183	0x3f007f15	0.5019391
184	0xbcec5f70	-0.028854102
185	0xbda8c029	-0.08239777
186	0x3f2f8228	0.6855798
187	0x3da25dfa	0.07928081
188	0xbd83a586	-0.064280555
189	0x3f13fd60	0.57808495
190	0x3d83d6ba	0.0643744
191	0x3d97c8ae	0.074113235
192	0x3d905039	0.07046551
193	0xbd967b62	-0.07347752
194	0x3d64b138	0.05583307
195	0xbdd0c5a4	-0.10193947
196	0xbdbe8779	-0.09303183
197	0xbda382ab	-0.07983907
198	0xbcdd6e19	-0.027030038
199	0x3da984e6	0.082773015
200	0x3da1b75e	0.07896303
201	0x3d863f26	0.06555013
202	0xbc652660	-0.0139862
203	0xbdbe86a5	-0.09303025
204	0xbc9faa69	-0.019490438
205	0x3ba02e30	0.0048883185
206	0xbcfd6ee4	-0.030936666
207	0xbd31c93c	-0.043404803
208	0xbcb6e414	-0.022325553
209	0x3b710c00	0.0036780834
210	0x3c2501fa	0.010071272
211	0xbdc2c81c	-0.09510824
212	0xbd6c011d	-0.05761825
213	0xbda09b95	-0.07842175
214	0x3d0acea8	0.03388849
215	0xbc849bc4	-0.016187556
216	0xbdbb9d68	-0.09160882
217	0x3cc57d58	0.02410762
218	0xbc02b538	-0.007977776
219	0xbc1692cf	-0.009190275
220	0x3dcacb0a	0.09902008
221	0x3be47690	0.0069721416
222	0xbdbb4a82	-0.091450706
223	0xbcfb6a34	-0.03069029
224	0xbd1ba6bc	-0.038000807
225	0xbd4cc8df	-0.049996253
226	0xbd9f960d	-0.07792292
227	0x3bbd34d0	0.005774118
228	0xbd7f4350	-0.062320054
229	0x3ccda4c8	0.025102988
230	0xbd518545	-0.051152486
231	0xbdef90df	-0.11697554
232	0x3db8bf22	0.09020831
233	0x3daca87e	0.08430575
234	0xbbdcb272	-0.0067351395
235	0x3ba20140	0.0049439967
236	0xbd2de4d9	-0.042454574
237	0x3d3d56d4	0.046225384
238	0xbd258966	-0.040414236
239	0xbb979610	-0.004626043
240	0xbd1424a9	-0.036167774
241	0xbda94efa	-0.08267017
242	0xbd8eef9a	-0.06979294
243	0xbdaad5be	-0.08341549
244	0x3da1ed9e	0.0790665
245	0xbd8564f6	-0.065133974
246	0xbde48703	-0.11158564
247	0x3d8894fc	0.066690415
248	0xbd8df714	-0.06931892
249	0x3c90def3	0.017684435
250	0xbda210fe	-0.07913397
251	0xbd9a0eba	-0.0752234
252	0xbd9350a1	-0.07193113
253	0x3d31b178	0.043382138
254	0x3d81f524	0.06345585
255	0x3d08f339	0.03343508

net.2.bias f4 [64]
0	0x3f6a0170	0.91408443
1	0x3f58912c	0.84596515
2	0xbc277e25	-0.010222946
3	0x3f74fcb1	0.95698076
4	0x3f4fd692	0.81186783
5	0x3f60a2d1	0.8774844
6	0xbd37f601	-0.044912342
7	0x3d33c297	0.043886747
8	0x3f3a09c0	0.7267113
9	0x3f5135f8	0.81722975
10	0x3fae10fd	1.3598934
11	0xbd8519f9	-0.064990945
12	0xbdf9d658	-0.12199086
13	0x3d206963	0.039163005
14	0x3c9c3b62	0.019071285
15	0x3f4b4162	0.7939664
16	0x3f60ce4e	0.87814796
17	0xbdf7e848	-0.12104851
18	0x3f58cbd5	0.84686023
19	0x3ca576b2	0.0201982
20	0x3f4390d1	0.7639285
21	0x3f38a1d5	0.72121936
22	0x3f53999d	0.8265627
23	0x3f53f922	0.8280202
24	0x3f317486	0.69318426
25	0xbd7a6851	-0.06113464
26	0x3f4b65f1	0.79452425
27	0x3f43121b	0.761995
28	0x3f532376	0.82475984
29	0x3c6d80ef	0.014496072
30	0x3f3cda35	0.7377046
31	0x3f64a69f	0.89316744
32	0xbd984422	-0.0743487
33	0x3f6e93fe	0.9319457
34	0x3f44a5c6	0.7681545
35	0x3f544b37	0.8292727
36	0xbdc719ec	-0.09721741
37	0xbde46528	-0.111521065
38	0x3f440efc	0.76585364
39	0x3f5282a8	0.82230616
40	0x3f3be6e6	0.733992
41	0x3abfa220	0.001462046
42	0x3f4cba74	0.79972005
43	0x3cdf5742	0.027263287
44	0x3f7210a7	0.9455666
45	0x3f520446	0.8203777
46	0xbd454613	-0.04816253
47	0x3f46e127	0.77687305
48	0xbdb760c5	-0.08954004
49	0xbd5ba4fd	-0.053624142
50	0x3f3ffe36	0.7499727
51	0x3f5960d7	0.8491339
52	0xbda2ba2e	-0.07945667
53	0x3f52e9e8	0.8238816
54	0x3f55ea96	0.83561075
55	0x3f3c9270	0.73660946
56	0x3f3f1d0d	0.746537
57	0x3f54f056	0.83179224
58	0x3f5bc804	0.85852075
59	0xbd2747fc	-0.040840134
60	0x3f43804f	0.7636766
61	0x3cf5a8b6	0.029987674
62	0x3f359f08	0.7094579
63	0x3f736917	0.9508223

fc.weight f4 [13, 64]
0	0x3da6e167	0.08148461
1	0x3d3ebd1b	0.046567064
2	0x3c57c809	0.013170251
3	0xb97c03f5	-0.00024034067
4	0x3de79a88	0.11308771
5	0x3d89c025	0.06726102
6	0xbd2b6a36	-0.041849338
7	0x3d95aee5	0.07308749
8	0xbd742a12	-0.059610434
9	0xbd8184da	-0.063241675
10	0xbd13e160	-0.036103606
11	0x3e06231b	0.13099329
12	0x3df7e889	0.121048994
13	0xbd457fb2	-0.048217483
14	0xbd92e3d2	-0.071723595
15	0xbd456e05	-0.048200626
16	0xbcb435c2	-0.02199829
17	0xbdc052af	-0.09390771
18	0x3e4fdabc	0.20298284
19	0xbcc81143	-0.024422294
20	0xbc0ec4de	-0.008713929
21	0xbdda56ba	-0.10661073
22	0x3d6ff54e	0.05858355
23	0x3dd87ee3	0.10571077
24	0x3d8a53e3	0.06754281
25	0xbdce2dcb	-0.10067328
26	0xbd932322	-0.071844354
27	0x3cc004e4	0.023439832
28	0xbd283c6e	-0.041073255
29	0x3d652c9e	0.055950753
30	0x3e0c2368	0.13685381
31	0x3e09cc5d	0.13456865
32	0xbd520366	-0.051272772
33	0xbd3d545c	-0.04622303
34	0xbd6c9806	-0.05776217
35	0xbaf26a2f	-0.001849478
36	0x3d7d8943	0.06189848
37	0xbda3bfaa	-0.079955414
38	0x3e1c1eb9	0.15246095
39	0xbda88bbf	-0.082297795
40	0x3e2df5a8	0.16988242
41	0xbd08ad38	-0.03336832
42	0xbd56cc86	-0.052441142
43	0xbd9d0cd8	-0.076684654
44	0xbeab1080	-0.33411026
45	0xbd7aefbe	-0.061263792
46	0x3d4a0b63	0.049327265
47	0x3e0d4b97	0.13798366
48	0x3dac9e73	0.08428659
49	0x3e08433f	0.13306902
50	0xbd0c23b7	-0.034213748
51	0xbd07a4af	-0.03311604
52	0x3c0ce6f2	0.0085999835
53	0x3de6b6c7	0.11265331
54	0xbdfb320d	-0.12265406
55	0x3d959409	0.07303626
56	0x3d7b448a	0.06134466
57	0x3df216e7	0.118207745
58	0x3db2eb2a	0.0873626
59	0xbd6a3422	-0.057178624
60	0xbd782b40	-0.06058812
61	0x3d830b87	0.06398683
62	0x3d355315	0.044268686
63	0x3dbc432c	0.091924995
64	0xbdef209d	-0.11676142
65	0xbddd7386	-0.1081305
66	0xbc6daff4	-0.0145072825
67	0x3d999937	0.074999265
68	0x3e06cb1a	0.13163415
69	0x3d9e3b2b	0.07726129
70	0xbd8c88f6	-0.06862061
71	0x3d4926a7	0.049109127
72	0x3d639603	0.055562984
73	0x3c2da82b	0.010599176
74	0xbd10ec02	-0.035381325
75	0xbc9b94a4	-0.018991776
76	0x3c67b3a6	0.014141953
77	0x3d47234c	0.048617646
78	0xbdc4a110	-0.09601033
79	0x3b04b4a6	0.0020249276
80	0x3dabae46	0.083828494
81	0xbcb54e77	-0.022132142
82	0xbc563450	-0.013073996
83	0xbd149126	-0.036271237
84	0x3dba53c7	0.090980105
85	0x3dbc5273	0.091954134
86	0x3e040448	0.12892258
87	0x3d3f67a4	0.0467297
88	0xbcc30ef7	-0.023810847
89	0x3e04f24a	0.12983051
90	0x3c63d529	0.013905802
91	0xbdac29c4	-0.08406404
92	0x3d1e8a94	0.038706377
93	0x3c3b3391	0.011425869
94	0x3dc58162	0.096438184
95	0x3e2c04fd	0.16798778
96	0x3b0a2170	0.002107706
97	0xbe10fc18	-0.14158666
98	0x3d87d229	0.06631882
99	0x3c655f05	0.013999705
100	0x3bb0f93a	0.005400804
101	0xbdc3fd65	-0.095698155
102	0xbd45c82d	-0.048286606
103	0xbe91d8e5	-0.2848579
104	0x3e111a6e	0.14170238
105	0x3de72344	0.11286023
106	0x3e1c6e9e	0.15276572
107	0xbd5de15e	-0.054170005
108	0xbe990da5	-0.29893222
109	0x3d967eea	0.07348426
110	0xbc2decdd	-0.010615555
111	0x3e201183	0.1563168
112	0x3d450b4b	0.048106473
113	0xbd1ffb2e	-0.039057903
114	0x3ab72afa	0.00139746
115	0x3ca994d4	0.02070085
116	0x3d72b8ff	0.059258457
117	0xbca80c6e	-0.02051374
118	0xbe64b28d	-0.22333737
119	0x3d3f4980	0.046700954
120	0x3dbc275a	0.09187193
121	0xbdb14f38	-0.08657688
122	0x3dd861a1	0.10565496
123	0xbca5d22f	-0.020241825
124	0x3dcfa435	0.10138742
125	0xbcd09d68	-0.025465682
126	0x3e2fec9c	0.17180103
127	0x3d8ffa08	0.070301116
128	0x3e1ce769	0.15322651
129	0xbc20d4bb	-0.009816344
130	0x3d031c01	0.03200913
131	0x3dde72b0	0.10861719
132	0x3e470a4e	0.19437525
133	0xbd37b089	-0.04484609
134	0x3c019fcd	0.007911635
135	0xbce6748c	-0.028131746
136	0x3c4291a9	0.011875548
137	0x3e6d5230	0.23175883
138	0x3daa5b6d	0.08318219
139	0x3d785053	0.06062348
140	0x3e14651d	0.14491697
141	0x3c248370	0.010041103
142	0x3df07979	0.11741919
143	0x3e1ca1b4	0.1529606
144	0x3e80b4ab	0.2513784
145	0x3d67bfcf	0.056579407
146	0xbde2118b	-0.11038502
147	0xbd91344d	-0.07090054
148	0xbb9d6a0d	-0.004803902
149	0x3dd15324	0.10220936
150	0x3e56987d	0.20956607
151	0xbd1e58be	-0.03865885
152	0x3e6dd468	0.23225558
153	0xba8debce	-0.0010827722
154	0x3dac4bf0	0.084129214
155	0xbc316a02	-0.010828497
156	0x3d4116aa	0.047140755
157	0x3de9aaa5	0.11409501
158	0xbd559f98	-0.052154154
159	0xbe119e79	-0.14220609
160	0x3d2035db	0.03911386
161	0xbd55f4d6	-0.052235447
162	0x3e554262	0.20826104
163	0x3e235c16	0.15953097
164	0xbda3c1a1	-0.07995916
165	0xbc235fef	-0.009971603
166	0x3dcec6e9	0.10096533
167	0xbed02854	-0.40655768
168	0xbe04b45b	-0.12959425
169	0x3c44e903	0.012018445
170	0x3ca77681	0.02044225
171	0x3cb67325	0.022271702
172	0xbe09798e	-0.13425276
173	0x3ca4213a	0.020035375
174	0xbdbc43a1	-0.09192587
175	0x3dac3a44	0.08409551
176	0xbdccb242	-0.099949375
177	0xbd2a4081	-0.041565422
178	0xbcd53987	-0.026028408
179	0x3e165ec0	0.14684582
180	0x3e0eec41	0.13957311
181	0x3e4fdeb1	0.20299794
182	0xbe6546a0	-0.22390223
183	0x3e327f71	0.17431428
184	0x3e04612b	0.12927692
185	0x3e28a538	0.16469276
186	0x3d20d251	0.039263073
187	0x3dd0eaa6	0.10201006
188	0x3e61920e	0.22028372
189	0xbd94179d	-0.072310664
190	0x3c86fd0b	0.016478082
191	0x3dec737f	0.11545467
192	0x3da7e3a3	0.08197715
193	0x3dd3f5f3	0.103496455
194	0xbc848c8a	-0.016180295
195	0xbdc6a382	-0.096991554
196	0xbd75589c	-0.059898958
197	0xbbe38514	-0.0069433544
198	0x3e0116d8	0.1260637
199	0x3d488196	0.048951708
200	0x3e6be445	0.23036297
201	0x3bc533a0	0.006018117
202	0xbf1959e1	-0.5990277
203	0x3e03fbdd	0.12889047
204	0x3d56fc6b	0.05248682
205	0xbbe76257	-0.0070612836
206	0x3dad1704	0.084516555
207	0x3ccfecb2	0.02538142
208	0xbd6e8eca	-0.058241643
209	0xbcc8a725	-0.024493763
210	0x3e1637e0	0.14669752
211	0xbd6d469c	-0.057928666
212	0x3dd525aa	0.104075745
213	0x3e63af4c	0.22234839
214	0x3e012e6c	0.12615365
215	0x3da725d5	0.08161513
216	0xbdad10f8	-0.08450502
217	0x3c038dfb	0.008029456
218	0x3e7fc739	0.24978341
219	0xbd700653	-0.05859978
220	0x3e81f6e5	0.25383678
221	0x3c2113c2	0.009831371
222	0x3d9e7a5e	0.077381834
223	0xbddcc945	-0.107805766
224	0x3ca9aa1b	0.020710995
225	0x3e307f13	0.17235975
226	0xbcf93de7	-0.030425025
227	0x3e1e3037	0.1544808
228	0xbcfa048b	-0.030519744
229	0xbaa19ccb	-0.0012330053
230	0x3e2f42c6	0.17115316
231	0xbed5cd87	-0.41758367
232	0x3ca8c977	0.020603878
233	0x3d6e83a7	0.058231022
234	0x3d185afa	0.037196137
235	0x3de40aea	0.11134894
236	0xbdf14838	-0.11781353
237	0x3ddd29de	0.10799001
238	0x3d692e9f	0.056929227
239	0x3e7d18fb	0.2471656
240	0x3de4233e	0.111395344
241	0xbd80237a	-0.062567666
242	0xbdb48490	-0.08814347
243	0xbc6db904	-0.014509443
244	0x3ddf6da1	0.10909582
245	0xbe3cd336	-0.18439946
246	0xbea7aa65	-0.32747188
247	0x3e81829e	0.25294966
248	0xbe98b771	-0.29827455
249	0xbe065141	-0.13116933
250	0xbe06c436	-0.13160786
251	0xbd25cfc6	-0.04048135
252	0x3e9b1700	0.30290985
253	0x3dd9c070	0.10632408
254	0xbe02780c	-0.12741107
255	0xbe0fe425	-0.14051874

fc.bias f4 [13]
0	0x3e866cdd	0.2625493
1	0x3eaf26a7	0.34209177
2	0x3eca9629	0.39567688
3	0x3e54f538	0.20796669
4	0x3e8b3f4b	0.27196726
5	0x3eeaebaa	0.45882922
6	0x3e53ba51	0.20676543
7	0x3e96978b	0.29412493
8	0x3b8db1e1	0.0043241833
9	0x3e94e955	0.29084268
10	0x3e95c5e2	0.29252535
11	0x3ea5be53	0.32371768
12	0x3eaf8efb	0.34288773
