models/h12_ep30_bs128.pth (torch, 36073 bytes, 6 tensors)

net.0.weight f4 [32, 15, 3]
0	0xbd2cdc7a	-0.04220245
1	0x3dddc14a	0.108278826
2	0x3b013c80	0.0019719899
3	0x3d9d007d	0.07666109
4	0xbc212320	-0.009835035
5	0x3d0555fc	0.032552704
6	0xbdedc646	-0.11610083
7	0x3e0a2a5d	0.13492723
8	0x3c114490	0.008866444
9	0xbe9f70f7	-0.31140873
10	0x3cd7b850	0.026333004
11	0xbd7b6bf8	-0.061382264
12	0x3e8a6d97	0.27036735
13	0xbca56880	-0.020191431
14	0xbc37e950	-0.01122506
15	0xbe295fcb	-0.16540448
16	0x3e095e49	0.13414873
17	0xbda1b319	-0.07895488
18	0xbdc88989	-0.09791858
19	0x3df2fa1e	0.11864112
20	0xbde8282e	-0.11335789
21	0xbe79fcc2	-0.24412826
22	0x3c81a200	0.015824318
23	0x3de28ca6	0.11061983
24	0xbe75b525	-0.23994882
25	0x3dde71f2	0.10861577
26	0xbc171d50	-0.009223297
27	0xbdf6f3ee	-0.12058245
28	0x3e0e2ba9	0.13883843
29	0xbe1762f5	-0.14783843
30	0x3e1d361b	0.15352671
31	0x3dd1615a	0.102236465
32	0xbdb8cbae	-0.09023224
33	0xbda641f3	-0.081180476
34	0xbd163e58	-0.03668055
35	0x3d4f7ab0	0.050654113
36	0x3e9f1e9b	0.31078038
37	0xbdcd7c42	-0.10033466
38	0xbe0e1c48	-0.13877976
39	0xbe772017	-0.24133335
40	0xbdd00e22	-0.101589456
41	0xbdd43e7f	-0.10363483
42	0xbeb0f0a0	-0.34558582
43	0x3e07baef	0.13254903
44	0x3d65d520	0.056111455
45	0xbc8a3f38	-0.016875848
46	0x3dff9fce	0.12481652
47	0xbcf1b934	-0.029507257
48	0xbde4c4b2	-0.11170329
49	0x3bd08a40	0.006364137
50	0x3db49d1c	0.08819029
51	0x3ea0a365	0.3137466
52	0xbd76b81c	-0.060234174
53	0x3d8c8d86	0.06862931
54	0x3e06e3ef	0.13172887
55	0x3dca877c	0.09889123
56	0xbe01c16e	-0.12671444
57	0x3d24b2bc	0.040209517
58	0x3dea6d4a	0.114466265
59	0xbdefab42	-0.11702587
60	0x3e8b2395	0.27175584
61	0x3e01ce3f	0.12676333
62	0x3df331da	0.11874743
63	0xbe83d83d	-0.25750914
64	0xbdf8dda4	-0.121516496
65	0x3d4cfb20	0.05004418
66	0xbd67a54b	-0.05655412
67	0xbd98ed7b	-0.07467171
68	0xbd15461a	-0.036443807
69	0xbeaa50b3	-0.33264694
70	0x3dd830ba	0.10556169
71	0x3ca82f38	0.020530328
72	0xbcc1abc8	-0.023641482
73	0xbe15dc33	-0.1463478
74	0xbe15a447	-0.14613448
75	0xbe4422d5	-0.19153912
76	0xbd9a3855	-0.07530276
77	0x3dfe0cc2	0.12404777
78	0x3ea4a6ed	0.32158604
79	0xbc9a5298	-0.018838212
80	0xbd2f3a06	-0.042779945
81	0x3ed24dc1	0.41074947
82	0x3e03347d	0.12812991
83	0xbdf1863a	-0.1179318
84	0xbec623e2	-0.3869925
85	0xbe178041	-0.14795019
86	0x3d3accf4	0.045605615
87	0xbe89df5a	-0.26928216
88	0xbddd8bad	-0.10817657
89	0x3dd8c2aa	0.10584004
90	0xbd7fbf62	-0.062438376
91	0x3d52d45c	0.051472053
92	0xbd7b994e	-0.0614255
93	0xbe06b971	-0.13156678
94	0x3def55b2	0.11686267
95	0xbdb8a8c5	-0.09016565
96	0x3ea44ee1	0.3209143
97	0xbd90ca71	-0.07069863
98	0xbc6da5b0	-0.014504835
99	0x3cd19159	0.025582002
100	0x3d55a2e4	0.052157298
101	0x3c823340	0.015893579
102	0xbebbfac9	-0.3671477
103	0x3d418010	0.04724127
104	0xbd9de3f8	-0.07709497
105	0x3e89aa1e	0.26887602
106	0x3db4aff4	0.08822623
107	0x3d90a55e	0.07062791
108	0xbebb6e2c	-0.36607492
109	0xbdb55e8c	-0.08855924
110	0x3dcee9e6	0.10103206
111	0x3dc47a26	0.095936105
112	0xbd450ee4	-0.048109904
113	0xbd15ae14	-0.036542967
114	0x3e5ae670	0.21376967
115	0x3c159110	0.009128824
116	0x3b8117e0	0.0039396137
117	0xbdc20024	-0.09472683
118	0xbd4e108e	-0.050308757
119	0xbd6d7c70	-0.05798
120	0xbea7e8a8	-0.3279469
121	0x3c389240	0.0112653375
122	0x3dbc7626	0.092022225
123	0x3eb04d6f	0.34434077
124	0xbd807c3e	-0.06273697
125	0xbcadf280	-0.021233797
126	0xbe4ad38e	-0.19807264
127	0xbdb289d2	-0.087176934
128	0xbdfefddc	-0.124507636
129	0x3ead5d87	0.33860418
130	0xbe0dfd59	-0.13866176
131	0x3ddf907e	0.109162316
132	0x3d2f2194	0.042756632
133	0x3d859c0e	0.06523906
134	0xbe12dacd	-0.14341278
135	0xbe1521c2	-0.14563659
136	0x3c558390	0.013031855
137	0x3d8d34f4	0.06894866
138	0xbba5ac53	-0.005055943
139	0x3de852fa	0.113439515
140	0x3de75d8e	0.11297141
141	0xbec2da28	-0.38057065
142	0x3b8216c0	0.003969997
143	0xbe15d026	-0.14630184
144	0xbe647bb6	-0.22312817
145	0x3d057978	0.032586545
146	0xbd51273a	-0.0510628
147	0x3e556085	0.208376
148	0x3d705924	0.05867876
149	0x3dfddd46	0.1239572
150	0xbec028e1	-0.37531188
151	0xbcd5f09c	-0.026115708
152	0xbd5a9752	-0.053366967
153	0x3e93e7ea	0.28887874
154	0x3d46e3d8	0.048557132
155	0x3e0638bd	0.13107581
156	0xbe06d258	-0.13166177
157	0x3de77fb2	0.11303653
158	0xbdcd50f1	-0.10025204
159	0x3db63405	0.08896641
160	0xba5df800	-0.0008467436
161	0x3df5660e	0.11982356
162	0xbd9ec2b3	-0.0775198
163	0x3d39920c	0.045305297
164	0x3df5bb86	0.11998658
165	0x3e87f084	0.26550686
166	0xbd1bd5ac	-0.03804557
167	0x3dfaaeea	0.122403935
168	0xbe98e010	-0.29858446
169	0x3bbaf6c0	0.0057056844
170	0xbe0c1935	-0.1368149
171	0xbe084961	-0.13309242
172	0x3dd58d82	0.10427381
173	0xbaee2b80	-0.0018170923
174	0x3d951d24	0.07280949
175	0xbe0d4d11	-0.1379893
176	0xbc98d1e8	-0.018654779
177	0xbd54f6a8	-0.051993042
178	0xbdea23ee	-0.11432634
179	0x3c95a180	0.018265486
180	0xbc8fd4b0	-0.017557472
181	0x3cf1d458	0.029520199
182	0x3df40446	0.119148776
183	0xbe167287	-0.14692126
184	0x3d80da2c	0.06291613
185	0x3e0764e7	0.13222085
186	0xbe920783	-0.28521356
187	0x3db42f5a	0.08798094
188	0xbe0fc476	-0.14039788
189	0xbece6def	-0.40318248
190	0xbdfe5465	-0.12418441
191	0x3daab6e0	0.08335662
192	0x3e648aff	0.22318648
193	0xbddb995e	-0.10722612
194	0xbd376076	-0.044769727
195	0xbdf71a3e	-0.12065552
196	0xbbb9cd40	-0.0056702197
197	0x3da7cf30	0.08193815
198	0x3e8fdd8b	0.2809871
199	0x3e005243	0.1253138
200	0x3e037b8b	0.12840097
201	0xbd7e70fe	-0.062119476
202	0x3e0a6525	0.13515146
203	0xbd07deee	-0.033171587
204	0xbe835973	-0.25654182
205	0x3e18a01d	0.14904828
206	0xbc36a5e0	-0.011147946
207	0x3d43a66c	0.047766134
208	0x3d84a3a8	0.064765275
209	0xbd933970	-0.0718869
210	0x3e084e46	0.13311109
211	0x3dd9bab6	0.106313154
212	0x3c43c8e0	0.011949748
213	0xbe8e7d9e	-0.27830213
214	0xbc7db780	-0.015485644
215	0x3dafed60	0.085901976
216	0x3e0d6a29	0.13810028
217	0xbd24912e	-0.040177517
218	0x3d1848cc	0.0371788
219	0xbe9b5759	-0.30340078
220	0xbd5a5c8c	-0.053310916
221	0xbd9b8282	-0.07593252
222	0xbed7a37f	-0.42116925
223	0x3df3ce6e	0.11904608
224	0xbdbbbcd1	-0.09166873
225	0x3d6c6754	0.05771573
226	0xbc5d8ff0	-0.013523087
227	0xbd7837f2	-0.06060023
228	0xbce8867a	-0.028384436
229	0x3e0f4979	0.13992871
230	0xbddcefc4	-0.10787919
231	0x3e795436	0.2434853
232	0xbcfc4f64	-0.030799575
233	0xbdf663e2	-0.1203077
234	0x3d075e8a	0.033049144
235	0x3d011210	0.031511366
236	0x3cecc320	0.028901637
237	0xbe54cf67	-0.20782243
238	0xbdc88914	-0.097917706
239	0x3da49fe4	0.08038309
240	0x3ea2a078	0.31763053
241	0x3ca29c80	0.019850016
242	0xbd81b84e	-0.063339815
243	0xbe688d6e	-0.22710201
244	0xbd8fb353	-0.07016625
245	0x3e14227d	0.14466281
246	0x3d8ea678	0.06965345
247	0xbb015f40	-0.0019740611
248	0xbe0800dd	-0.1328158
249	0x3e2a10fe	0.16608045
250	0x3db90af8	0.09035295
251	0x3cd3d5b0	0.02585873
252	0x3e03e5c5	0.12880619
253	0x3d8ca692	0.06867708
254	0x3b75dd80	0.0037516057
255	0xbe1452fe	-0.14484784

net.0.bias f4 [32]
0	0x3e8bc84b	0.2730125
1	0x3e8db714	0.2767874
2	0x3e8ba26e	0.27272362
3	0x3e628bef	0.22123693
4	0x3e9dcda0	0.30820942
5	0x3dc53036	0.09628336
6	0x3e40f7bb	0.18844502
7	0x3e11c456	0.14235052
8	0x3eaf0d89	0.34190014
9	0x3e72582d	0.23666449
10	0x3e65284e	0.22378656
11	0x3e7408d0	0.23831487
12	0x3da9a225	0.0828288
13	0x3eb50f0f	0.3536305
14	0x3e16de45	0.14733227
15	0x3e78812f	0.2426803
16	0x3e2612eb	0.16218154
17	0x3eb25287	0.34828588
18	0x3e196d9d	0.1498322
19	0x3e1d4bdd	0.15360971
20	0x3e832dc4	0.25620854
21	0x3e935f50	0.28783655
22	0x3e68c71e	0.22732207
23	0x3e57f12b	0.21088092
24	0x3e0371a7	0.12836324
25	0x3e1dd473	0.15413074
26	0x3e96d201	0.29457095
27	0x3dfcb3a9	0.12338955
28	0x3e4ae3f8	0.19813526
29	0x3e6cf7ee	0.23141453
30	0x3e3bb41c	0.18330425
31	0x3ded0ef9	0.115751214

net.2.weight f4 [64, 32, 3]
0	0x3e77b1f6	0.2418898
1	0x3dbb1c52	0.09136261
2	0x3c8821e8	0.01661773
3	0x3e419606	0.18904886
4	0x3dbd9d40	0.09258509
5	0xbd89d7de	-0.067306265
6	0x3dea7ec5	0.114499606
7	0xbd23e131	-0.04000968
8	0x3d8724a2	0.06598784
9	0x3e176f86	0.14788637
10	0x3b1e0fc0	0.0024118274
11	0x3c885dc0	0.016646266
12	0x3e49dc33	0.19712906
13	0xbcb50460	-0.022096813
14	0xbdcc8756	-0.09986751
15	0x3e0da881	0.1383381
16	0x3d2d128c	0.042254016
17	0xbca15280	-0.01969266
18	0x3e085fcd	0.13317795
19	0x3dc0402a	0.09387238
20	0xbc7e2198	-0.015510939
21	0x3e87c7d8	0.26519656
22	0x3d615fcc	0.055023
23	0xbaf797c0	-0.001888983
24	0x3e1b76f3	0.15182094
25	0x3d4e5884	0.050377384
26	0xbd996a20	-0.07490945
27	0x3e8b8c6f	0.2725558
28	0xbcb2eb10	-0.021840602
29	0xba2d3c00	-0.0006608367
30	0x3da99e82	0.08282186
31	0xbd3d67a0	-0.046241403
32	0x3cb800e4	0.022461362
33	0x3e92f62a	0.28703433
34	0x3d9c5f66	0.07635383
35	0x3c0b9ce8	0.008521296
36	0x3e84532e	0.2584471
37	0xbcb94ccc	-0.022619627
38	0xbd12176c	-0.035666868
39	0x3d971a14	0.07378021
40	0xbcf0623c	-0.029343717
41	0x3da429f0	0.080158114
42	0x3e80b47a	0.25137693
43	0x3dbba44e	0.09162198
44	0xbdcdaf68	-0.10043222
45	0x3e1f3ec1	0.15551282
46	0x3c5a3a60	0.013319582
47	0x3db69ac2	0.089162365
48	0x3e4ecc15	0.20195039
49	0x3d5e1344	0.054217592
50	0xbd585527	-0.052815583
51	0x3dc87f32	0.097898856
52	0xbca4c510	-0.020113498
53	0xbdc8aa3b	-0.09798094
54	0x3e0a5f42	0.135129
55	0xbd60b7ac	-0.054862663
56	0xbcade88c	-0.021229051
57	0x3e8cb114	0.2747885
58	0xbda41c1e	-0.080131754
59	0xbd9de2a4	-0.07709244
60	0x3e3fc5d9	0.18727817
61	0x3dc142fc	0.094366044
62	0x3d21f24c	0.039537713
63	0x3e94737e	0.28994364
64	0xbd4d5982	-0.05013419
65	0x3d05e230	0.032686412
66	0x3e6fb8a3	0.23410277
67	0xbd32f7e5	-0.043693442
68	0xbd14c6e0	-0.036322474
69	0x3d88d9e2	0.06682183
70	0x3d3e2ca8	0.046429306
71	0xbd71fedd	-0.059080947
72	0x3e6c9cf5	0.2310675
73	0x3b58b5e0	0.003306739
74	0xbd800b04	-0.06252101
75	0x3e7b7060	0.24554586
76	0xbc8871e8	-0.016655877
77	0xbcc8c1a4	-0.024506398
78	0x3e821974	0.25410044
79	0x3cc61560	0.024180114
80	0xbc815de4	-0.01579184
81	0x3e995dd4	0.29954398
82	0x3c6a5ab0	0.014303848
83	0x3d92fbf2	0.07176961
84	0x3e65049c	0.2236504
85	0x3d90da80	0.070729256
86	0xbcdfe3ec	-0.027330361
87	0x3e0fbb98	0.14036405
88	0x3c9f92a0	0.019479096
89	0x3cf11658	0.0294296
90	0x3e902030	0.28149557
91	0xbd429ef1	-0.04751486
92	0xbc870a6c	-0.016484462
93	0x3e822924	0.25422013
94	0xb8f7b400	-0.000118114054
95	0x3ce98960	0.028507888
96	0x3e755f8e	0.23962232
97	0x3d57f89c	0.052727327
98	0xbca02488	-0.01954867
99	0x3e57792f	0.21042322
100	0xbd364581	-0.044499878
101	0xbd95d130	-0.0731529
102	0x3e4d2b63	0.20036082
103	0xbafc6700	-0.0019256771
104	0xbb68aa00	-0.0035501719
105	0x3ea50592	0.32230812
106	0xbc359a70	-0.011084184
107	0x3d674eb4	0.05647154
108	0x3e863d0d	0.26218453
109	0x3da0d9d4	0.078540474
110	0xbd265d6c	-0.040616438
111	0x3e017bfc	0.12644953
112	0x3ca45878	0.020061716
113	0x3c22cf80	0.009937167
114	0x3e636b1c	0.22208828
115	0x3dcde182	0.10052778
116	0x3d649b54	0.055812195
117	0x3e185029	0.14874329
118	0xbdc6d9df	-0.09709524
119	0xbdaafd28	-0.08349067
120	0x3e54c953	0.20779924
121	0xbd10f6a4	-0.035391465
122	0xbd2a09e2	-0.04151333
123	0x3e344783	0.17605405
124	0x3d28eb70	0.041240156
125	0xbced66c8	-0.028979674
126	0x3e20715c	0.15668243
127	0xbcf01eb8	-0.029311523
128	0x3c7fafc8	0.015605874
129	0x3eb0440c	0.34426916
130	0x3d0caf64	0.034346953
131	0xbdb08c86	-0.08620553
132	0x3e4e7bbd	0.2016439
133	0xbc7440c8	-0.014908023
134	0x3d15bcbc	0.036556944
135	0x3e37a582	0.1793423
136	0x3dad46e8	0.0846079
137	0x3db03a84	0.08604911
138	0x3e6ce5dd	0.23134561
139	0x3dc6e6ac	0.09711966
140	0x3db1e88e	0.086869344
141	0x3e2f9bf6	0.17149338
142	0x3d7054e8	0.058674723
143	0xbd68ab0c	-0.056803748
144	0x3ea00c0b	0.31259188
145	0x3d59ea20	0.053201795
146	0xbd92a8b7	-0.07161086
147	0x3e653c62	0.22386315
148	0x3dad5ec8	0.08465344
149	0x3d8471ba	0.06467004
150	0x3e31546d	0.17317362
151	0x3dcd493a	0.100237325
152	0x3dbc70a4	0.09201172
153	0x3e1e930e	0.15485784
154	0x3db2bc6c	0.08727345
155	0x3b8c2510	0.004276879
156	0x3e45c621	0.19313861
157	0xbb02f180	-0.001998037
158	0x3dc80c66	0.0976799
159	0x3e549846	0.20761213
160	0x3d854822	0.06507899
161	0x3c88d378	0.016702399
162	0x3e3482d7	0.17628036
163	0x3cc89f90	0.024490148
164	0x3da07492	0.07834734
165	0x3e4edf9c	0.20202488
166	0xbd8b9edc	-0.068174094
167	0x3dc62d48	0.096766055
168	0x3eae5ac4	0.34053624
169	0x3d8dbec4	0.06921151
170	0xbda9331b	-0.08261701
171	0x3e07fffe	0.13281247
172	0xbd2f1b0b	-0.0427504
173	0xbd667e7a	-0.05627296
174	0x3e38fdd7	0.18065582
175	0xbdbaa506	-0.09113507
176	0xbdccf60b	-0.100078665
177	0x3e6fcd97	0.2341827
178	0xbd85e93c	-0.065386266
179	0xbd884e2d	-0.06655536
180	0x3e129259	0.1431364
181	0xbd829a52	-0.063770905
182	0xbd36e97e	-0.04465627
183	0x3ea99c20	0.33126926
184	0xbd6d6aa1	-0.057963017
185	0x3ca8c524	0.020601816
186	0x3e8211a9	0.254041
187	0xbd3dbe54	-0.04632409
188	0x3d2dc114	0.04242046
189	0x3e19a68f	0.15004943
190	0xbc75c3d0	-0.015000299
191	0x3d886bcc	0.066611856
192	0x3eaf6a03	0.34260568
193	0x3d389198	0.045060724
194	0xbdc68353	-0.09693017
195	0x3e8f4cc9	0.2798827
196	0xbd890dcc	-0.06692085
197	0x3d59b948	0.053155214
198	0x3e4ece95	0.20195992
199	0x3db76076	0.08953945
200	0xbdcb7810	-0.099350095
201	0x3eb42362	0.35183245
202	0xbc7601b8	-0.015015058
203	0xbc6bb390	-0.014386073
204	0x3e6db4f4	0.2321356
205	0xbce694ac	-0.028147064
206	0xbbebe5d0	-0.0071990266
207	0x3e937197	0.287976
208	0x3dc9b708	0.098493636
209	0x3cb68ff0	0.022285432
210	0x3e338be6	0.17533836
211	0x3c6d45f0	0.014482006
212	0x3d1f2598	0.03885421
213	0x3e85cacc	0.26131284
214	0xbc4aef80	-0.012386203
215	0x3db36ea0	0.087613344
216	0x3e28360f	0.16426872
217	0x3d87d912	0.066332
218	0x3dc5cfba	0.09658761
219	0x3e9ee3d5	0.31033197
220	0xbda872ae	-0.082249984
221	0x3c1cbec8	0.00956697
222	0x3e6e1fc6	0.23254308
223	0x3d9b9dc6	0.07598452
224	0xbd481351	-0.048846547
225	0x3ea446e9	0.3208535
226	0x3c524370	0.012833461
227	0x3dce2c2e	0.1006702
228	0x3ea10269	0.3144715
229	0x3da91bfe	0.08257292
230	0x3d4b0fe4	0.0495757
231	0x3e715b91	0.23570086
232	0xbcc702b0	-0.024293274
233	0xbdbc0cfc	-0.09182164
234	0x3e824184	0.2544061
235	0x3d55e834	0.0522234
236	0xbd0bbee6	-0.0341176
237	0x3ea44ab1	0.32088235
238	0xbcf27948	-0.029598847
239	0xbdc03a98	-0.09386176
240	0x3e7dc2ea	0.24781385
241	0xbd259762	-0.040427573
242	0x3da80c0e	0.08205424
243	0x3e478e6d	0.19487925
244	0x3d3e5aa0	0.046473145
245	0x3d125984	0.0357299
246	0x3eb6df14	0.3571707
247	0xbd5585ef	-0.052129682
248	0xbcc04118	-0.02346854
249	0x3e8415ef	0.25797984
250	0x3dcfdd82	0.10149671
251	0xbdb579cd	-0.08861122
252	0x3e728907	0.23685084
253	0x3ce867a8	0.02836974
254	0x3d822342	0.06354381
255	0x3e3e3d8b	0.18578164

net.2.bias f4 [64]
0	0x3e2472a6	0.1605936
1	0x3de82e8c	0.11337003
2	0x3e5cafe4	0.21551472
3	0x3e7f60bd	0.24939246
4	0x3e6781c5	0.22608097
5	0xbd239f01	-0.03994656
6	0x3e727593	0.23677664
7	0xbdf255f6	-0.11832802
8	0x3e68de84	0.22741133
9	0x3e3efbe5	0.18650778
10	0x3e38b3e1	0.18037368
11	0xbdb6a01b	-0.089172564
12	0x3e6e1730	0.23251033
13	0x3e30e7d4	0.17275935
14	0x3e222324	0.15833718
15	0x3cd06bfe	0.02544212
16	0xbdab20d9	-0.083558746
17	0x3c731a31	0.0148377875
18	0x3e9075bf	0.28214833
19	0x3c873e23	0.016509121
20	0x3dd92efc	0.10604665
21	0x3e0a7357	0.13520561
22	0x3e60568f	0.2190802
23	0xbd569cfa	-0.0523958
24	0x3e411455	0.18855412
25	0x3decc335	0.1156067
26	0x3c4de0fa	0.012565846
27	0x3e83f79a	0.25774843
28	0xbd79f3bf	-0.06102347
29	0x3e528cd7	0.20561539
30	0xbd96383c	-0.073349446
31	0x3d2b6c92	0.041851588
32	0x3d5caefe	0.053877823
33	0xbce8d3a6	-0.028421234
34	0x3e75ebf1	0.24015786
35	0x3c6b68e6	0.014368271
36	0x3cf5a38b	0.02998521
37	0x3e81dd5e	0.25364202
38	0x3e1b7306	0.15180597
39	0x3e2dbcc6	0.16966543
40	0x3dd5f26f	0.10446631
41	0x3e856bdd	0.26058856
42	0x3d156840	0.036476374
43	0x3e1a96eb	0.15096633
44	0x3e66c0fb	0.22534554
45	0x3e80213c	0.25025356
46	0x3e2ec32b	0.17066638
47	0x3d7b40c8	0.061341077
48	0xbdb0c932	-0.08632125
49	0xbd71755d	-0.058949817
50	0x3e889852	0.2667871
51	0x3e156992	0.14591053
52	0xbdc96ab7	-0.09834807
53	0x3d1829fb	0.03714941
54	0x3e2b1aef	0.16709493
55	0xbd96eb89	-0.073691435
56	0x3e5dd078	0.21661556
57	0x3d13bf28	0.036070973
58	0x3ca063d3	0.01957885
59	0xbcc89ba0	-0.02448827
60	0x3e1d654e	0.15370676
61	0x3e5545b8	0.20827377
62	0x3cc0ef50	0.023551613
63	0x3b77b7ce	0.0037798765

fc.weight f4 [2, 64]
0	0x3dabd497	0.08390158
1	0x3e5515ad	0.2080905
2	0x3dbca2ec	0.092107624
3	0x3e2e0bec	0.16996735
4	0x3e57ce7a	0.21074858
5	0xbd0e3927	-0.034722473
6	0x3e2ad598	0.16683042
7	0xbd4bf1fd	-0.049791325
8	0x3e3c0112	0.18359783
9	0x3cf9541e	0.030435618
10	0x3dd46252	0.103703156
11	0x3ded38e7	0.11583119
12	0x3e6c908b	0.23102014
13	0x3e31380a	0.17306533
14	0x3d0f29e2	0.034952052
15	0x3c7e4eef	0.015521749
16	0xbcc8423c	-0.024445646
17	0xba965cee	-0.0011471787
18	0x3e34923f	0.17633913
19	0xbd823df2	-0.063594714
20	0x3e5ecfba	0.21758929
21	0x3da91194	0.08255306
22	0x3d170806	0.036872886
23	0x3d90232a	0.07037957
24	0x3dd85778	0.10563558
25	0xbd0547e5	-0.032539267
26	0x3d390bd9	0.045177314
27	0x3e2bf3bf	0.167922
28	0xbd9c9946	-0.07646422
29	0x3e14f0a5	0.14544924
30	0x3cffaf08	0.031211391
31	0xbd77dba4	-0.0605122
32	0x3d55a160	0.052155852
33	0x3da687ac	0.08131346
34	0x3df4ba51	0.119495995
35	0xbd0fc010	-0.035095274
36	0x3c80e379	0.015733467
37	0x3d73b45c	0.059498176
38	0x3e6a8c1e	0.22905013
39	0x3e157c2e	0.14598152
40	0x3e0fe813	0.14053373
41	0x3e3e36bb	0.18575566
42	0x3dbc560d	0.091961004
43	0x3d576f71	0.052596513
44	0x3e55355a	0.20821133
45	0x3d299ea1	0.041411046
46	0x3e537b54	0.20652515
47	0xbe0816df	-0.13289975
48	0x3d7f99b8	0.062402457
49	0xbc19184b	-0.009344171
50	0x3dd2eed9	0.10299463
51	0x3e7925cb	0.24330823
52	0xbd38de0c	-0.045133635
53	0x3da3ccfa	0.079980806
54	0x3ddbbb37	0.10729068
55	0xbdc5093f	-0.09620904
56	0x3e5f9387	0.21833621
57	0x3b2f8297	0.0026780718
58	0x3c01c58d	0.007920635
59	0x3d156f0c	0.036482856
60	0x3c3a3726	0.0113656875
61	0x3e80765f	0.2509031
62	0xbd8cf911	-0.06883443
63	0x3e058d42	0.13042167
64	0x3e63f21f	0.2226033
65	0x3e911e8e	0.28343624
66	0x3eaa512c	0.33265054
67	0x3ec22aab	0.37923178
68	0x3eac1235	0.3360764
69	0xbd3ab92f	-0.04558676
70	0x3ea63b0d	0.32466927
71	0x3cb535a0	0.022120297
72	0x3ebbd8bd	0.36688796
73	0x3e9c8725	0.30571857
74	0x3e2232bb	0.15839665
75	0xbdadcc69	-0.08486254
76	0x3eb01f4a	0.34398872
77	0x3e77bfc7	0.24194251
78	0x3eb15a2d	0.3463911
79	0xbdb112c0	-0.086461544
80	0x3bd47104	0.006483199
81	0xbc2681f1	-0.010162816
82	0x3e6f0d06	0.23344812
83	0xbd658350	-0.056033432
84	0x3eb84abc	0.35994518
85	0x3ec0499b	0.37556157
86	0x3eb884a5	0.360387
87	0xbd2ecca1	-0.042675618
88	0x3ea3b2a0	0.31972218
89	0x3e9fd933	0.31220397
90	0xbd044564	-0.03229274
91	0x3eb8a5f9	0.36064127
92	0xbd07fc76	-0.03319975
93	0x3e6fe108	0.23425686
94	0xbcf9ba67	-0.030484391
95	0xbcc2adf0	-0.02376458
96	0xbdbb7201	-0.09152604
97	0xbdb56f36	-0.088591024
98	0x3e496fb2	0.19671515
99	0xbd1b87f5	-0.037971456
100	0x3b157dc1	0.002281055
101	0x3ea272de	0.31728262
102	0x3ec71525	0.3888332
103	0x3e901e01	0.2814789
104	0x3e763311	0.24042918
105	0x3ebc8d8a	0.36826736
106	0xbdba1964	-0.09086874
107	0x3ea6ba82	0.3256417
108	0x3ec13f50	0.37743616
109	0x3ec4c85c	0.38434112
110	0x3e9b46b0	0.30327368
111	0x3df9068d	0.121594526
112	0xbd95e301	-0.07318688
113	0xbd292ec9	-0.041304383
114	0x3e901b91	0.28146031
115	0x3ea1c4da	0.31595498
116	0xbd5f885b	-0.054573398
117	0xbd5ec2ba	-0.054384924
118	0x3e865bfb	0.2624205
119	0xbd1dc150	-0.038514435
120	0x3e8cfbd0	0.27535868
121	0xbd89626d	-0.06708226
122	0xbd011e25	-0.03152289
123	0xbbd85961	-0.0066024517
124	0x3eae6873	0.34064063
125	0x3ec52271	0.3850284
126	0xbdabee13	-0.083950184
127	0xbd21bd15	-0.039486963

fc.bias f4 [2]
0	0xbc30c832	-0.010789918
1	0x3e327069	0.17425694
