models/h12_ep50_bs128.pth (torch, 38505 bytes, 6 tensors)

net.0.weight f4 [32, 13, 3]
-0.05383086 -0.15627393 -0.1465849 -0.19832623 0.013242289 -0.15571654 -0.07600665 -0.028298065
0.14066517 0.010107841 0.14329317 -0.08261815 -0.04876319 -0.07244558 0.10283157 0.5783176
-0.07949626 -0.029158548 0.026662314 -0.15998265 0.08510141 1.5117745 0.111302465 -0.093004666
-0.03406854 -0.016571656 0.07605024 -0.50780225 0.1289148 -0.12849091 -0.058311448 -0.12508453
-0.156753 0.26575354 -0.044344626 0.1373539 0.40615502 -0.09538538 -0.007514134 -0.053434666
-0.0861699 -0.15062055 -0.3943461 -0.019826949 0.072969064 0.17784697 0.043935016 0.09341329
0.16741492 -0.07541745 0.10964131 0.14688101 -0.10689636 -0.0518208 -0.3706837 0.15038493
-0.034496814 0.124369025 -0.087352775 -0.08905662 0.9132294 0.066314176 -0.15888646 -0.14631788
-0.15736231 0.11137408 -0.62004125 -0.028110534 0.005979806 0.5347661 0.09621236 0.09281969
0.0050994386 -0.009043619 0.054912493 0.11612371 0.0037238002 -0.05394347 -0.043821327 0.13553095
0.12254536 -0.3098232 -0.02840969 -0.08088458 0.13162361 -0.042407922 0.06984796 0.1831325
0.1222581 -0.12417732 0.25582293 0.02422063 0.04674214 -0.26397362 -0.08107112 -0.09404373
0.32307765 -0.09418181 0.08281569 0.78522515 -0.08474315 0.038138032 -0.06442251 -0.086679704
-0.008407518 -0.37065443 -0.040937416 -0.01057595 0.7820555 -0.13523938 0.08168411 -0.3887782
-0.046393827 0.08464803 0.24077865 -0.08348157 0.099351674 -0.15024199 0.0761905 -0.14005837
-0.37835395 0.005961418 0.15138325 0.06758444 0.06271842 -0.0060703456 0.12678377 -0.01126042
-0.05353585 0.27346084 0.007850558 0.03510523 0.11409184 0.14807966 -0.082558975 0.1611819
0.11105579 0.07690637 1.2513652 0.06681527 -0.06388339 0.11866805 0.01741834 0.09540346
-0.48654643 0.09033626 0.037928835 -0.23843178 -0.059332795 -0.08828284 -0.08059785 0.05703047
0.14745519 0.30897942 0.14799786 0.059715927 0.09954021 -0.053716406 0.088377476 -0.32040286
-0.123612165 0.068682835 0.21034145 -0.04572908 -0.0844351 0.13656321 -0.039605193 -0.058635235
0.46022227 -0.13483575 0.09589508 0.14508803 0.008947596 -0.007811293 -0.8748453 -0.05352155
-0.109614775 -1.1289045 0.028268918 -0.055542648 -0.045596123 0.15866831 -0.010679841 -0.65623814
-0.0028948933 0.07128602 0.09097053 0.121002436 0.13853326 -0.061181407 -0.0512534 -0.06335816
-0.16425139 0.09502274 0.042049468 0.15959051 0.079138204 -0.1322791 0.049018726 0.12040356
0.13622615 -0.48698878 0.12051126 0.0907 0.31851804 0.15508872 0.048162535 0.19956952
-0.0616941 0.104023576 -0.06720645 -0.047569767 -0.05731044 -0.26124486 -0.03842081 -0.09647888
0.66717136 0.046470776 -0.15404175 -0.15706152 -0.028104573 0.034326285 0.465456 -0.06363302
-0.112385795 0.16275261 -0.10283284 0.12790999 -0.03575544 0.15839162 0.13453794 0.41778976
0.010762766 -0.1305054 0.057930853 -0.123532444 -0.087649204 -0.1778868 -0.019885302 -0.07908417
-0.21373081 -0.015229493 -0.02987665 -0.19324307 0.13996693 -0.056170344 -0.189984 -0.016404897
0.1488575 -0.04652066 -0.097070135 -0.07637802 -0.10943511 -0.06801338 -0.10048481 1.4972168
00000000: bf7d 5cbd 4606 20be 5a1a 16be 0816 4bbe
00000010: 30f6 583c 2874 1fbe 60a9 9bbd 58d1 e7bc
00000020: 880a 103e 5c9b 253c 72bb 123e b433 a9bd
00000030: e9bb 47bd 595e 94bd 5c99 d23d 9f0c 143f
00000040: efce a2bd e8dd eebc ed6a da3c 7ed2 23be
00000050: a649 ae3d d481 c13f 8cf2 e33d 3b79 bebd
00000060: 748b 0bbd 48c1 87bc 3ac0 9b3d 54ff 01bf
00000070: 3e02 043e 1f93 03be fcd7 6ebd 2916 00be
00000080: dc83 20be d910 883e b6a2 35bd 80a6 0c3e
00000090: 8df3 cf3e 6959 c3bd 2039 f6bb 4fde 5abd
000000a0: d879 b0bd 463c 1abe bbe7 c9be 206c a2bc
000000b0: ce70 953d 841d 363e 34f5 333d 784f bf3d
000000c0: d16e 2b3e 7774 9abd a08b e03d fa67 163e
000000d0: 7bec dabd 0c42 54bd 41ca bdbe 82fe 193e
000000e0: 884c 0dbd 30b5 fe3d 03e6 b2bd 5163 b6bd
000000f0: 67c9 693f bacf 873d 22b3 22be 5bd4 15be
00000100: 9623 21be 1818 e43d 06bb 1ebf 1048 e6bc
00000110: 40f2 c33b 6ee6 083f fc0a c53d 4018 be3d
00000120: 3119 a73b b02b 14bc eceb 603d 45d2 ed3d
00000130: 000b 743b d4f3 5cbd fe7d 33bd a0c8 0a3e
00000140: 10f9 fa3d 25a1 9ebe 70bb e8bc d1a6 a5bd
00000150: 57c8 063e eeb3 2dbd 720c 8f3d 1687 3b3e
00000160: 7462 fa3d ae50 febd 39fb 823e 586a c63c
00000170: b074 3f3d 8d27 87be 9e08 a6bd 009a c0bd
00000180: 6f6a a53e 65e2 c0bd 469b a93d 8404 493f
00000190: d18d adbd a036 1c3d f3ef 83bd 2185 b1bd
000001a0: b0bf 09bc 6bc6 bdbe fead 27bd c046 2dbc
000001b0: ca34 483f 317c 0abe 004a a73d f00d c7be
000001c0: 7407 3ebd f25b ad3d ae8e 763e 63f8 aabd
000001d0: e478 cb3d 09d9 19be c409 9c3d 766b 0fbe
000001e0: 9cb7 c1be 0058 c33b 3604 1b3e b669 8a3d
000001f0: 8472 803d c0e9 c6bb 9bd3 013e a07d 38bc
00000200: 6848 5bbd 0f03 8c3e a09f 003c 80ca 0f3d
00000210: fca8 e93d 32a2 173e ae14 a9bd de0c 253e
00000220: 3871 e33d 1681 9d3d bc2c a03f 72d6 883d
00000230: 4bd5 82bd 3c08 f33d e8b0 8e3c e462 c33d
00000240: 9d1c f9be 3802 b93d 445b 1b3d 7627 74be
00000250: f206 73bd a2cd b4bd 7c10 a5bd c898 693d
00000260: 7efe 163e 8d32 9e3e c08c 173e b098 743d
00000270: bddb cb3d bc05 5cbd 40ff b43d d80b a4be
00000280: 6028 fdbd 96a9 8c3d c063 573e 6a4e 3bbd
00000290: 4fec acbd 3ad7 0b3e 0e39 22bd 802b 70bd
000002a0: 41a2 eb3e 6212 0abe a464 c43d f591 143e
000002b0: f098 123c e0f5 ffbb ddf5 5fbf 6a39 5bbd
000002c0: b67d e0bd f17f 90bf 3894 e73c b080 63bd
000002d0: 00c3 3abd f279 223e 80fa 2ebc 39ff 27bf
000002e0: 40b8 3dbb 68fe 913d c24e ba3d 20d0 f73d
000002f0: aadb 0d3e 5b99 7abd 16ef 51bd ecc1 81bd
00000300: 8431 28be 489b c23d 103c 2c3d b26b 233e
00000310: 3613 a23d 2c74 07be dcc7 483d 2496 f63d
00000320: de7e 0b3e 9856 f9be 9cce f63d ecc0 b93d
00000330: cc14 a33e 94cf 1e3e 1446 453d f45b 4c3e
00000340: f4b2 7cbd 500a d53d 89a3 89bd 84d8 42bd
00000350: 5abe 6abd e3c1 85be 245f 1dbd b896 c5bd
00000360: becb 2a3f 2458 3e3d 1fbd 1dbe bcd4 20be
00000370: 903b e6bc b899 0c3d 4050 ee3e 0752 82bd
00000380: 862a e6bd 9fa8 263e 069a d2bd d6fa 023e
00000390: 4c74 12bd 6a31 223e 50c4 093e 8ae8 d53e
000003a0: 5056 303c 35a3 05be e748 6d3d 94fe fcbd
000003b0: 6d81 b3bd f527 36be 80e6 a2bc e2f6 a1bd
000003c0: 40dc 5abe 2085 79bc e0bf f4bc 83e1 45be
000003d0: 7e53 0f3e e012 66bd 2a8b 42be 9063 86bc
000003e0: 1a6e 183e 738c 3ebd b5cc c6bd 146c 9cbd
000003f0: 841f e0bd 994a 8bbd fbca cdbd cda4 bf3f

net.0.bias f4 [32]
1.254898 1.2704977 1.079111 1.1920776 1.0660452 1.1686201 1.0790575 1.3684006
1.2213957 1.1954488 1.0404023 1.2610817 1.1152563 1.2721866 1.0838572 1.1164678
1.276622 1.0602133 1.370157 1.3725413 1.355627 1.0997738 1.1044223 1.1539791
1.1552325 1.2246253 1.0610199 1.201684 1.2664125 1.1429482 1.0820742 1.1629354
00000000: 7fa0 a03f ab9f a23f 4f20 8a3f 0096 983f
00000010: 2b74 883f 5895 953f 8e1e 8a3f c027 af3f
00000020: b256 9c3f 7704 993f e72b 853f 206b a13f
00000030: b8c0 8e3f 03d7 a23f d5bb 8a3f 6be8 8e3f
00000040: 5a68 a33f 12b5 873f 4e61 af3f 6faf af3f
00000050: 2f85 ad3f 63c5 8c3f b65d 8d3f 96b5 933f
00000060: a9de 933f 86c0 9c3f 80cf 873f c8d0 993f
00000070: ce19 a23f 204c 923f 6881 8a3f 11db 943f

net.2.weight f4 [64, 32, 3]
0.7989693 -0.09418968 -0.018287972 0.65335226 0.020091727 0.03648694 0.6104683 0.040678293
-0.004647456 0.6442205 0.031844184 0.0802138 0.7133176 0.0781831 -0.053670663 0.69525343
0.07327314 -0.020223506 0.6164798 0.05952649 0.008145988 0.64121324 -0.0029503033 0.0302656
0.70148104 0.033530787 0.0025141835 0.622158 -0.09613963 0.07058516 0.77896994 0.096582204
-0.009399399 0.7137832 0.0962531 0.07994403 0.6090764 -0.065685995 -0.018409178 0.60214204
-0.07422675 0.0039209276 0.54240763 0.03444472 0.09697558 0.7411765 -0.08989551 -0.09000786
0.6696511 0.07226464 -0.0053189844 0.7405315 -0.0013374388 0.09818089 0.6585005 0.08275586
0.038888797 0.7704292 0.026596576 0.043526947 0.63831353 -0.022473477 -0.045369983 0.6696674
0.050486505 -0.06594515 0.79241526 0.04498659 -0.013719358 0.72921306 -0.030939177 -0.007926732
0.600588 -0.019551754 0.09200615 0.7115452 -0.011417784 -0.07174696 0.73323 0.083728254
-0.051225804 0.62522525 0.0030202493 0.003790535 0.6008304 0.08867231 -0.07067865 0.678729
0.05229415 -0.050519206 0.86759263 0.04902254 0.062296942 0.6570545 -0.07722679 0.083213896
0.6747407 0.07136169 -0.08472824 0.4829709 0.050262034 -0.052605074 0.52098006 -0.025192909
0.060498625 0.670555 -0.017149642 -0.053369742 0.71646434 0.08482298 0.0038955584 0.6375339
-0.030267999 0.014629446 0.68273056 0.02572696 0.059367448 0.78240347 0.02209057 0.016627565
0.6901824 0.049921826 0.018055238 0.5864327 0.08064631 -0.0867499 0.634672 0.046389073
-0.03767725 0.67149633 -0.030750006 0.046398297 0.65953976 -0.03184233 0.043128848 0.57897407
0.018716715 0.009452917 0.64448047 -0.033424236 0.08012323 0.61404496 0.060540512 -0.060059898
0.53244627 -0.027546197 0.07990061 0.7225353 0.10099839 -0.050732028 0.7339098 0.08182451
0.101000845 0.7053671 0.0685426 -0.009105571 0.60747993 0.031815544 -0.032804996 0.5906807
-0.08693624 0.017800659 0.70711404 0.050615057 -0.058769625 0.70317286 0.045846775 0.0127865
0.67189956 -0.046316255 -0.09220091 0.6142366 0.06509222 -0.09173401 0.73163915 0.08687514
0.04505621 0.62662005 -0.0716304 -0.0049285665 0.64446807 0.061293706 -0.06806187 0.676579
0.038391247 0.06885329 0.7158964 -0.09541729 -0.07946598 0.76349163 -0.009875886 -0.064058945
0.8071054 0.043996423 -0.026310459 0.65902185 -0.034565367 -0.015379146 0.60922164 -0.03444483
0.01970113 0.6852141 0.024061963 0.05656144 0.7341425 0.07390939 0.083531916 0.5765299
0.06602357 0.017465718 0.7167126 -0.06663047 0.037921324 0.61483186 -0.04999746 0.0944542
0.64237803 -0.04021014 0.054822326 0.69932264 0.084769756 0.1017884 0.753739 -0.04967322
0.0038955584 0.5437092 0.047129527 -0.0025812835 0.4830823 -0.08593791 0.00056630373 0.6000423
0.10205646 0.06133549 0.6958189 -0.049475726 -0.028869554 0.6347249 0.039001375 -0.09483858
0.5142632 -0.070581496 0.010553598 0.72920656 0.0091806725 0.012769587 0.7098038 -0.087602004
0.045134515 0.7485368 -0.023708634 -0.08881275 0.7382722 -0.019214034 0.026841238 0.7237129
00000000: 4189 4c3f 85e6 c0bd a8d0 95bc 1842 273f
00000010: 6897 a43c 5473 153d a747 1c3f 489e 263d
00000020: b049 98bb a2eb 243f 0c6f 023d 2247 a43d
00000030: fb9b 363f 761e a03d c5d5 5bbd 21fc 313f
00000040: 3a10 963d c4ab a5bc 9fd1 1d3f 0cd2 733d
00000050: c076 053c 8d26 243f e059 41bb 90ef f73c
00000060: 4394 333f 9457 093d 00c5 243b bf45 1f3f
00000070: dbe4 c4bd f48e 903d 936a 473f e4cc c53d
00000080: f0ff 19bc 7fba 363f 5820 c53d b2b9 a33d
00000090: 6eec 1b3f 6186 86bd d8ce 96bc fb25 1a3f
000000a0: 3204 98bd 207b 803b 3adb 0a3f e815 0d3d
000000b0: 229b c63d bebd 3d3f 231b b8bd 0a56 b8bd
000000c0: 416e 2b3f 7cff 933d e04a aebb 7993 3d3f
000000d0: 004d afba 1013 c93d 7d93 283f e87b a93d
000000e0: dc49 1f3d d93a 453f 10e1 d93c 5049 323d
000000f0: 8468 233f 4c1a b8bc e0d5 39bd 536f 2b3f
00000100: f0ca 4e3d 400e 87bd badb 4a3f dc43 383d
00000110: 28c7 60bc b5ad 3a3f 2874 fdbc 20df 01bc
00000120: 23c0 193f 002b a0bc b86d bc3d d427 363f
00000130: a811 3bbc 12f0 92bd f6b4 3b3f b879 ab3d
00000140: 26d2 51bd c30e 203f 60ef 453b a06a 783b
00000150: 05d0 193f d499 b53d f8bf 90bd 2fc1 2d3f
00000160: 6432 563d 3aed 4ebd 8d1a 5e3f dccb 483d
00000170: 142b 7f3d b934 283f 1429 9ebd 0c6c aa3d
00000180: cebb 2c3f 1426 923d 0086 adbd f647 f73e
00000190: 90df 4d3d 6b78 57bd f35e 053f 5c61 cebc
000001a0: 68cd 773d 7ea9 2b3f 687d 8cbc 3b9a 5abd
000001b0: 356a 373f acb7 ad3d a04c 7f3b 6c35 233f
000001c0: 98f4 f7bc 58b0 6f3c 6ec7 2e3f 58c1 d23c
000001d0: 482b 733d 984b 483f 48f7 b43c 8836 883c
000001e0: cbaf 303f d47a 4c3d 94e8 933c 7420 163f
000001f0: e429 a53d eea9 b1bd dd79 223f 7802 3e3d
00000200: 7653 1abd 2fe7 2b3f 70e7 fbbc 240c 3e3d
00000210: 99d7 283f 1a6d 02bd e0a7 303d a537 143f
00000220: cc53 993c 68e0 1a3c acfc 243f dae7 08bd
00000230: a617 a43d 0d32 1d3f 54f9 773d 5e01 76bd
00000240: 664e 083f 90a8 e1bc eea2 a33d 13f8 383f
00000250: 3ed8 ce3d 63cc 4fbd 83e1 3b3f 9c93 a73d
00000260: 88d9 ce3d f092 343f 1060 8c3d 882f 15bc
00000270: ce83 1b3f 0451 023d 885e 06bd da36 173f
00000280: a10b b2bd b0d2 913c 6d05 353f bc51 4f3d
00000290: 6bb8 70bd 2303 343f d4c9 3b3d 787e 513c
000002a0: 9c01 2c3f 1db6 3dbd d5d3 bcbd 9c3e 1d3f
000002b0: 124f 853d 0adf bbbd b44c 3b3f 98eb b13d
000002c0: dc8c 383d 2c6a 203f f6b2 92bd d07f a1bb
000002d0: dcfb 243f 1c0f 7b3d 0664 8bbd 4834 2d3f
000002e0: 2440 1d3d f402 8d3d fd44 373f 246a c3bd
000002f0: 0fbf a2bd 3074 433f 78ce 21bc 5631 83bd
00000300: 769e 4e3f 9835 343d 0889 d7bc a8b5 283f
00000310: 6a94 0dbd d0f8 7bbc f3f5 1b3f 0616 0dbd
00000320: 4464 a13c 316a 2f3f 981d c53c f8ac 673d
00000330: c3f0 3b3f ce5d 973d c812 ab3d 7797 133f
00000340: 5e37 873d 4414 8f3c 7a7a 373f 8e75 88bd
00000350: 6453 1b3d 9f65 1d3f 23ca 4cbd 3471 c13d
00000360: e372 243f 63b3 24bd 608d 603d cf06 333f
00000370: c49b ad3d 7076 d03d 0af5 403f 2576 4bbd
00000380: a04c 7f3b 8730 0b3f e40a 413d c02a 29bb
00000390: 9056 f73e 3700 b0bd 0074 143a 5f9c 193f
000003a0: fa02 d13d ec3a 7b3d 3021 323f 0fa7 4abd
000003b0: d87f ecbc 557d 223f e8bf 1f3d bb3a c2bd
000003c0: c1a6 033f 088d 90bd 00e9 2c3c 48ad 3a3f
000003d0: 886a 163c 8837 513c b4b5 353f ae68 b3bd
000003e0: f8de 383d 1ca0 3f3f 9c38 c2bc 76e3 b5bd
000003f0: 68ff 3c3f c066 9dbc 28e2 db3c 4045 393f

net.2.bias f4 [64]
0.6422237 0.6793073 0.6300239 0.87026685 0.74928087 0.8269524 -0.0015732375 -0.03907273
-0.021163106 0.6619909 0.7075495 -1.7813596 0.72619873 0.8310651 0.0045775087 0.61852264
0.74004567 0.7150369 0.653942 0.80573523 0.6589697 0.8213991 0.71581733 0.6358962
-0.09354066 0.6435032 0.8553453 -0.07700877 7.544239e-05 0.75853556 -0.109622836 0.86086756
0.7181458 0.82747495 -0.11531232 0.83384943 0.851459 -0.0562644 0.71742815 0.76866746
-0.06078953 0.74396586 0.71047485 0.74122274 -0.11424895 -0.009879605 -1.8062344 0.6602217
-0.08196938 0.76574826 0.82112664 -0.023704726 0.046463158 0.06166545 0.7044066 -0.03929305
-0.098124936 0.827557 0.8390563 0.84127396 0.7155583 1.9436953 0.7390848 0.77911437
00000000: c668 243f 15e7 2d3f 3f49 213f cfc9 5e3f
00000010: dfd0 3f3f 27b3 533f 1735 ceba ba0a 20bd
00000020: 405e adbc 3c78 293f f721 353f 9703 e4bf
00000030: 29e8 393f afc0 543f edfe 953b 8057 1e3f
00000040: a273 3d3f a90c 373f be68 273f aa44 4e3f
00000050: 3db2 283f 3647 523f ce3f 373f 18ca 223f
00000060: 3f92 bfbd a0bc 243f e9f7 5a3f c6b6 9dbd
00000070: d336 9e38 632f 423f f081 e0bd d161 5c3f
00000080: 67d8 373f 66d5 533f de28 ecbd 2877 553f
00000090: 38f9 593f 8075 66bd 5fa9 373f 64c7 443f
000000a0: 71fe 78bd 8c74 3e3f aee1 353f c6c0 3d3f
000000b0: 5afb e9bd 11de 21bc b032 e7bf 4a04 293f
000000c0: 90df a7bd 1408 443f 5b35 523f 6a30 c2bc
000000d0: 2750 3e3d e994 7c3d fe53 343f c0f1 20bd
000000e0: baf5 c8bd c7da 533f 65cc 563f bb5d 573f
000000f0: d42e 373f 02cb f83f a934 3d3f 0a74 473f

fc.weight f4 [13, 64]
-0.09035407 0.060654346 -0.01248025 0.20463435 0.013894877 -0.008031956 0.06179717 -0.08288053
0.091911115 0.10710864 -0.0013520856 -0.08673253 -0.038183838 0.08700111 -0.02069045 0.043536842
0.13059421 0.105754286 0.14765991 0.11321013 -0.06842877 -0.032949653 0.017427636 0.16095947
-0.038098086 0.10794155 -0.12075105 0.12483729 -0.059635114 0.13063991 -0.025562234 -0.012203127
-0.05482545 -0.017682185 0.040907625 0.0066322116 -0.13108878 0.13093606 0.1031017 0.01889161
0.10892502 0.036541846 0.03761979 0.17966662 -0.04903841 0.10136521 -0.09407999 -0.08693311
-0.052577488 0.052603222 -0.028796546 0.14201325 -0.0682412 0.108792886 0.058234353 0.07458873
0.101302564 -0.22722884 0.084722966 -0.052823897 -0.10407009 0.025709387 -0.064557485 -0.07264677
-0.06923257 0.09096973 0.0047236946 0.055632636 0.20253743 0.048067402 0.04933963 -0.018443812
0.113900624 0.066855095 -0.019322705 -0.12110554 -0.1869907 0.013400522 -0.031521168 0.097462974
0.14617454 0.010254413 0.051697094 0.12978068 -0.058217853 0.14660199 0.04922594 0.1464795
-0.07214735 0.015112404 -0.20320669 -0.03415217 -0.034183208 -0.073090374 -0.05694156 -0.041987557
0.0154948775 -0.0632217 -0.06140104 -0.09280958 -0.0035765914 0.10838917 -0.07575847 0.1309571
0.05678667 0.032956984 0.0774325 0.07436306 0.116002776 0.023536269 -0.1775001 -0.015222567
-0.014523637 0.11716723 -0.04936056 -0.069005184 0.008660276 0.06038225 0.16717622 -0.0665022
0.026712308 -0.100801885 -0.009426426 -0.064428866 0.05677948 0.13398395 0.12660357 -0.09839789
0.09576974 0.07312012 0.18620045 -0.0075509925 0.06645221 -0.16686158 0.041343555 0.09042122
-0.039227746 -0.02320398 -0.022489253 -0.5096978 -0.11076396 0.0115122385 -0.09235889 0.17640395
0.07113003 -0.08318285 0.029258868 0.015965238 -0.004201921 0.10550246 0.1362636 0.18666348
-0.061595306 0.14598504 -0.2513064 0.05891346 -0.02306086 -0.03483773 -0.0458726 0.019017152
0.13247098 0.03779543 0.1313583 0.17985563 -0.19943982 0.048583575 0.10643275 0.1633807
-0.026190452 0.12228575 0.0429869 0.07461191 -0.058801126 0.07818527 -0.1689964 0.17898491
0.049074344 0.15934813 -0.045135103 0.10865135 0.13971029 0.036919102 0.07871346 -0.0051127775
-0.016753329 0.0776511 0.09885898 0.15351911 0.14747585 -0.12663348 0.16549864 0.20553748
-0.023092512 0.007903928 0.1321206 -0.10929251 0.15984574 0.012523546 0.032205906 0.04252934
0.100169174 -0.020356886 -0.13930397 -0.31910527 -0.17293929 0.05914663 0.097246125 -0.06380571
-0.060248688 -0.00583702 0.0031661512 0.13347659 0.08161412 -0.045728978 -0.08411458 0.06328118
-0.046684634 0.09900127 -0.13719939 0.04308571 0.06543932 -0.0120701 0.105387606 -0.023672424
0.026708184 0.07401844 0.06574693 0.017204069 -0.058196705 0.13405675 0.12156172 0.046233255
0.04100034 0.0005498519 0.1580002 -0.04497422 0.11165035 -0.1009552 0.44276887 -0.04119734
-0.07233994 0.12892886 -0.017638516 -0.02994734 0.01814999 0.11919249 0.07243516 0.082065664
-0.065615 -0.14443928 0.24975584 -0.0040046317 0.12085533 -0.13327503 -0.009349989 -0.03288221
00000000: 8e0b b9bd b170 783d f679 4cbc ab8b 513e
00000010: 57a7 633c 7798 03bc 081f 7d3d 44bd a9bd
00000020: e53b bc3d c65b db3d 7738 b1ba d3a0 b1bd
00000030: a866 1cbd a32d b23d 057f a9bc b053 323d
00000040: 7dba 053e b495 d83d 2934 173e b6da e73d
00000050: 6224 8cbd 37f6 06bd 67c4 8e3c 8fd2 243e
00000060: bd0c 1cbd 7610 dd3d 544c f7bd b1aa ff3d
00000070: f343 74bd 78c6 053e e467 d1bc a0ef 47bc
00000080: a790 60bd 3bda 90bc c18e 273d 0653 d93b
00000090: 233c 06be 1a14 063e fc26 d33d 94c2 9a3c
000000a0: 1514 df3d e7ac 153d 3517 1a3d 87fa 373e
000000b0: 80dc 48bd 9098 cf3d 03ad c0bd fd09 b2bd
000000c0: 7e5b 57bd 7a76 573d bce6 ebbc ec6b 113e
000000d0: 0bc2 8bbd cece de3d 2587 6e3d fac1 983d
000000e0: b877 cf3d adae 68be 3c83 ad3d df5d 58bd
000000f0: b322 d5bd 7e9c d23c b736 84bd d4c7 94bd
00000100: cec9 8dbd 564e ba3d 39c9 9a3b 0cdf 633d
00000110: f965 4f3e 53e2 443d 5a18 4a3d 7a17 97bc
00000120: bb44 e93d 53eb 883d a64a 9ebc 2e06 f8bd
00000130: 7d7a 3fbe dd8d 5b3c 571c 01bd ab9a c73d
00000140: c7ae 153e 2002 283c 55c0 533d 3ae5 043e
00000150: d875 6ebd d51e 163e 24a1 493d b9fe 153e
00000160: fdc1 93bd 049a 773c 6a15 50be 25e3 0bbd
00000170: b103 0cbd 68b0 95bd 8e3b 69bd 25fb 2bbd
00000180: 3ade 7d3c 617a 81bd a87f 7bbd f312 bebd
00000190: 3f65 6abb 24fb dd3d 4227 9bbd 9e19 063e
000001a0: 2499 683d e7fd 063d ee94 9e3d a94b 983d
000001b0: dd92 ed3d 22cf c03c 96c2 35be 1368 79bc
000001c0: 8cf4 6dbc 5ff5 ef3d 4c2e 4abd 9752 8dbd
000001d0: d5e3 0d3c 6153 773d 3e30 2b3e 4e32 88bd
000001e0: c5d3 da3c 3871 cebd 4c71 1abc 48f3 83bd
000001f0: 9a91 683d 1733 093e 5ea4 013e d584 c9bd
00000200: ed22 c43d 00c0 953d 55ab 3e3e 516e f7bb
00000210: 1918 883d c3dd 2abe dc57 293d c32e b93d
00000220: 46ad 20bd 4616 bebc 623b b8bc 8e7b 02bf
00000230: 37d8 e2bd d49d 3c3c a826 bdbd 3da3 343e
00000240: 9fac 913d c55b aabd 4bb0 ef3c 88c9 823c
00000250: 45b0 89bb ac11 d83d af88 0b3e b624 3f3e
00000260: 5c4b 7cbd 1a7d 153e 3cab 80be 3d4f 713d
00000270: 21ea bcbc 02b2 0ebd e8e4 3bbd dcc9 9b3c
00000280: 79a6 073e 61cf 1a3d ca82 063e 132c 383e
00000290: f439 4cbe 92ff 463d 6af9 d93d 454d 273e
000002a0: 5c8d d6bc f470 fa3d 0813 303d 21ce 983d
000002b0: 73d9 70bd 991f a03d 640d 2dbe d247 373e
000002c0: 2e02 493d 282c 233e 96df 38bd 9984 de3d
000002d0: 3710 0f3e 7c38 173d 8634 a13d 1689 a7bb
000002e0: 473e 89bc 8a07 9f3d 9476 ca3d 1d34 1d3e
000002f0: e903 173e 35ac 01be 7a78 293e 6b78 523e
00000300: 822c bdbc 7a7f 013c 9f4a 073e c0d4 dfbd
00000310: 9aae 233e 8f2f 4d3c 57ea 033d 3f33 2e3d
00000320: 7f25 cd3d 7cc3 a6bc b3a5 0ebe c461 a3be
00000330: ff16 31be bd43 723d fa28 c73d 91ac 82bd
00000340: 54c7 76bd 7944 bfbb 347f 4f3b 16ae 083e
00000350: 4e25 a73d 4f4e 3bbd 4444 acbd 9099 813d
00000360: 6338 3fbd 2ec1 ca3d ff7d 0cbe a47a 303d
00000370: 0d05 863d abc1 45bc 75d5 d73d acec c1bc
00000380: 1fcb da3c fb96 973d 54a6 863d 8cef 8c3c
00000390: ab5f 6ebd 2c46 093e 5af5 f83d 155f 3d3d
000003a0: f9ef 273d f023 103a ceca 213e e336 38bd
000003b0: f0a8 e43d 9ac1 cebd 9ab2 e23e 8bbe 28bd
000003c0: f626 94bd ed05 043e a67e 90bc 2054 f5bc
000003d0: 4aaf 943c 311b f43d e358 943d 0b12 a83d
000003e0: 2861 86bd e4e7 13be ffbf 7f3e 4939 83bb
000003f0: 0083 f73d 4079 08be b230 19bc 7faf 06bd

fc.bias f4 [13]
0.33168533 0.23252867 0.28056258 0.18506102 0.353958 0.55445915 0.059632245 0.4021507
0.020551635 0.1709853 0.31553492 0.3623628 0.3978491
00000000: a9d2 a93e ff1b 6e3e e6a5 8f3e a380 3d3e
00000010: fc39 b53e 09f1 0d3f f140 743d b2e6 cd3e
00000020: e75b a83c c516 2f3e cb8d a13e 9e87 b93e
00000030: e1b2 cb3e
