models/h12_ep50_bs64.pth (torch, 36061 bytes, 6 tensors)

net.0.weight f4 [32, 15, 3]
000000 e4 1a 66 3d 72 88 e7 3d a0 c1 29 bd a7 c7 30 bc
       0.05617799 0.11305322 -0.04144442 -0.010789788
000010 35 62 b5 bd 08 9e cd 3d bc 87 11 3d a0 d8 3a 3c
       -0.08856622 0.10039908 0.035529837 0.0114041865
000020 c5 b6 06 3e 1c 6a 0c bd 5c 59 21 3d 98 ec 70 3d
       0.13155659 -0.03428088 0.03939186 0.058819383
000030 f5 50 89 3e d3 46 12 be c0 ae 6e 3d 21 d6 45 be
       0.26819578 -0.1428483 0.058272123 -0.19319965
000040 e8 3c 32 bd 5a b8 9c 3d a8 9a 6c 3e 64 23 6c bd
       -0.043515116 0.0765235 0.23105872 -0.05765094
000050 ec 14 fa bd f1 a4 f7 be 60 c1 97 bc 51 a1 07 3e
       -0.12211022 -0.48368028 -0.018524826 0.13245131
000060 e2 22 d6 3d aa 24 a9 3d d2 d8 05 bd f4 43 b3 bd
       0.10455872 0.08258946 -0.03267748 -0.087531954
000070 a7 42 05 3e 75 68 c3 bd 50 f4 90 3e e0 ac 91 bc
       0.13013707 -0.09541408 0.28311396 -0.017782629
000080 28 ff 42 3d 77 77 f5 3d ee c7 90 3d 08 07 03 bd
       0.047606617 0.11985677 0.070693836 -0.031989127
000090 fa 8c e1 3e 4c d9 be 3d f8 cd 24 3d 08 09 ae bd
       0.4405287 0.0931879 0.04023549 -0.08497816
0000a0 55 fd f0 bd 02 b2 5b bd 0b 21 91 3c 5d 21 17 3e
       -0.11767069 -0.05363656 0.017715951 0.14758821
0000b0 bb 44 0e 3e a7 bc 9a bd 40 75 26 bc 2b 9d 01 3e
       0.13893406 -0.07555514 -0.0101597905 0.12657611
0000c0 4e e0 36 3d 40 0a 36 3b 32 1d 25 bd 33 5d 8a 3e
       0.044647507 0.0027777106 -0.040311046 0.2702423
0000d0 6a e9 b8 3d 30 c2 a1 bc ca df 5e 3e 50 3d fc bd
       0.09028895 -0.019745916 0.21765056 -0.12316382
0000e0 00 87 0c 3c f5 38 93 bc 62 14 fa 3d 10 72 6a 3c
       0.008577108 -0.017971495 0.12210919 0.014309421
0000f0 61 72 68 3e d8 36 76 3d 44 67 e0 bc 51 70 a8 be
       0.22699882 0.060110897 -0.02739299 -0.3289819
000100 70 ee 5c bd b0 25 85 bd 27 b8 09 3e f4 83 86 3d
       -0.05393833 -0.06501329 0.13449155 0.06568137
000110 32 76 cb 3d 55 44 b1 3e 01 2d dc bd 3c 90 08 bd
       0.09934653 0.34622446 -0.10750771 -0.033340678
000120 5d 75 f2 bd 9a 0f 12 bd fa 7a 86 3d 7b fa a8 3e
       -0.118387915 -0.03565941 0.06566425 0.330036
000130 fa b5 18 bd 00 4c 25 b9 3f e4 a4 3d 40 e4 d5 bb
       -0.03728292 -0.00015763938 0.08051347 -0.0065274537
000140 c0 c1 ae 3b 99 29 9c 3c 32 a4 75 bd 78 bd 13 bd
       0.0053331554 0.019062804 -0.059971042 -0.036069363
000150 ec 1e b6 3c 00 5a 41 3c 92 7c 51 bd e3 e2 83 3e
       0.022231542 0.011801243 -0.05114419 0.25759038
000160 40 84 a4 3b 52 59 c5 3d e4 e4 19 3d f8 36 04 bd
       0.0050206482 0.09636177 0.037571803 -0.032278985
000170 60 96 f5 3c 3a c0 72 3d c4 fa 0f 3d 3c 0a 65 3d
       0.029978931 0.059265353 0.035151258 0.055917963
000180 bc 52 d7 3d 76 12 1e bd f8 f2 4d 3d a3 ab 79 be
       0.10513827 -0.038591824 0.05028054 -0.2438188
000190 ac 4e 33 3d f0 42 8b 3d ef 7b 93 bd a0 d1 7c bd
       0.0437762 0.06799877 -0.07201373 -0.06172335
0001a0 c8 2c 6d 3d 04 c9 60 be 9e a0 d9 3d 30 8f b3 bc
       0.057904035 -0.21951681 0.106263384 -0.021918863
0001b0 18 60 c1 bd f0 b0 b5 3c e5 2a 04 be c2 70 c0 be
       -0.094421566 0.022179097 -0.12906988 -0.37586027
0001c0 c8 d1 1f bd 14 c7 8b 3d 81 e1 90 be 7b 80 0b 3e
       -0.039018422 0.068250805 -0.28297046 0.1362323
0001d0 30 d2 49 bc 00 cd 03 ba 1e 76 ed bd ca 60 0d be
       -0.012318179 -0.0005027801 -0.11594795 -0.13806453
0001e0 7d 22 49 3e 1e 32 84 3d 60 d8 85 bc 30 e3 0a be
       0.19642062 0.064548716 -0.016338527 -0.13563228
0001f0 74 39 d6 bd cc a3 0f be 18 17 be 3e 70 88 75 3c
       -0.10460177 -0.14027327 0.37126994 0.0149861425
000200 61 68 0d 3e 8b 29 b3 bd 50 98 55 bc 56 9c d5 bd
       0.13809349 -0.08748158 -0.013036802 -0.10430209
000210 c1 e9 ae be 94 00 ce 3d 00 50 7d 3d c7 e7 02 3e
       -0.34162715 0.10058704 0.061843872 0.12783729
000220 9c 17 fb bc 7a 96 00 bd 8a 27 58 bd 82 ad d8 bd
       -0.030650906 -0.031393506 -0.052772082 -0.10579969
000230 80 ff 19 bc 81 f9 5c be 98 5c db bd 74 8f f3 bd
       -0.009399295 -0.21579553 -0.1071102 -0.11892596
000240 8e 3c 10 be 6d 59 02 be 37 b7 12 3e 78 85 91 bd
       -0.140856 -0.12729426 0.14327703 -0.07105535
000250 ba de 80 3d fe 3a dc bd 44 62 6c bd 64 e9 e0 bd
       0.06292482 -0.10753439 -0.0577109 -0.10982016
000260 89 88 dc bd d8 65 81 3e 12 2a 9c 3d 58 fb 3f bd
       -0.107682295 0.25273013 0.07625212 -0.04687056
000270 72 b6 1e be 68 db f8 3c bc f4 0a be 7b 7c 7a be
       -0.15499285 0.030378059 -0.13569921 -0.24461548
000280 70 f5 a1 3d 28 0a 6d bd 00 08 97 38 3c c5 0e be
       0.079081416 -0.057871014 7.201731e-05 -0.13942426
000290 28 56 ac 3c 87 6a a4 3e 80 b1 6a 3c f0 dc e2 3c
       0.021037176 0.32112524 0.014324546 0.027693242
0002a0 83 38 26 be 8e c6 80 3d 00 3b a1 3a a7 8d ba 3d
       -0.16232495 0.06287871 0.0012300909 0.09109049
0002b0 35 2e d7 bd be 70 98 3d a4 4e 81 3e 68 ca aa bc
       -0.1050686 0.07443379 0.2525531 -0.020848468
0002c0 67 63 e9 bd c6 2e 9d be 99 08 11 3e 2a 8c 8d 3d
       -0.113959126 -0.30699748 0.14163436 0.069115
0002d0 f0 6b 79 bc c1 eb ca bd 6c c2 9b bd 95 f4 83 bd
       -0.015223488 -0.09908248 -0.076054424 -0.06443135
0002e0 01 0a aa bd e2 92 39 bd 3c 4a 49 be d4 0e fe bc
       -0.08302689 -0.045306094 -0.19657224 -0.03101293
0002f0 40 ad 86 bc e0 a9 74 be 10 df 96 3d 12 e3 7e bd
       -0.016440034 -0.23892927 0.073667645 -0.06222827
000300 6e ff 56 3e d0 04 57 bc f4 cf 11 3d e8 9d 85 bd
       0.20995876 -0.013123706 0.03559871 -0.06524259
000310 b9 f4 0c 3e 90 2e 1f bc a5 ac e2 3d e0 e9 b9 3b
       0.1376523 -0.009715691 0.110680856 0.005673632
000320 6a 4b 13 bd 05 26 c7 be 6e 31 e0 bd 20 56 c7 bc
       -0.035960592 -0.38896194 -0.10946928 -0.02433306
000330 28 d1 ec bd 01 c3 0c 3e 2c 16 46 3d 82 de cb 3d
       -0.11563331 0.13746263 0.04836099 0.09954549
000340 44 6f ae bd 4b 12 08 be 00 d3 b6 bb 65 eb 0d be
       -0.08517316 -0.13288228 -0.0055793524 -0.13859327
000350 c8 0b fb bd 4d 77 3a bd 9d 46 8d bd 50 18 74 bc
       -0.122581065 -0.04552393 -0.06898234 -0.014898375
000360 e2 9a 01 3f 40 c0 93 3b a4 fc b3 bd 91 d3 b3 bd
       0.5062696 0.004509002 -0.08788422 -0.087805875
000370 3c 31 ff bd 7c ac 76 3d 4f 17 af be 20 b3 65 3d
       -0.124605626 0.060223088 -0.3419747 0.05607903
000380 b8 6b 8b 3c 92 56 ab bd 4a cd ba bd ce a3 b7 3d
       0.017019138 -0.08366121 -0.09121187 0.0896679
000390 dd 80 18 3e 85 c0 04 be dc 9c 65 3d e8 b4 c5 3d
       0.14892907 -0.12964065 0.056057796 0.09653646
0003a0 00 b2 ea 3b 55 40 05 3e f4 c8 c8 be 42 99 c8 bd
       0.0071623325 0.13012822 -0.39215815 -0.097948566
0003b0 86 32 f1 3d 14 fa 01 3e 18 c4 e5 3c 1a 8f b8 3d
       0.11777215 0.12693053 0.028047606 0.090116695
0003c0 db 9e 6a be 7a 54 26 bd 40 64 bc 3c 9c 80 b4 be
       -0.22912161 -0.040607907 0.022997022 -0.3525437
0003d0 08 46 b2 bc 80 c8 7f 3b bd a3 f3 be d8 81 15 3d
       -0.02176191 0.003902942 -0.4758586 0.03650078
0003e0 41 68 ab bd bf aa b7 3e a0 12 37 3d 41 9d f5 bd
       -0.08369494 0.35872456 0.044695497 -0.119928844
0003f0 2a 44 af 3d 30 ec 01 be 99 a2 00 3e e6 5f 24 bd
       0.08557923 -0.12687755 0.12562026 -0.04013052

net.0.bias f4 [32]
000000 33 b5 95 3e 97 5e cd 3e cd b1 c6 3e 37 ed a9 3e
       0.29239807 0.4011123 0.38807526 0.33188793
000010 5d e2 a2 3e 9d 0b af 3e a9 a6 b2 3e ec 2f 93 3e
       0.31813326 0.34188548 0.34892777 0.287475
000020 df db 86 3e 43 0e cc 3e 41 55 a1 3e 78 4a be 3e
       0.26339623 0.3985463 0.31510356 0.3716619
000030 38 2d a6 3e a5 59 b9 3e 1c 4f ae 3e 7b 96 6f 3e
       0.32456374 0.36201206 0.3404473 0.23397247
000040 1c b7 05 3f 58 e7 e0 3e b3 e6 99 3e 2f 6b e1 3e
       0.5223253 0.439265 0.30058822 0.44027087
000050 9c 18 bf 3e 1b 40 01 3f 82 e4 d8 3e ba 9a 07 3f
       0.37323463 0.5048844 0.42361838 0.5297047
000060 1b 7f b9 3e f3 59 b2 3e 14 3b ab 3e 65 f6 da 3e
       0.36229786 0.3483425 0.3344351 0.4276611
000070 7a 61 0f 3f 21 dd 00 3f d6 83 ef 3e 5c 0c 77 3e
       0.5600811 0.50337416 0.4678027 0.24125808

net.2.weight f4 [64, 32, 3]
000000 5a 6d 5b 3d c8 52 8b 3d 2a 06 a7 3d a1 ec 14 3d
       0.053571083 0.06802899 0.081554726 0.03635848
000010 60 8b 8f bd 73 d5 95 bd 15 d2 2f bd 21 30 62 bd
       -0.070090055 -0.07316103 -0.04292496 -0.05522168
000020 3c bc ae bd 17 d3 b6 bd 68 4a 80 3d dc ad 06 3d
       -0.085319966 -0.08926981 0.06264192 0.03288065
000030 92 45 82 3d 50 fd 01 3d 40 64 18 bc 40 01 a2 3d
       0.06360926 0.03173572 -0.009301245 0.07910395
000040 4c 24 83 bc 62 ae 82 3d e9 64 2e bd e0 38 88 bb
       -0.016008519 0.06380917 -0.042576704 -0.0041571707
000050 2e 65 96 3d ab dc 15 bd e0 94 84 bd 00 cc 87 bc
       0.07343517 -0.0365874 -0.06473708 -0.016576767
000060 ca 44 35 3a 3c d8 af 3c c8 23 ec bc 14 0c 16 bd
       0.00069148524 0.021465413 -0.028825656 -0.036632612
000070 af dc 57 bd 96 de b5 3d 8c d3 a5 bd 90 47 1e 3d
       -0.052700695 0.088803455 -0.0809699 0.038642466
000080 81 47 57 bd e0 96 2a 3c 58 5f 03 bd d3 42 24 bd
       -0.052558426 0.010411948 -0.03207335 -0.04010279
000090 9e 8c 26 bc b4 b1 e0 bc 0e 39 b9 3d 48 cc c4 3c
       -0.010165362 -0.027428485 0.090440854 0.02402319
0000a0 fe 9f c7 3d 1a 79 82 3d 1a d1 89 bd 58 9e 50 3d
       0.09747313 0.063707545 -0.06729336 0.05093226
0000b0 f5 c6 3b bd 31 2c 37 bd ee 08 01 bd e8 ce d5 3c
       -0.045844037 -0.04471988 -0.031502657 0.026099637
0000c0 61 65 83 bd 44 6c 8a bc 0e 76 9c 3d 94 ec 0b 3d
       -0.06415821 -0.016897328 0.07639705 0.034161165
0000d0 b0 9d 68 3d 2a 0c 07 bd d6 af 79 3d bd 7d b5 bd
       0.056791008 -0.032970585 0.060958706 -0.08861873
0000e0 21 df 2f bd ca 81 82 3c f6 35 ac bd 04 b8 44 3d
       -0.0429374 0.015931029 -0.0840873 0.048027053
0000f0 71 a1 91 bd 5e fa 78 bd 48 c3 f3 3c 14 37 e4 bd
       -0.07110871 -0.060785644 0.029756203 -0.11143318
000100 00 78 af 38 cd 87 9b bd 39 b0 b4 bd 76 8f b4 3d
       8.367002e-05 -0.07594261 -0.08822674 0.088164255
000110 02 f4 94 3d e3 1c bc 3c ce 17 b9 bd a3 2c 25 bd
       0.07273103 0.022962993 -0.090377435 -0.040325772
000120 64 2b 99 bd fc eb ce bd 8c aa c7 3d 48 98 04 bc
       -0.07478979 -0.10103604 0.09749326 -0.008092947
000130 a4 b1 55 3d 36 81 08 bd 10 c1 79 3d 98 b9 43 3c
       0.052171364 -0.03332635 0.060975134 0.0119461045
000140 1c 99 a2 3d 21 c5 47 bd a0 da c9 3b 92 c7 cc 3d
       0.079393595 -0.04877198 0.0061600953 0.099990025
000150 c7 ab bf bd 1c 81 9c 3c 48 3f 67 3d ab 7a 94 bd
       -0.09358936 0.019104533 0.056456834 -0.072499596
000160 6a 1e aa 3d 80 d3 42 bb 2b 7d a4 bd 80 e4 01 3a
       0.08306582 -0.0029728115 -0.080316864 0.00049550086
000170 a9 d5 6f bd 5f d4 d7 bc 9f e9 32 bd 14 d6 a9 3d
       -0.05855337 -0.026346384 -0.04367983 0.08292785
000180 fd c1 27 3e d8 39 d0 3c c0 e3 cc 3a d8 d7 20 3e
       0.16382594 0.025418207 0.001563184 0.15707338
000190 dc f5 b9 bc b0 1c 1c bd b7 74 73 3e 59 8f c8 bd
       -0.022700243 -0.038113296 0.23774992 -0.097929664
0001a0 5b 5a be bd 02 38 9a 3e fc cd cd 3d 28 7b 73 bc
       -0.09294578 0.30120856 0.10049054 -0.014860906
0001b0 6c 87 35 3e 1a 21 8f 3d e4 c6 3d 3d fb 0a 94 3e
       0.1772744 0.069887355 0.046332255 0.28914627
0001c0 3e d9 bc 3d 94 d3 b0 bd 8f 0b 7d 3e c4 3a 3c 3d
       0.09221123 -0.08634105 0.2471144 0.04595448
0001d0 2f 78 97 bd e1 ac a8 3e cc 59 a2 bd 30 92 9a bc
       -0.0739597 0.32944396 -0.07927284 -0.018868536
0001e0 ab 29 86 3e 70 8a 66 3d 58 4b dc bc 54 88 2e 3e
       0.26203665 0.056284368 -0.026891395 0.17044193
0001f0 46 91 a8 bd 52 fe 14 bd 03 20 1a 3e fc 59 8a 3c
       -0.08230834 -0.03637535 0.15051274 0.016888611
000200 48 44 1f bd 57 38 bc 3e aa f5 20 bd 28 ff 6e 3c
       -0.038883477 0.36761734 -0.039296784 0.014587201
000210 88 b4 a7 3e f2 89 9d 3d 68 74 8a bd 32 a5 98 3e
       0.32754922 0.076923266 -0.06760484 0.29813534
000220 de ea 9d 3d 69 4e 5a bd 38 37 0d 3e e8 05 76 bd
       0.07710813 -0.053297434 0.13790596 -0.060064226
000230 17 10 7a bd 48 58 80 3e e0 3f 93 3d 1a 8d 1e bd
       -0.0610505 0.25067353 0.071899176 -0.038708784
000240 e4 0f a1 3e 29 83 53 bd c1 57 b7 bd ac e9 8f 3e
       0.31457436 -0.051638756 -0.089522846 0.28107965
000250 92 48 9b 3d 1a 21 a0 3d b8 b5 88 3e 1a 83 a2 3d
       0.07582201 0.078188136 0.2670114 0.07935162
000260 3d 88 32 bd fa 41 93 3e b4 57 aa 3d d8 ca 15 3d
       -0.04358696 0.28761274 0.08317509 0.0365704
000270 a0 25 80 3e 6c 28 10 bd 91 19 68 bd 9b 2e 5c 3e
       0.25028706 -0.0351948 -0.056665007 0.21502154
000280 ef db 36 bd 52 00 ae 3d d2 d7 ca 3e fe 9a 65 bd
       -0.04464334 0.08496155 0.39617783 -0.056056015
000290 5c b7 ce 3d 85 0c 7b 3e 98 fd a6 3c a0 a0 89 3c
       0.10093567 0.24516495 0.020384595 0.016800225
0002a0 b3 45 c1 3e 5a 68 21 bd 40 40 14 3b 1c c4 8a 3e
       0.3774849 -0.039406158 0.0022621304 0.27102745
0002b0 3e 29 93 3d f0 bc 3c 3c f9 22 82 3e 88 e4 2a 3d
       0.07185601 0.011519656 0.25417307 0.04172185
0002c0 98 2c 6b bc d4 c6 4a 3e 49 5c 66 bd 0e d2 ce 3d
       -0.014353894 0.1980241 -0.056240354 0.100986585
0002d0 ae 60 96 3e 1f ee 9e bd 11 23 bd bd 21 d7 b1 3e
       0.29370636 -0.07760262 -0.09235204 0.34734443
0002e0 87 a7 9e bd c2 db 06 bd 01 fc 6a 3e c0 0f 2d bb
       -0.07746797 -0.03292442 0.22947694 -0.0026407093
0002f0 e8 8c f0 3c a3 11 7f 3e a0 a0 1c 3d 4d 43 ba bd
       0.029364064 0.24909072 0.03823912 -0.09094868
000300 c8 b1 c4 bd ec 0b b2 bc 28 e0 b7 bc 29 b6 04 3d
       -0.096042216 -0.0217342 -0.022445753 0.032400284
000310 a0 7a 82 3d a4 06 c2 bd fc 96 d1 bc b8 b4 47 3c
       0.06371045 -0.09473923 -0.02558469 0.012189083
000320 03 4c 9f bd ea 73 4d 3c 8e 1e 77 bd 26 93 0e bd
       -0.0777817 0.012539843 -0.060331874 -0.0348083
000330 63 cb 80 3d f4 c4 95 bd 38 fa 22 3d 2c 67 37 bd
       0.06288793 -0.073129565 0.03978941 -0.044776127
000340 80 1a dc bc f6 5a a3 bd 7b 3b fb bd 68 85 ae bd
       -0.026868105 -0.07976334 -0.122672044 -0.08521539
000350 08 e8 29 3d 5b 89 e9 3c 16 c5 95 3d d0 33 d4 bc
       0.041481048 0.028507879 0.07312982 -0.025903612
000360 c5 fb f3 bd 14 14 60 bd ad 31 53 bd 4c c9 68 3d
       -0.119132556 -0.054706648 -0.051561046 0.056832597
000370 84 04 b8 3d bc 72 a9 bd b5 e7 44 3d cc d5 8e 3d
       0.08985236 -0.08273837 0.048072536 0.06974372
000380 3e 62 03 bd 15 c4 5a bd 54 67 96 bc ac da 05 3d
       -0.032076113 -0.053409655 -0.018359818 0.032679245
000390 5c 43 e5 bd 9b a8 64 bd ce b9 44 bd 6a 22 2d bd
       -0.111944884 -0.055824857 -0.04802876 -0.042269148
0003a0 80 99 48 3a d0 c3 90 bc 1c 6a 46 bd 0e bd c9 bd
       0.0007652268 -0.017671496 -0.048441038 -0.098505124
0003b0 46 69 57 bd 32 97 cc bd 7c 12 66 3d e8 b0 37 bc
       -0.05259063 -0.09989776 0.05616997 -0.011211611
0003c0 18 33 e8 bd f1 b4 7b bd c2 7a 80 bd 20 ae d1 bb
       -0.1133787 -0.061451856 -0.06273414 -0.006398931
0003d0 d8 c9 32 3c d8 ab 03 3d c9 b0 63 3c 62 5c ae bd
       0.010912381 0.032146305 0.013897129 -0.085137144
0003e0 86 3f 09 bd 6e 88 8e bd ec 39 54 3d 7a cf 81 bd
       -0.033507846 -0.06959616 0.05181305 -0.06338401
0003f0 d9 2b c5 3c 2c 8f 7c 3d 40 96 8c 3c 60 c4 46 3d
       0.02406876 0.061659977 0.017161489 0.04852712

net.2.bias f4 [64]
000000 96 7b 85 bd 47 f9 9f 3e 16 22 42 3d 7a 5e 68 3e
       -0.06517713 0.3124487 0.047395788 0.2269229
000010 3a 61 88 3d ab d6 ab 3e 7c a2 c0 3e c2 49 a5 3c
       0.066591695 0.33562216 0.37623966 0.020176772
000020 c4 c5 97 3e 74 9d 9b 3e 40 e4 02 bc d1 d6 c5 bc
       0.2964307 0.30393565 -0.007988989 -0.024150284
000030 5e fa 1c bd 6a db ad be 94 3f 57 3e 04 17 6a 3e
       -0.038324706 -0.33956462 0.21020347 0.22860342
000040 b2 5e 46 3e 3a cc 66 3e ee 73 4d 3e da 30 5d bd
       0.19372061 0.22538844 0.20063755 -0.054001667
000050 8b 34 08 3c 3e 44 93 3e 47 fa 86 3e 72 17 a8 be
       0.0083133085 0.28763002 0.2636282 -0.32830387
000060 0a 73 82 3c af 8c 84 3e 0c c3 92 3e ce 41 64 3d
       0.015923996 0.25888583 0.28664434 0.05572682
000070 9c a7 d1 bd e9 f4 98 bd 30 ce 94 3e cf a1 84 3e
       -0.10237047 -0.07468588 0.2906356 0.259047
000080 24 0c 94 3e e3 07 b6 3e c3 81 18 3d ed a8 bd 3e
       0.28915513 0.35552892 0.037233125 0.37042943
000090 b6 78 8f 3e fe 0e a5 3e 5b b7 5f 3e 30 c2 dc bc
       0.28021783 0.32238 0.21847288 -0.026948065
0000a0 9e 23 4d 3e a8 3b 49 3c f2 f5 9b bc ab 7b 68 3e
       0.20033118 0.01228229 -0.019038174 0.22703426
0000b0 ed bf 71 3e b9 ac d4 bd 7e 92 c0 bc 3e 20 40 3e
       0.2360837 -0.10384507 -0.023507353 0.187623
0000c0 8a 21 2c 3e 49 ee 2d bc 9a c1 b6 3e 0a 32 4e bd
       0.16809669 -0.010615894 0.3569458 -0.05034069
0000d0 d6 8d b3 3e 69 85 48 3e ee c8 c1 3e 0c 36 9c 3e
       0.3506915 0.19582142 0.3784861 0.30509984
0000e0 1d 03 93 3e fb a1 ad 3e 2d a7 21 bd dd 1f 86 3e
       0.28713313 0.33912644 -0.039466072 0.26196185
0000f0 26 f4 74 3e d4 ad 9f bd 88 dd a8 bd d1 09 60 3d
       0.2392126 -0.07796827 -0.08245379 0.05469686

fc.weight f4 [2, 64]
000000 6e f8 a2 bd a8 a1 ae 3d 98 62 fc 3d 85 f0 00 3c
       -0.079575405 0.08526927 0.12323493 0.007869844
000010 c1 bb 93 bd 1d dd 94 3d cf 6f 70 3d 4d 02 09 3e
       -0.072135456 0.072687365 0.05870038 0.13379784
000020 51 3b 24 3d d4 b0 52 3e cd 66 b9 bb 5f a1 74 3d
       0.04009563 0.20575267 -0.0056580068 0.059724208
000030 e6 85 0a 3d 6d b5 ab be b7 07 f2 3d a7 f5 14 3e
       0.0338191 -0.33536854 0.11817878 0.14546834
000040 0c 92 05 bd 98 7c b3 3d 11 e6 3f 3e c6 cd 01 3d
       -0.032609984 0.08763999 0.18740107 0.03169038
000050 37 ac 74 bd 9b ad 97 3d 2f f3 6f 3e 1f 27 f2 be
       -0.05973455 0.074061595 0.23432611 -0.47295472
000060 66 ff b7 3c d0 e5 4e 3e 27 c3 91 3c d4 0e 5a bc
       0.02246065 0.20204854 0.017793251 -0.013309199
000070 03 dd 23 3d 2f eb f3 3d 6d 40 92 3d 6b bd 93 3d
       0.040005695 0.11910092 0.071411945 0.07213863
000080 e6 d7 96 bc a5 d0 93 3d e6 50 4e bd 05 94 5e 3e
       -0.018413495 0.0721753 -0.05037012 0.21736152
000090 4d f1 7c 3d 7e fe 11 3e 17 66 c9 3d a1 86 82 bc
       0.06175356 0.14257237 0.09833925 -0.015933337
0000a0 b1 16 b4 3d eb a2 34 bd 32 32 ab bd 75 76 34 3e
       0.087933905 -0.044100683 -0.08359183 0.17623313
0000b0 bc cd 6e 3e d1 6f f6 3c 83 2c 10 bd a3 b3 49 3e
       0.23320669 0.030082615 -0.0351987 0.19697432
0000c0 72 18 4b 3e e3 e2 7b bd ef e0 f1 3d 2f a1 59 3d
       0.19833544 -0.061495673 0.11810481 0.053132232
0000d0 32 0d b3 3d a0 e5 99 bb a4 94 2c 3d 73 20 5c 3e
       0.08742751 -0.004696563 0.042133942 0.21496753
0000e0 28 72 07 3e 7c cf a1 3d d5 88 22 3d 78 57 59 3e
       0.13227141 0.07900903 0.039681274 0.21224773
0000f0 d1 e3 4c 3e 68 6f 24 bd 54 71 4c ba 09 3c 8d bd
       0.2000878 -0.040145308 -0.00077988696 -0.068962164
000100 75 7f e8 3b f4 58 a9 3e 09 2b c3 bd 19 70 ba 3e
       0.007095272 0.33075678 -0.09529693 0.3641365
000110 d4 57 86 bd b3 6a bc 3e bc 2e ab 3e ab 9e 9f bd
       -0.06559721 0.36800155 0.33434093 -0.077939354
000120 52 f3 a6 3e b8 c1 b7 3e f9 e8 01 bc c5 d8 20 bd
       0.32607514 0.35889983 -0.00792908 -0.039269228
000130 67 dd 19 bd 6b b0 ba be 52 96 9f 3e 5a 5e bf 3e
       -0.03756466 -0.3646272 0.31169373 0.37376672
000140 c2 b6 aa 3e 22 75 bf 3e 74 c6 99 3e f9 31 ad bd
       0.33342558 0.37394053 0.3003422 -0.08456797
000150 f5 f1 ab bb 52 87 a2 3e 93 3f 93 3e dd 6f b7 be
       -0.0052473494 0.31743866 0.2875944 -0.35827532
000160 a5 df 92 bb 23 5a 97 3e 62 b7 90 3e b8 d3 6e bd
       -0.004482227 0.29560956 0.2826491 -0.05830738
000170 fe cf 4f bd 54 6b aa bd 1c 50 a0 3e 0f fe d1 3e
       -0.050735466 -0.083212525 0.3131112 0.41014144
000180 7e 02 d3 3e 89 7e c6 3e aa ab c5 bc b3 89 88 3e
       0.4121284 0.38768414 -0.024129707 0.26667556
000190 94 a9 b9 3e 40 9a ce 3e 20 77 bb 3e 7c e1 7e bd
       0.3626219 0.40352058 0.36614323 -0.062226757
0001a0 69 ff c9 3e e9 d1 35 bd 76 e2 e4 bb 1f 65 da 3e
       0.39452675 -0.04438964 -0.006985004 0.42655274
0001b0 d4 50 96 3e 10 29 a0 bd 99 be 74 bd 4f ab cd 3e
       0.29358542 -0.07820332 -0.05975208 0.4016976
0001c0 88 ab c6 3e 61 7a 80 bd eb d1 bd 3e a6 2f b7 bd
       0.38802743 -0.06273342 0.37074217 -0.08944635
0001d0 d6 a3 9b 3e da ba db 3e 00 a1 ae 3e 57 3e 98 3e
       0.30398434 0.42915994 0.34107208 0.29735062
0001e0 42 ce ae 3e 8e a3 d5 3e 22 08 17 bd 8b 6a 8f 3e
       0.34141737 0.41726345 -0.03687299 0.28010973
0001f0 fe 58 a0 3e a8 ad 2b bd 96 cf 37 bb ca c1 02 bc
       0.31317896 -0.04191366 -0.0028047315 -0.007980773

fc.bias f4 [2]
000000 5a 9c bd 3d 04 41 8c 3d
       0.09258337 0.06848338
