models/h12_ep50_bs128.pth (torch, 38249 bytes, 6 tensors)

net.0.weight f4 [32, 13, 3]
0.20801398 0.11523706 -0.041299492 -0.27703974 0.07038474 -0.0105921775 -0.06363359 0.065781206
0.115694314 -0.29592335 0.03029786 0.09391421 0.26132637 0.08994791 0.04971336 -0.1650015
0.053857356 -0.109760076 0.08613258 0.1452015 -0.11022262 1.0141348 0.001320526 0.02222845
-0.063329525 0.14847347 0.09964517 0.7917068 -0.013688669 -0.017041937 0.1677503 0.07407139
-0.02488774 -0.30244464 0.079068735 0.05910793 0.38367718 0.09554848 -0.15854542 0.09903694
0.11335793 0.0555629 -0.1891108 -0.15185732 0.07068534 0.12596044 0.070824906 -0.1451286
-0.267172 -0.11067132 0.09224084 -0.19047503 0.039275765 -0.019555345 -0.030692214 0.13799226
-0.020079225 -0.5897235 -0.12710972 0.10305682 -0.73606247 0.06263991 0.14786375 -0.13051555
-0.027369425 -0.14620887 -0.7069572 0.13215566 0.109752625 0.25049445 -0.03365776 -0.09664742
0.11350214 0.07931508 0.0030663759 -0.19136778 -0.026585877 0.0010227561 0.29424974 0.061321214
0.0033650696 -0.0731054 0.14669439 -0.11354846 -0.18462844 0.036962196 0.032953173 -0.12158692
0.078158274 0.15719262 -0.07990111 -0.028057098 -0.15732983 0.351292 -0.14859799 -0.037476487
-1.3027906 -0.15991104 -0.02408643 -1.2893335 0.08449486 0.12330645 0.063950464 -0.011013791
-0.081379995 0.074290514 0.122262776 0.14163038 0.16055727 -0.14176919 -0.12410572 -0.19846961
0.07916883 0.040224552 -0.09938888 0.026938647 0.14009878 0.0035156435 -0.019336864 -0.105967715
-0.48670793 0.07920228 0.1008012 -0.23464337 0.0050412416 0.108336836 -0.206387 -0.041826285
0.15868801 -0.29114786 -0.1523989 -0.10717968 0.064559326 -0.124413356 0.04797882 -0.754004
0.10779798 -0.14036393 -0.56607425 -0.05996214 -0.01788418 -0.025227219 -0.07362356 -0.018028557
0.81118673 -0.11045602 -0.10569557 -0.43068838 -0.10496023 -0.15604228 0.2873572 0.15304935
-0.009034276 -0.31473827 5.9232116e-05 -0.07678585 0.1519408 -0.10746555 -0.065192804 -0.18562514
0.14026457 0.092380315 0.37152976 -0.07405837 -0.04940267 -0.30223593 0.0041300654 0.09756735
-0.24064398 -0.096821316 0.07819034 0.0063299714 -0.13293359 0.041598782 0.052613314 -0.082547195
-0.103908 1.1722766 0.022310138 -0.13915025 0.067933336 -0.103438914 -0.10133252 0.64647806
0.03562464 0.11969969 0.36620215 -0.107942045 0.11113179 0.08477093 0.14310169 0.065078005
0.0652921 0.009492934 0.034429148 -0.123148866 -0.08957587 0.03895013 -0.3147936 0.03048712
0.1219036 0.07350249 -0.046126947 0.080769554 0.44037902 -0.0842548 -0.03400159 0.49908125
-0.015754536 -0.10275118 0.08610224 -0.04536397 0.13755536 -0.049451344 0.055058256 0.11307612
-0.17290118 0.028589025 0.10479078 -0.03605382 0.005224988 0.13864419 -0.5522123 0.03969121
-0.028008908 -0.10233702 -0.00017865002 -0.12341641 0.21396883 0.0035845041 0.008090749 -0.4942002
-0.098409295 -0.08227953 0.0018379701 -0.1526472 0.043087825 -0.093666375 0.12964648 -0.10458848
-0.11724043 -0.15021302 0.033633575 -0.22717486 0.10391456 0.061330855 -0.08945827 -0.16008286
0.06460941 -0.02237048 -0.09953026 -0.037313513 -1.1074952 -0.027955353 0.14735964 -1.0877924
00000000: 9e01 553e 6801 ec3d a829 29bd 27d8 8dbe
00000010: e025 903d d08a 2dbc 5452 82bd 4cb8 863d
00000020: 24f1 ec3d 4483 97be 3833 f83c 1856 c03d
00000030: 92cc 853e 9c36 b83d 3ca0 4b3d 27f6 28be
00000040: 8899 5c3d e4c9 e0bd 4766 b03d b4af 143e
00000050: 66bc e1bd 2bcf 813f 8015 ad3a 7018 b63c
00000060: e9b2 81bd 6e09 183e c412 cc3d 4cad 4a3f
00000070: 7046 60bc 889b 8bbc bcc6 2b3e beb2 973d
00000080: 60e1 cbbc 06da 9abe caee a13d 281b 723d
00000090: 5671 c43e ecae c33d bb59 22be e1d3 ca3d
000000a0: 3428 e83d ec95 633d 43a6 41be 7c80 1bbe
000000b0: 7ac3 903d c6fb 003e a60c 913d 979c 14be
000000c0: c5ca 88be a5a7 e2bd c4e8 bc3d e30b 43be
000000d0: a0df 203d 8832 a0bc 3d6e fbbc d84d 0d3e
000000e0: 307d a4bc 1ff8 16bf 0d29 02be 740f d33d
000000f0: 976e 3cbf 5a49 803d 9869 173e dea5 05be
00000100: d835 e0bc c7b7 15be 26fb 34bf d053 073e
00000110: fcc5 e03d cf40 803e b8dc 09bd 15ef c5bd
00000120: cf73 e83d f26f a23d 40f5 483b eaf5 43be
00000130: a0ca d9bc 000e 863a e7a7 963e f42b 7b3d
00000140: 8088 5c3b 49b8 95bd 0e37 163e 188c e8bd
00000150: 3d0f 3dbe ac65 173d e8f9 063d 9002 f9bd
00000160: 7211 a03d 1af7 203e 31a3 a3bd 00d8 e5bc
00000170: 121b 21be 8cdc b33e 122a 18be f280 19bd
00000180: d8c1 a6bf b8bf 23be e850 c5bc e108 a5bf
00000190: a40b ad3d 1888 fc3d 76f8 823d 3073 34bc
000001a0: 8eaa a6bd a025 983d e864 fa3d 8e07 113e
000001b0: 2069 243e f12b 11be 242b febd 9e3b 4bbe
000001c0: 4423 a23d 80c2 243d 668c cbbd 70ae dc3c
000001d0: 0e76 0f3e b666 663b 5868 9ebc 9a05 d9bd
000001e0: c831 f9be ce34 a23d dc70 ce3d 5a46 70be
000001f0: 0031 a53b b4df dd3d 1d57 53be 0a52 2bbd
00000200: 1c7f 223e 5511 95be 750e 1cbe 0581 dbbd
00000210: ae37 843d 6ecc febd 7085 443d 6806 41bf
00000220: 30c5 dc3d 90bb 0fbe 3eea 10bf dc9a 75bd
00000230: d881 92bc 50a9 cebc f3c7 96bd a0b0 93bc
00000240: efa9 4f3f c436 e2bd eb76 d8bd 3083 dcbe
00000250: 64f5 d6bd 8cc9 1fbe 7c20 933e f8b8 1c3e
00000260: 8004 14bc 6025 a1be 0070 7838 e641 9dbd
00000270: 5e96 1b3e e616 dcbd ce83 85bd 8414 3ebe
00000280: 84a1 0f3e e431 bd3d 2639 be3e eaab 97bd
00000290: 745a 4abd abbe 9abe 8055 873b 64d1 c73d
000002a0: 606b 76be 414a c6bd 4222 a03d a66b cf3b
000002b0: be1f 08be 7c63 2a3d 0f81 573d 810e a9bd
000002c0: b8cd d4bd 290d 963f c0c3 b63c 677d 0ebe
000002d0: a220 8b3d c8d7 d3bd 6d87 cfbd 967f 253f
000002e0: 24eb 113d 1c25 f53d d97e bb3e b810 ddbd
000002f0: 1099 e33d 629c ad3d 4089 123e 9e47 853d
00000300: ddb7 853d 4088 1b3c 9405 0d3d 7935 fcbd
00000310: 8e73 b7bd 2c8a 1f3d a02c a1be 20c0 f93c
00000320: 98a8 f93d 7988 963d 9cef 3cbd 826a a53d
00000330: 5c79 e13e c88d acbd 4045 0bbd 9487 ff3e
00000340: a80f 81bc 366f d2bd 5f56 b03d 92cf 39bd
00000350: 50db 0c3e 7e8d 4abd c484 613d 7494 e73d
00000360: 020d 31be 8833 ea3c 8c9c d63d 2cad 13bd
00000370: 6036 ab3b bef8 0d3e c95d 0dbf 4093 223d
00000380: f072 e5bc 1296 d1bd 0054 3bb9 bec1 fcbd
00000390: a51a 5b3e 00ea 6a3b 108f 043c cf07 fdbe
000003a0: d08a c9bd 2c82 a8bd 0be8 f03a 8c4f 1cbe
000003b0: dc7c 303d 28d4 bfbd 0cc2 043e 7c32 d6bd
000003c0: c01b f0bd 71d1 19be 5cc3 093d 87a0 68be
000003d0: 28d1 d43d 1036 7b3d e635 b7bd c3ec 23be
000003e0: f051 843d 4c42 b7bc 85d6 cbbd 0ed6 18bd
000003f0: 67c2 8dbf a002 e5bc 72e5 163e c83c 8bbf

net.0.bias f4 [32]
1.1451604 1.3086517 1.0247402 1.284064 1.1983756 1.4071612 1.0295664 1.2641468
1.3378505 1.3944088 1.4042922 1.0103687 0.99298096 1.3737742 1.4079826 1.1907816
1.0714421 1.216022 1.3340529 1.0443699 1.255729 1.0458429 1.0317369 1.1874888
1.1407999 1.442933 1.0991501 1.4436129 1.3314648 1.183075 1.0926584 1.393268
00000000: 9e94 923f e681 a73f b02a 833f 365c a43f
00000010: 5f64 993f dc1d b43f d5c8 833f 90cf a13f
00000020: af3e ab3f fd7b b23f d9bf b33f c353 813f
00000030: 0034 7e3f d5d7 af3f c638 b43f 886b 983f
00000040: 0425 893f 9ca6 9b3f 3fc2 aa3f eaad 853f
00000050: babb a03f 2ede 853f f40f 843f a2ff 973f
00000060: bb05 923f 07b2 b83f f3b0 8c3f 4fc8 b83f
00000070: 706d aa3f 006f 973f 3bdc 8b3f 9b56 b23f

net.2.weight f4 [64, 32, 3]
-0.040832818 0.07850334 -0.09062727 -0.0049144384 0.0654816 -0.052653998 -0.08378625 0.008205421
-0.0039973333 0.019066608 0.08951962 0.089687854 -0.06746481 -0.0010716617 0.004588127 -0.09270543
0.025238618 -0.08319917 -0.121082984 -0.09827072 -0.0015343949 -0.06198311 -0.037845008 0.08004925
0.0025151544 -0.051095717 0.09943837 -0.07786578 0.039190933 0.07781501 -0.049959403 0.08639151
-0.08446431 -0.09329198 -0.06932243 -0.0056539476 0.042687394 -0.060522147 0.003964342 -0.067004986
-0.004470378 -0.0037986264 -0.0900727 0.038220704 -0.011927463 -0.006754814 0.04551217 0.027512893
-0.06402583 -0.027143791 -0.08677846 -0.042862795 -0.0024815798 0.08269104 0.04987757 -0.045421366
0.09147717 0.044008266 0.005905263 -0.017841175 -0.04482764 0.024894208 0.0041230395 -0.03124192
-0.030834958 -0.013413683 -0.003453891 -0.06114479 -0.038027428 -0.016798034 -0.055681776 -0.081405215
0.013903561 -0.08050831 -0.08799173 -0.005394225 0.0054933205 -0.066292204 -0.05509616 0.06630111
-0.03038565 -0.12173627 -0.030461423 0.05643934 -0.114626706 0.086623505 -0.0073918104 -0.066328995
-0.020293184 0.078907475 -0.05853317 -0.08418821 0.030147135 -0.018405434 0.0344723 0.0525181
0.7512776 0.07646415 0.064644694 0.7461897 -0.0060985237 0.014440089 0.7600344 0.07322772
0.03212191 0.67845845 -0.0535073 0.07516113 0.7865985 0.055729553 -0.017877832 0.69511193
0.05652854 0.047002807 0.7618713 0.030897439 0.020469725 0.7044163 0.016284473 0.07837097
0.7547699 0.034019306 0.058013394 0.6842944 0.022809401 -0.06906053 0.8586905 0.06636402
0.02605486 0.7853472 -0.0779163 0.098956004 0.7358864 0.06393564 0.018222064 0.8187245
0.07674299 -0.09416031 0.73431766 0.0676125 0.06514415 0.76684076 -0.045456734 -0.06728248
0.5750841 -0.051117897 -0.015801892 0.6283245 -0.0632497 -0.09512157 0.6783393 -0.024377756
-0.08474417 0.74315786 -0.046194308 0.028914481 0.89162016 -0.013914928 -0.091056 0.6751329
-0.04422682 -0.02709864 0.7760776 -0.06693959 -0.07663642 0.7381302 -0.02506344 -0.08757065
0.6341153 -0.014044426 -0.069857046 1.001786 0.0137920305 0.07079093 0.74371797 -0.06052036
0.06763397 0.7144925 -0.05805794 0.003187649 0.6496052 0.09649721 -0.09630186 0.56219995
-0.029853158 0.009135522 0.7378102 0.018237934 -0.10138113 0.7042079 -0.020849265 0.0072845444
0.6759536 0.0411907 -0.014998585 0.5486547 0.041168794 0.087581575 0.76957554 0.0022039711
-0.07979911 0.6176933 0.03597614 0.09696089 0.68525493 -0.08490932 -0.07277876 0.5396252
-0.07841661 0.013431095 0.65079165 -0.08231804 0.049278155 0.8009324 -0.0155836195 -0.04669274
0.75067353 0.0145114735 0.012991242 0.64632964 -0.047182295 -0.05486203 0.61044955 0.011371896
-0.047826875 0.562439 0.081875175 0.03617148 0.5618935 0.040265113 -0.028903037 0.7895262
-0.09750125 0.06394833 0.7369277 0.010895215 -0.018704504 0.64730847 0.040623948 -0.052345425
0.52242506 -0.028034851 -0.0005040169 0.67676336 0.02053304 0.0028572902 0.63691014 0.074956685
0.018390939 0.8475473 -0.09593639 0.06261617 0.772951 -0.09669433 -0.007981755 0.6813293
00000000: 5040 27bd 5cc6 a03d ca9a b9bd 4c09 a1bb
00000010: 381b 863d b8ab 57bd 2098 abbd 0870 063c
00000020: 10fc 82bb 9331 9c3c 1056 b73d 44ae b73d
00000030: fe2a 8abd 0077 8cba 0058 963b 58dc bdbd
00000040: 38c1 ce3c 5464 aabd 5bfa f7bd 2942 c9bd
00000050: c01d c9ba 00e2 7dbd 5e03 1bbd dcf0 a33d
00000060: 4ad5 243b be49 51bd 58a6 cb3d 1878 9fbd
00000070: ac86 203d 7a5d 9f3d 3ba2 4cbd 08ee b03d
00000080: a0fb acbd de0f bfbd ebf8 8dbd c044 b9bb
00000090: fad8 2e3d 12e6 77bd 50e7 813b e939 89bd
000000a0: 407c 92bb 60f2 78bb 0978 b8bd 508d 1c3d
000000b0: 686b 43bc 7d57 ddbb f86a 3a3d b862 e13c
000000c0: f91f 83bd a85c debc e8b8 b1bd e690 2fbd
000000d0: 00a2 22bb ec59 a93d 6c4c 4c3d c10b 3abd
000000e0: 6258 bb3d 0342 343d f080 c13b a827 92bc
000000f0: 309d 37bd f0ee cb3c 901a 873b 0eef ffbc
00000100: 9899 fcbc 10c5 5bbc ad5a 62bb f672 7abd
00000110: a6c2 1bbd 089c 89bc 9312 64bd c7b7 a6bd
00000120: c3cb 633c 8ae1 a4bd 0235 b4bd 0ac2 b0bb
00000130: 5001 b43b 35c4 87bd 83ac 61bd e0c8 873d
00000140: 54eb f8bc de50 f9bd 3c8a f9bc f02c 673d
00000150: 68c1 eabd aa67 b13d 0037 f2bb 7fd7 87bd
00000160: e43d a6bc 3e9a a13d 7ac0 6fbd de6a acbd
00000170: 20f7 f63c fec6 96bc d432 0d3d 381d 573d
00000180: bb53 403f 3c99 9c3d 7064 843d 4a06 3f3f
00000190: 20d6 c7bb 2096 6c3c 9d91 423f 6af8 953d
000001a0: 4492 033d 74af 2d3f 782a 5bbd 14ee 993d
000001b0: 855e 493f ac44 643d 8874 92bc dbf2 313f
000001c0: 788a 673d 0486 403d ff09 433f a01c fd3c
000001d0: 20b0 a73c a054 343f 0467 853c f680 a03d
000001e0: 9a38 413f d457 0b3d 749f 6d3d eb2d 2f3f
000001f0: c8da ba3c 9b6f 8dbd 24d3 5b3f dce9 873d
00000200: 0071 d53c 840c 493f 9592 9fbd 72a9 ca3d
00000210: 0d63 3c3f b0f0 823d 7046 953c ee97 513f
00000220: 6e2b 9d3d 1fd7 c0bd 3efc 3b3f 6c78 8a3d
00000230: 4c6a 853d ad4f 443f d730 3abd 66cb 89bd
00000240: b638 133f 0061 51bd f872 81bc e0d9 203f
00000250: 0f89 81bd 19cf c2bd a5a7 2d3f dcb3 c7bc
00000260: 5a8e adbd 983f 3e3f 3e36 3dbd 10de ec3c
00000270: 3841 643f 70fb 63bc 917b babd 82d5 2c3f
00000280: 2f27 35bd f8fd ddbc 06ad 463f a017 89bd
00000290: 8ef3 9cbd 1af6 3c3f d851 cdbc 3e58 b3bd
000002a0: 6155 223f 981a 66bc 3611 8fbd 863a 803f
000002b0: f8f7 613c d6fa 903d 4d64 3e3f 32e4 77bd
000002c0: ae83 8a3d fbe8 363f 2ace 6dbd e0e7 503b
000002d0: 874c 263f 54a0 c53d e939 c5bd 56ec 0f3f
000002e0: 9c8e f4bc 28ad 153c 21e1 3c3f b867 953c
000002f0: e9a0 cfbd f846 343f 14cc aabc 30b3 ee3b
00000300: 4c0b 2d3f 94b7 283d a0bc 75bc a274 0c3f
00000310: 9ca0 283d f85d b33d e702 453f 8070 103b
00000320: b76d a3bd 2621 1e3f b85b 133d 6e93 c63d
00000330: de6c 2f3f f0e4 adbd 080d 95bd e124 0a3f
00000340: e398 a0bd 180e 5c3c 489a 263f 5c96 a8bd
00000350: e4d7 493d e809 4d3f 7052 7fbc e340 3fbd
00000360: 242c 403f 88c1 6d3c 38d9 543c dc75 253f
00000370: 3942 41bd 02b7 60bd 6c46 1c3f 3051 3a3c
00000380: 1de6 43bd 01fc 0f3f 2cae a73d 8c28 143d
00000390: 41d8 0f3f 08ed 243d 10c6 ecbc 641e 4a3f
000003a0: bcae c7bd 58f7 823d 4ba7 3c3f d881 323c
000003b0: 303a 99bc 02b6 253f 4c65 263d 2868 56bd
000003c0: a6bd 053f 58a9 e5bc 0020 04ba 5d40 2d3f
000003d0: e834 a83c 6041 3b3b 8b0c 233f e482 993d
000003e0: 98a8 963c dcf8 583f 4c7a c4bd e83c 803d
000003f0: 1ee0 453f ad07 c6bd e8c5 02bc 996b 2e3f

net.2.bias f4 [64]
0.057632137 0.8480808 0.82683265 -1.303124 -0.1178956 0.8389059 0.7676201 -0.04341849
-0.0794632 0.8698346 0.92534244 -0.022468215 0.6910975 0.6999956 0.7744299 0.7363141
-0.1168754 0.81371176 0.06664787 0.85164285 -0.019900909 0.8990678 -0.04166733 0.7748533
0.4910812 0.8223468 0.8216932 -0.045681953 0.8029449 -0.07518897 0.76994705 0.79005176
0.80193555 0.77335423 0.8265859 -0.9361661 -0.11253002 0.9245371 -0.06596322 -0.0031207837
0.74059653 -0.00010472335 0.8538414 0.74201715 0.9133185 -0.12536478 0.8350558 0.8892521
-0.014747727 0.03539087 0.7933357 0.03180871 0.8570852 -0.026558073 0.805527 0.8334212
0.0016154109 0.07443476 0.0326271 -0.1045845 0.71699053 0.72400546 0.7354937 0.003526718
00000000: ad0f 6c3d d31b 593f 4eab 533f c4cc a6bf
00000010: 4073 f1bd 89c2 563f c082 443f 96d7 31bd
00000020: 9abd a2bd 7bad 5e3f 3ee3 6c3f 430f b8bc
00000030: c4eb 303f e932 333f 0a41 463f 157f 3c3f
00000040: 5f5c efbd 6a4f 503f ae7e 883d 4405 5a3f
00000050: 3b07 a3bc 4f29 663f 5dab 2abd c95c 463f
00000060: ff6e fb3e 5285 523f 7c5a 523f 001d 3bbd
00000070: cc8d 4d3f adfc 99bd 401b 453f d540 4a3f
00000080: a64b 4d3f 8bfa 453f 229b 533f 95a8 6fbf
00000090: 2476 e6bd 77ae 6c3f ba17 87bd 1086 4cbb
000000a0: bc97 3d3f ec9e dbb8 5a95 5a3f d6f4 3d3f
000000b0: 3ecf 693f a05f 00be 38c6 553f 07a6 633f
000000c0: 73a0 71bc 04f6 103d 0c18 4b3f da49 023d
000000d0: f069 5b3f 5190 d9bc 0437 4e3f 175b 553f
000000e0: 32bc d33a 4071 983d fea3 053d 6630 d6bd
000000f0: b18c 373f 6c58 393f 5149 3c3f 8220 673b

fc.weight f4 [13, 64]
-0.059699267 -0.030560883 0.0883738 -0.04869409 0.010213084 0.042462334 0.09070552 0.08061096
0.13775204 -0.0879627 -0.081952974 -0.09487695 0.072719485 -0.015589314 -0.07110775 0.05341485
-0.08403325 -0.11649968 0.06021845 0.15106817 0.044655863 -0.061442122 0.066726744 -0.019406859
0.1296988 0.10773208 0.17404081 -0.01934522 0.12042577 -0.10353639 0.18914977 -0.005627688
-0.013455116 0.06723068 0.019853745 -0.078824185 0.106800094 0.0077302833 -0.03249818 -0.031376585
0.128924 -0.04039424 -0.02599677 -0.05874158 0.055704903 -0.08169401 0.0531615 -0.035815675
0.1395285 0.07198014 -0.043356236 -0.026500268 -0.054535966 0.103354864 -0.0122834155 0.011796696
-0.07554426 0.06089669 0.13937986 0.09084473 0.104665875 -0.093108885 0.0348691 0.10230276
-0.04729442 -0.018798271 0.06919885 -0.042986 -0.10161563 -0.033882644 0.07650752 0.07655569
-0.030222025 -0.063401595 0.14719291 0.022800362 0.11013775 -0.051545538 -0.06276711 0.07130105
0.061985694 0.0014659271 -0.0031762794 0.026896233 0.03067798 -0.008307226 -0.09083941 -0.07706439
0.19470477 0.090943515 0.09052424 -0.04188148 0.052980725 0.046297703 0.14446008 -0.10856518
0.14477037 -0.11932645 -0.012111514 -0.13043922 -0.04556534 0.12022723 0.0738047 0.054266684
0.11070392 -0.09201541 0.07732756 0.02532745 0.0016203355 0.093150124 0.0072496166 0.048415676
0.10585966 0.05838287 0.03565221 -0.030284941 -0.006407705 0.08920492 0.10642048 -0.0991386
-0.018223466 0.046308015 0.14352225 -0.08071676 0.06736495 -0.064963736 -0.08258938 -0.022515394
-0.03332655 0.06746115 0.077237524 -0.35119832 0.049368408 0.048573487 -0.0034024161 -0.05362933
0.094210565 0.1339437 0.09276246 0.12977934 0.03159036 0.12861538 -0.07824633 0.1663572
0.0178236 -0.07676051 0.04716662 0.0061114696 -0.08253104 0.056845095 0.096586086 0.15396662
-0.41960818 0.038849454 0.17211741 0.020567838 0.10381987 -0.018995 0.048688848 -0.050351676
0.028497148 0.058272693 0.16516976 -0.4985361 -0.06758972 0.036692873 -0.048457146 0.11000065
0.054197606 -0.08924906 0.14114214 -0.0027054956 0.15996411 0.043265883 0.110740304 0.14354059
0.049492862 0.014288019 0.15354635 -0.0875098 0.061002724 0.020260463 -0.04494077 -0.00022589049
0.0950507 -0.017714417 0.007885145 -0.045536935 0.09164656 0.06478618 0.12728472 0.034604635
0.059493598 0.15205288 0.10312816 0.23542374 0.045276295 -0.010259752 -0.077549264 0.13248149
0.09936374 0.07928749 0.06974382 0.12265787 -0.053170435 -0.021601146 0.0068899 -0.022477943
-0.020044217 0.060909133 -0.09780373 0.14384907 0.13781436 0.04576857 0.13516709 0.024316942
-0.06315165 -0.09316826 -0.017989742 -0.103568345 0.07454693 0.020785818 0.1979999 -0.12949193
0.20223132 -0.041214354 0.09517855 0.039375402 0.04484986 -0.12458171 0.15269926 0.03958397
0.053313795 0.09236203 -0.03625561 0.10684962 -0.041685395 0.10646876 0.11857043 0.11468273
-0.047207348 -0.07853218 -0.04023694 0.10171289 -0.010799958 0.07379117 -0.059242763 -0.20282653
0.034926176 -0.07266254 -0.04510536 -0.100741714 -0.022728235 -0.1267709 -0.06185688 0.03423171
00000000: 3887 74bd d15a fabc 53fd b43d 7473 47bd
00000010: c754 273c fcec 2d3d d1c3 b93d 5c17 a53d
00000020: df0e 0d3e ca25 b4bd f6d6 a7bd d94e c2bd
00000030: f4ed 943d 526a 7fbc f1a0 91bd 88c9 5a3d
00000040: a019 acbd 6297 eebd 9fa7 763d 9db1 1a3e
00000050: 11e9 363d bcaa 7bbd 08a8 883d 22fb 9ebc
00000060: c3cf 043e a3a2 dc3d c137 323e de79 9ebc
00000070: c9a1 f63d e30a d4bd 7ab0 413e 7868 b8bb
00000080: d972 5cbc 3db0 893d 52a4 a23c 936e a1bd
00000090: 02ba da3d 514e fd3b d01c 05bd bc84 00bd
000000a0: a704 043e 6e74 25bd 2ef7 d4bc 039b 70bd
000000b0: d32a 643d 304f a7bd dfbf 593d 75b3 12bd
000000c0: 8fe0 0e3e 536a 933d 4f96 31bd 1717 d9bc
000000d0: 1b61 5fbd b7ab d33d 6140 49bc ee46 413c
000000e0: f3b6 9abd cf6e 793d 98b9 0e3e cd0c ba3d
000000f0: 105b d63d dfaf bebd e7d2 0e3d 1c84 d13d
00000100: cbb7 41bd d5fe 99bc 20b8 8d3d 1712 30bd
00000110: db1b d0bd 87c8 0abd faaf 9c3d 3bc9 9c3d
00000120: 2e94 f7bc b2d8 81bd bdb9 163e d3c7 ba3c
00000130: e78f e13d 6a21 53bd 0b8c 80bd 4906 923d
00000140: b6e4 7d3d 5a24 c03a 2029 50bb 7d55 dc3c
00000150: 6350 fb3c 081b 08bc 030a babd efd3 9dbd
00000160: b060 473e 9840 ba3d c664 b93d ea8b 2bbd
00000170: 5102 593d a9a2 3d3d 58ed 133e 6c57 debd
00000180: af3e 143e 6d61 f4bd 5f6f 46bc dc91 05be
00000190: b9a2 3abd b239 f63d eb26 973d be46 5e3d
000001a0: bdb8 e23d 9372 bcbd e95d 9e3d 837b cf3c
000001b0: 7061 d43a 7ec5 be3d 318e ed3b 844f 463d
000001c0: f3cc d83d e022 6f3d 0d08 123d 2018 f8bc
000001d0: baf7 d1bb 12b1 b63d fbf2 d93d 2e09 cbbd
000001e0: 6149 95bc 79ad 3d3d 7ff7 123e d44e a5bd
000001f0: a3f6 893d b50b 85bd 9f24 a9bd 3472 b8bc
00000200: 6c81 08bd 1229 8a3d b52e 9e3d 44d0 b3be
00000210: 8736 4a3d fef4 463d 12fb 5ebb 6eaa 5bbd
00000220: 78f1 c03d 8a28 093e 3ffa bd3d e0e4 043e
00000230: e564 013d c0b3 033e 9d3f a0bd 8b59 2a3e
00000240: cc02 923c 9d34 9dbd c931 413d b942 c83b
00000250: 0906 a9bd 67d6 683d edce c53d 6da9 1d3e
00000260: e2d6 d6be 9b20 1f3d 8c3f 303e e27d a83c
00000270: 839f d43d 679b 9bbc f56d 473d 8f3d 4ebd
00000280: da72 e93c 59af 6e3d 4322 293e 2040 ffbe
00000290: 7b6c 8abd 444b 163d 007b 46bd 0548 e13d
000002a0: 4ffe 5d3d 36c8 b6bd 9187 103e af4e 31bb
000002b0: a2cd 233e 9137 313d d0cb e23d 4efc 123e
000002c0: 07b9 4a3d 4c18 6a3c 413b 1d3e 5738 b3bd
000002d0: fedd 793d 45f9 a53c d013 38bd 04dd 6cb9
000002e0: f1a9 c23d d31d 91bc b230 013c f084 3abd
000002f0: 31b1 bb3d 9eae 843d ed56 023e 97bd 0d3d
00000300: 8faf 733d c0b3 1b3e db34 d33d ec12 713e
00000310: a373 393d 8518 28bc 26d2 9ebd 3aa9 073e
00000320: 377f cb3d 7b61 a23d d9d5 8e3d 0d34 fb3d
00000330: 3ec9 59bd e3f4 b0bc acc4 e13b aa23 b8bc
00000340: c533 a4bc db7b 793d 524d c8bd 2c4d 133e
00000350: 351f 0d3e d377 3b3d 3e69 0a3e 5334 c73c
00000360: a755 81bd 00cf bebd 395f 93bc a41b d4bd
00000370: 10ac 983d 0547 aa3c 7cc0 4a3e 8899 04be
00000380: ba15 4f3e 62d0 28bd f9ec c23d 1a48 213d
00000390: 7db4 373d b224 ffbd 325d 1c3e cd22 223d
000003a0: 915f 5a3d 4e28 bd3d c380 14bd f9d3 da3d
000003b0: 4ebe 2abd 4b0c da3d 0ed5 f23d c7de ea3d
000003c0: 7e5c 41bd 7bd5 a0bd 7dcf 24bd d94e d03d
000003d0: 4ff2 30bc d31f 973d 8aa8 72bd c2b1 4fbe
000003e0: c00e 0f3d 19d0 94bd 66c0 38bd ac51 cebd
000003f0: 9030 babc 3bd0 01be a45d 7dbd 8d36 0c3d

fc.bias f4 [13]
0.32334778 0.2182583 0.20050074 0.21821311 0.1557827 0.34166023 0.15436968 0.2511658
-0.018199958 0.37335652 0.38947043 0.39155903 0.24263212
00000000: d78d a53e 1b7f 5f3e 1150 4d3e 4273 5f3e
00000010: 8085 1f3e 17ee ae3e 1613 1e3e ce98 803e
00000020: 1418 95bc 9628 bf3e ab68 c73e 6d7a c83e
00000030: 8e74 783e
