models/h12_ep30_bs64.pth (torch, 38493 bytes, 6 tensors)

net.0.weight f4 [32, 13, 3]
00000000: e3c3 003f c83e 4f3d d882 0d3d 1e76 2abd
00000010: 7cc1 ff3d a74a 90bd dacb e43d 3445 0ebe
00000020: dac5 23be 0dbd 143e ae25 12bd d8b5 b7bc
00000030: 69c0 da3d 1eb9 023e 2247 0b3e bda9 0ebe
00000040: a25c 18be 02ea 7fbd 8b15 133e 4f4f e3bd
00000050: 7fb0 9bbd 90d2 5e3f 7099 f4bc 2cf6 13be
00000060: b0ef e13c ac1d 133e 6843 d53c ec84 27bf
00000070: 38f8 b2bc 7c28 c73d 4843 943e 4910 94bd
00000080: a6fb 09be 9ba6 aebe 26dc efbd 88fa e2bc
00000090: 44f3 fa3a d04f db3d 60ae 33bd a379 bb3e
000000a0: 29f5 86bd 0067 6cba 637f 1d3e c80e c7bc
000000b0: 7693 233e 2465 863e de38 d2bd 94d2 653d
000000c0: 8f9e 623e 00f1 faba b628 9cbd 0f96 6d3e
000000d0: 28ca a1bc 10cf cc3d 8539 1cbe f825 c43d
000000e0: 0bd6 afbd 2e2d e13d 5a10 183e 2883 b83d
000000f0: f31c 103f cc19 fb3d 1858 edbc b80f f63c
00000100: 08e6 95bc 7bed 9abd 6e99 4dbf 5eb8 51bd
00000110: 003c 87bc 1a53 163f 9f13 a3bd 9513 d7bd
00000120: 6dc1 76be 9136 f9bd be4c 803d 2672 8d3e
00000130: 76d2 b73d 1cab 3e3d 1157 ff3d 5874 6f3d
00000140: e047 5b3c 63ee 88be aa6b 0b3e 0696 163e
00000150: 03cf 4a3d 2b2c d6bd 005c f1bc 504a 80be
00000160: 08b7 3d3d 3ad1 09be 8dc8 39be e6ea bbbd
00000170: 34af fc3d c814 55bd 6550 c7bd 257a 0abe
00000180: ab31 47bf 10c3 a33d 4e4b c0bd 76b6 19bf
00000190: a243 30bd a234 1c3e cc6b 48bd 8170 97bd
000001a0: 4893 02be 6b99 3cbf 8114 81bd 5538 fcbd
000001b0: 1398 553e 4ac8 dbbd d452 0ebe 73b0 013e
000001c0: c000 373d 9921 11be 3caa 2dbe 1014 9ebc
000001d0: bab7 143e 573a d8bd e02c 153d 7c4c de3d
000001e0: 16e9 19bf b029 923d 74d4 4f3d db92 063c
000001f0: 2c44 0b3d f454 46bd 7392 24be 10af 20bc
00000200: 589a 003e dbcc 9dbe 08d7 2b3d 305b e03d
00000210: 319d 12be 90ad 123e 8695 c0bd ed88 203e
00000220: 8d10 11be 4020 103e dbd2 843f 5466 f8bd
00000230: 8ad4 58bd f61d 23bd 1005 b13c e41b 2a3d
00000240: 364d 2fbf 6c50 e5bd cec9 08be 35e6 353e
00000250: d0f3 4ebc 9c22 abbd 1ca9 04be c28f edbd
00000260: 30cf 123c f23d 2c3e 7274 003e d0b3 833d
00000270: b40a ce3d 44b3 9f3d 39e3 c5bd e9cf 7dbd
00000280: d895 323d 8420 43bd b9ac 87bd 385c 883d
00000290: cc81 e53d b21c 213d d0ec 25bd fe03 68bd
000002a0: be83 96bc 207d 5b3d 1777 15be 8b51 16be
000002b0: 70d1 d2bd 2c0b 46bd 02ee 283e cc22 fa3d
000002c0: 8ca8 2f3d 0dca 7a3f 1c2f e03d 0add 0f3e
000002d0: 889a e23d 7ce8 593d 438a 1cbe 775c 243f
000002e0: c4cb 403d d0fc a0bc 91d9 8e3e 1032 ef3d
000002f0: 148e 2e3d 2de8 863d 8410 053e 1a05 55bd
00000300: 9f05 c6bc 30ab dc3d c8ca 123e 95ab 8d3e
00000310: e813 983d 6c8f f93d aeee 96bd b2af 27bd
00000320: 909b 5dbd 01f9 e13d 4984 e8bd 3c1a fa3d
00000330: 371c 53be 10fe bbbd 3a80 073e ec0c 863e
00000340: 70e6 88bc c6d8 fdbd 97e0 0bbe 48bc cebd
00000350: 207c 333c b707 813c c4e0 203e 6846 0b3d
00000360: 40ac 6e3f 5cf5 943d c89f 0b3e e0f3 113e
00000370: e0ba 43bc 2917 13be 7227 0cbf f67a a73d
00000380: 9859 eb3d 17d9 4d3e 646a e13d 4886 133e
00000390: 05e7 d5be 0eb4 003e c0cc f23d 4a2c 203e
000003a0: 94b6 633d aced 033d a7f5 713c c463 0d3d
000003b0: 4cba 22be 6cf8 27be 25ec 0dbe 6677 20bd
000003c0: 9097 82be 2ef6 a53d 27cf 03be 05a1 433e
000003d0: 1d39 00be a6dd f9bd 4998 abba d22c 67bd
000003e0: 642d 443d efe2 e9bd 0e77 093e e4d1 e83d
000003f0: e736 68be fc51 17bd 4d48 b7bd 87cc 873f
0.502989 0.050596982 0.03454861 -0.04161655 0.12488076 -0.07045489 0.11171694 -0.13893586
-0.15993443 0.14525242 -0.035680465 -0.022425577 0.106812306 0.12765929 0.13601354 -0.13931938
-0.14879087 -0.062479027 0.14363687 -0.11099111 -0.07602023 0.8704004 -0.029858321 -0.14449376
0.027580112 0.14366788 0.026033118 -0.654372 -0.021846876 0.09724519 0.28957582 -0.07229669
-0.13474903 -0.34111485 -0.11711912 -0.027707353 0.0019145985 0.107085824 -0.04386747 0.3661624
-0.06589729 -0.0009018034 0.15380625 -0.02429904 0.1597422 0.2624904 -0.10264753 0.056109026
0.22130798 -0.001914531 -0.076249525 0.23201774 -0.019749716 0.100004315 -0.15256317 0.095775545
-0.08585747 0.109949455 0.14849988 0.09009391 0.56294173 0.1226078 -0.02897267 0.030036792
-0.018298164 -0.07564827 -0.8031224 -0.051201217 -0.016508102 0.5872055 -0.07962727 -0.10501782
-0.24097224 -0.12168611 0.062646374 0.2762615 0.08975689 0.0465499 0.124677785 0.058460563
0.013383836 -0.26744375 0.1361529 0.14705667 0.049513828 -0.10457643 -0.029462814 -0.25056696
0.04631713 -0.1345872 -0.1814291 -0.09175663 0.12338105 -0.05202177 -0.09732131 -0.13523157
-0.7781016 0.079961896 -0.09389363 -0.6004404 -0.04303325 0.15254453 -0.048930928 -0.07394505
-0.12751496 -0.736716 -0.06302739 -0.12315432 0.20858793 -0.107315615 -0.13898784 0.12664966
0.04467845 -0.14172973 -0.1695947 -0.019296676 0.14523211 -0.105580024 0.03641975 0.10854432
-0.60121286 0.071368575 0.05073972 0.008213724 0.03400056 -0.04842086 -0.16071491 -0.009807363
0.12558877 -0.30820355 0.041953117 0.10954893 -0.14317776 0.14324021 -0.09403519 0.15677233
-0.1416647 0.14074802 1.0376848 -0.121288925 -0.052937068 -0.039823495 0.02160886 0.041530505
-0.6847719 -0.1119698 -0.13358232 0.17763598 -0.012631372 -0.083562106 -0.12955135 -0.11599685
0.00896053 0.16820505 0.1254442 0.06430781 0.10060635 0.07797864 -0.0966248 -0.061965857
0.043599933 -0.04763843 -0.06624741 0.06658214 0.112063974 0.039334007 -0.040509045 -0.056644432
-0.018373366 0.053586125 -0.1459621 -0.14679544 -0.10293853 -0.048350498 0.16497043 0.12213668
0.04288535 0.97964555 0.109464854 0.14049163 0.11064631 0.05320023 -0.15287118 0.6420359
0.047069326 -0.0196518 0.27900365 0.116794705 0.042615965 0.06587253 0.12994581 -0.05200682
-0.024172602 0.10774839 0.14335167 0.2766997 0.07425672 0.12185559 -0.07369743 -0.04093904
-0.054103434 0.11033822 -0.113533564 0.12212035 -0.20616232 -0.09179318 0.13232508 0.26181734
-0.016711444 -0.12394862 -0.13659893 -0.100945055 0.010954887 0.015750749 0.15710741 0.03400269
0.9323158 0.07273361 0.1363517 0.14253187 -0.01194641 -0.14364304 -0.5474769 0.0817775
0.11491698 0.20102344 0.110066205 0.14406693 -0.41777816 0.12568685 0.11855459 0.15641895
0.055594042 0.032209083 0.014768041 0.034518972 -0.15891379 -0.16403359 -0.13859613 -0.039176367
-0.25506258 0.08103596 -0.12871991 0.19104393 -0.12521787 -0.12200479 -0.0013091649 -0.05643923
0.04789485 -0.11420237 0.13424322 0.113681585 -0.22677194 -0.03694342 -0.08949337 1.0609292

net.0.bias f4 [32]
00000000: e02f af3f a98c 833f a401 a53f 9e1a b13f
00000010: a889 983f 8ee0 a13f 39e3 c33f 996d 823f
00000020: bef1 be3f 62cb 9e3f 655d b33f fb09 9c3f
00000030: 927c be3f c833 ac3f fce1 a53f f2c3 923f
00000040: f114 ac3f 00e0 953f 1373 7d3f 03e4 913f
00000050: d477 843f dfc9 833f 1ce5 ab3f 7e98 9f3f
00000060: 5047 873f 26c3 a33f efde 993f a5e1 a23f
00000070: 64ea 9f3f c604 953f aad9 8c3f c8f4 ab3f
1.3686485 1.0277301 1.2891126 1.3836248 1.1917009 1.2646654 1.5303718 1.0189697
1.4917524 1.2405818 1.4012877 1.2190546 1.4881766 1.3453302 1.295959 1.1466048
1.3443891 1.1708984 0.99003714 1.1397709 1.0349069 1.0295981 1.3429294 1.2468412
1.0568638 1.279393 1.2021159 1.2725111 1.2493405 1.1642082 1.1003926 1.3434076

net.2.weight f4 [64, 32, 3]
00000000: ef9c 283f 7cbe 743d 279f 7bbd 922d 1e3f
00000010: 400d 7b3c 6cfe e2bc 0b50 263f 9cd2 2c3d
00000020: 284b d0bd 2085 353f 90c5 e53c 04d9 96bd
00000030: 46c3 0d3f 98ff 983d ba79 cebd 3dca 153f
00000040: 34e1 243d 50a2 873c 5917 493f 12ff c63d
00000050: bc30 87bd a07d 313f dcfe 60bd 9044 2ebc
00000060: 6301 393f 58d3 853d 9884 12bc 39aa 253f
00000070: 0d9e 91bd 1870 eabc f46e 463f 075d 69bd
00000080: e788 7bbd ded2 303f b85d 87bd 0cc4 2b3d
00000090: cf5a 493f 2c11 253d 1ebc 983d 4a84 063f
000000a0: 0441 3e3d e079 8d3b c746 403f d06c 9b3d
000000b0: 7471 32bd 76b3 123f e2ad 943d 0030 5fbb
000000c0: f4cc 093f 0828 bebd 003f a63a b372 3d3f
000000d0: e673 8a3d 18fd 303d 7889 493f f057 c93c
000000e0: 6c78 68bd b77a 0e3f 75ed acbd c42b 1abd
000000f0: 34b3 393f a906 24bd 61bd 5abd 8c63 413f
00000100: 30ae 073d 4004 2cbc 0bd8 373f 303c 20bd
00000110: 781d b13d bbd9 553f 3035 343d 904f 283d
00000120: 056f 0a3f 48f5 9c3d 1e98 ad3d 90de 3f3f
00000130: 4243 cf3d 90fe 5b3d e241 373f b879 963c
00000140: 3032 04bc 40c5 463f 18fc 5a3c 849e 623d
00000150: ee44 393f 748c 883d 00af 65ba 00f5 063f
00000160: 6815 e2bc 44b6 2abd 7abb 1d3f d0b3 6d3c
00000170: f467 3c3d ee2f 2f3f c000 e5bb 3298 8cbd
00000180: cd7c 103f 4035 51bb 7af5 a2bd dc6b f83e
00000190: e03c b6bb 2ab0 59bd 209c 383f c5d4 2abd
000001a0: f0af 953d 2b4d 313f 6066 963c 1cc1 0fbd
000001b0: 7e7a 423f 189b 423c 5ad9 a9bd 254c 273f
000001c0: 5627 a8bd 8822 3b3d 36ec 5f3f 9c91 80bd
000001d0: 26b4 b03d f1c8 fd3e a417 993c 41b9 57bd
000001e0: ca7a 353f a801 963d d02d c5bc 7c16 453f
000001f0: c041 cabd 6c13 f7bc 8eb9 543f 40a7 8a3d
00000200: 54ae 483d cbcc 233f 6697 cdbd 8254 c63d
00000210: 6792 583f 944b 7abd 38ec 3a3d a5b6 2b3f
00000220: 6b88 d0bd 729e 983d 1045 483f 62e0 97bd
00000230: 96f6 993d adaa 293f 723c b9bd ae31 833d
00000240: 25dc 153f 9c21 d9bc e446 883d 9646 4e3f
00000250: a43f 173d d47c a13d c06a 293f b41e c4bc
00000260: 5cba cf3d dd26 2b3f 160a 94bd e083 8f3d
00000270: 031a 1d3f 7463 b6bd b00c 9e3b b6a1 3b3f
00000280: ce6b c83d 0010 443d 3dc5 4e3f cce2 2cbd
00000290: 41d8 c8bd a484 403f 3817 dd3c 84cf b53c
000002a0: 2797 2d3f 64b1 c53d 3b48 b1bd 3bf6 453f
000002b0: 466d cd3d 9070 663d 2bf2 573f 5a0f 953d
000002c0: 568b 4abd 0cfa 343f 00b8 17b8 8ec6 ae3d
000002d0: fe3c 063f 4af7 50bd e806 373c 5cba 2d3f
000002e0: 88a9 763d dcb7 d6bc cd80 293f 4f13 3dbd
000002f0: 2404 293d 203c 243f a208 d03d 50d4 60bc
00000300: ffca 163f b8cc 9bbc a849 a2bd e5f2 163f
00000310: c848 503d 79ca 96bd 6d79 233f 8057 59bd
00000320: acb9 8fbd 9874 363f 8a90 cbbd 201c ff3b
00000330: bdb0 2d3f 3071 82bc 3a64 0dbd 23de 353f
00000340: 18bd 493c 9022 12bd 6b44 6e3f e4d5 6a3d
00000350: b4fa afbd 1676 c03e 08d6 943d 00a7 3aba
00000360: 5646 373f bc6e 9bbc 125b 22bd 2253 2e3f
00000370: 6f4f 51bd 362d a23d 708c 7d3f 60b2 b6bd
00000380: 2012 963c 7e26 373f d014 bd3d f8b8 bd3c
00000390: 18d7 4a3f 2cdf 6f3d 0867 8b3c 3513 203f
000003a0: 7212 40bd 5cb4 a33d dda6 443f 9479 803d
000003b0: 7249 65bd ab67 313f c020 ae3a 05fb ccbd
000003c0: a444 223f fb2d 88bd c84b 20bd 63a4 6a3f
000003d0: 0fd3 5dbd 0ce4 773d 6f32 363f e016 b33d
000003e0: 7818 553d 7ae8 fb3e 00b2 793d 9fef 6bbd
000003f0: 4111 0e3f 7413 4abd 387d 7a3d c50b 453f
0.6586446 0.059751973 -0.061431076 0.61788285 0.015322983 -0.027709208 0.64965886 0.04219304
-0.10170585 0.7090626 0.028048307 -0.07365611 0.5537609 0.07470626 -0.10081811 0.58511716
0.040253833 0.016556889 0.7855125 0.097166196 -0.06601092 0.69332314 -0.054930553 -0.010636464
0.7226774 0.06534451 -0.008942746 0.64712864 -0.07110224 -0.028617904 0.7751305 -0.056973483
-0.061409857 0.6907176 -0.06609672 0.04193501 0.7865419 0.04029958 0.074577555 0.5254561
0.046448722 0.004317507 0.75108 0.07589114 -0.04356523 0.57305086 0.07259728 -0.003405571
0.5382836 -0.09284979 0.001268357 0.7400314 0.06760387 0.04321012 0.78725386 0.024578065
-0.05675547 0.55656 -0.08443729 -0.037639394 0.7253907 -0.040045414 -0.053403262 0.7554252
0.033125103 -0.01049906 0.7181403 -0.0391199 0.08648199 0.83535355 0.043996036 0.0410915
0.5407565 0.07663971 0.0847628 0.7494898 0.1012025 0.053709567 0.71584904 0.018368587
-0.008068606 0.7764473 0.013365768 0.055326954 0.72370803 0.06667414 -0.0008761734 0.5271759
-0.027598098 -0.04167773 0.6161419 0.014508203 0.045997575 0.6843251 -0.006988615 -0.068649665
0.5644043 -0.0031922609 -0.07956977 0.4851979 -0.005561456 -0.05314652 0.7211323 -0.04170682
0.07308948 0.69258374 0.018359363 -0.035096273 0.7596816 0.011877798 -0.0829341 0.6535056
-0.08210628 0.04568723 0.87469804 -0.06277773 0.086281106 0.4956737 0.01868803 -0.052666906
0.70890486 0.07324535 -0.024069697 0.76987433 -0.09875822 -0.030160628 0.83095634 0.06770182
0.048994377 0.63984364 -0.100386426 0.09684087 0.8459839 -0.061107233 0.045635432 0.6707557
-0.1018227 0.07452096 0.7823038 -0.074158445 0.07517736 0.66276056 -0.09044732 0.0640596
0.5853904 -0.026505284 0.06654146 0.80576456 0.036925927 0.07885137 0.6617851 -0.023940422
0.10142967 0.66856176 -0.07228486 0.07007575 0.61367816 -0.08905688 0.00482329 0.73293626
0.09786187 0.04786682 0.8076971 -0.042208478 -0.09806872 0.75202394 0.02698861 0.022193678
0.67808765 0.09652975 -0.08656355 0.7732884 0.10030608 0.05625969 0.84353894 0.07278319
-0.049449287 0.7069404 -3.617257e-05 0.08533965 0.52436817 -0.051017083 0.01117108 0.67862487
0.06022027 -0.026210718 0.6621216 -0.046160992 0.041263714 0.64154243 0.101578966 -0.013722494
0.589035 -0.019018516 -0.07924205 0.5896438 0.05085066 -0.07362837 0.63857156 -0.053061962
-0.07017836 0.7127166 -0.09939678 0.007785335 0.67847806 -0.015923113 -0.03451941 0.7104208
0.01231315 -0.035677493 0.9307315 0.05733289 -0.0859274 0.37590092 0.07267386 -0.0007120222
0.715917 -0.0189737 -0.039637633 0.680956 -0.051101144 0.079187796 0.99042416 -0.08920741
0.01831919 0.7154311 0.09232485 0.023159489 0.79234457 0.058562443 0.017016903 0.6252931
-0.04689259 0.07993385 0.76817113 0.06273189 -0.055978246 0.6929881 0.0013284907 -0.10008816
0.6338599 -0.06649395 -0.03913477 0.91657084 -0.05415636 0.060520217 0.71170706 0.087445974
0.05202529 0.49200803 0.06096077 -0.057601567 0.5549508 -0.04933496 0.061154574 0.76971084

net.2.bias f4 [64]
00000000: 1692 3d3f 048c 473f fa48 4d3f 2145 adbd
00000010: 523c 7bbd 45ab 673f 3241 19bd c0c6 573f
00000020: a900 73bd 105d 653f 3c1c e6bb 13ac 5c3f
00000030: 9711 4f3d 1d1c 24bd 531f 4c3f 87de 3dbc
00000040: 4189 eabd a5d5 553f 6849 46bd b0f7 d83f
00000050: e400 533f cfa8 0d3e 4c34 523f 501c 463f
00000060: f56c 94bc cef0 453f 24fb 543f e6e6 86bd
00000070: 4cb2 5a3f b617 5dbd 9bcd 483b 0ad2 603f
00000080: 559a 593f 71e2 593f 3984 3e3f eaf6 3d3f
00000090: e10e c93f 1d10 383f fc44 4f3f 2702 e6bd
000000a0: 0e45 423f ead5 613f c7fd 663f 1557 fabd
000000b0: c82a b43c 799a 373d 859a 6f3f 2314 623f
000000c0: d210 433f 491a 81ba 691a 413f 8985 353f
000000d0: b588 643f c3fd 573f 722e 403c 1236 34bd
000000e0: 226c 6a3f 4cda 8f3d 005b 413f 18ec 573f
000000f0: 95e7 febd 0d23 503f 5014 4c3f 97e9 913f
0.74051034 0.7794802 0.8018948 -0.08460451 -0.061336823 0.9049571 -0.03741569 0.84287643
-0.0593268 0.8959513 -0.007022409 0.86200064 0.050553884 -0.040065873 0.79735297 -0.011588699
-0.1145196 0.8352912 -0.04840985 1.6950588 0.82423234 0.13833927 0.8211105 0.7738695
-0.018118361 0.77320564 0.8319571 -0.06587009 0.8542831 -0.05397769 0.0030640129 0.87820494
0.85001117 0.8511115 0.74420506 0.74204886 1.5707666 0.71899587 0.80964637 -0.11230879
0.7588662 0.8821703 0.90230983 -0.12223641 0.021993056 0.04482505 0.93595153 0.88311976
0.7619754 -0.0009849753 0.75430924 0.70906883 0.892711 0.84371585 0.011729823 -0.043996878
0.9157125 0.07024059 0.7552948 0.84344625 -0.124465145 0.81303483 0.79718494 1.1399411

fc.weight f4 [13, 64]
00000000: 94e6 113d 62b0 b4bd 5aa7 2c3e be57 6f3d
00000010: a018 343d 503c 45bd 9acf 8f3c f266 7a3d
00000020: 6560 e63d ecf2 d53d bd0a 023e a03b 4bbd
00000030: aeba 0f3e 3f31 b2bd d444 353e 15eb bc3d
00000040: 626d 38bb de80 183e 8fa6 a23d 0a09 7b3e
00000050: 6a38 033e 9381 90bd 5e7b 7cbd fd45 85bc
00000060: a801 ffbc e7e3 833d 24e6 0dbd ee8a 02bd
00000070: f498 18bd 9281 84bb ecc4 66bb d6bf 9abd
00000080: 9d1e 10be adcb 563d 8d45 253a 9b4a 6c3c
00000090: f4ed 413e aa77 04bc a8b0 1bbb 5b05 c93d
000000a0: 5228 9cbd e1aa 3a3b 12e9 003e 5834 7c3d
000000b0: 15a3 0c3e 4c3b aa3d d02a 77be db6a bebc
000000c0: ec54 e53d 803e ea3d 2dd0 833c 40c6 7e3d
000000d0: 41fa b4bd 3423 0c3e 8735 133e bf09 d4bd
000000e0: 7e5b 463d b357 40bc a790 c13d b7a8 333d
000000f0: 57f3 ec3d aff0 ae3b 9697 d1bd 1c5d 7dbc
00000100: f6b9 173e 9354 53bd f541 efbc 60b1 b7bb
00000110: bae9 b9bd b809 cf3c d8b0 db3d d4e7 cc3d
00000120: aa88 9d3c e3f1 103e 2d93 4b3d 9ef2 eeb9
00000130: 0e8b 0abc 97f7 36bb 1616 f1bc 864f c93c
00000140: b086 3fbd 0011 c23d 6457 c8bd 398f af3e
00000150: d3b0 843b 65f4 30bd 17f7 dc3c 5ebd 2fbd
00000160: fd93 dd3d 9f5c db3d bc35 ca3d 54f7 6d3d
00000170: b5e5 8f3c 9858 163d 1ea3 0f3e 4748 d0bd
00000180: b5fe 21bd aa3b 983d 905a 87bd 2414 f43d
00000190: 6519 663e 74c7 89bc 2966 80be 4dcd 053d
000001a0: 5696 c8bd 20ab a73d da6f 84bd c2f2 8c3d
000001b0: 2805 1a3b 3155 f13c 849c 55bd b88e 9bbd
000001c0: 5260 9e3d 5fdf c1bd 5fb1 f23d c829 02bc
000001d0: 4a06 5b3c 8530 8d3d feb8 febb 5875 cfbd
000001e0: 0113 2dbc 237d 14bd 30ad c13d 4ba1 b9bd
000001f0: b4af 89bc bd40 a03d fe17 b23d a898 61bc
00000200: d4f1 a6bd 583e 633d ec37 5f3e 89e3 d93d
00000210: bce8 b33d c189 ac3d 98b1 863d a19b fb3c
00000220: 2a30 6abc d7a5 463e 4544 9bbc 10e5 e73b
00000230: 9126 963d ea35 6b3d 8855 2a3e 7802 9abd
00000240: 4379 523d 9fb8 5d3e 667f c03d 1e38 dbbd
00000250: 1cf1 3dbd 2b68 943f 8eff aebc acd1 25bd
00000260: 206f ee3d 2905 0a3d 93e1 453e cb08 61bc
00000270: d0cb c03d 9b13 353b 1090 e43d d52e 3b3d
00000280: d2c0 c53d 785d a23d ab25 e33c efa8 573e
00000290: 5f8a 4fbe 513d 603e f90b 38bd eba4 a4bd
000002a0: b4ce 263e b988 e33d baed 68ba abe6 013e
000002b0: 40e7 033e bca9 833c cb8f 52bd 38e9 983c
000002c0: be6f b6bc 91a8 73bc b14c 683d 0155 043c
000002d0: 960f 1f3e e858 3a3e 1040 80bd 0e55 c23d
000002e0: 0d64 0ebc c937 b93c 636e a23c 05ce 8abb
000002f0: f83b a43b 4907 ad3d 52e5 353d 9c6f 41be
00000300: bd55 873d 10d5 c83c 9c67 923d a156 093e
00000310: 9c9e a83d 6eef 123e 393c 853d df5b a63d
00000320: 9f09 dfbd 89ad 87bd 5938 f63d b0bf 70bc
00000330: 3730 1abd a814 b2bd b161 e5bc 6b1d 4abd
00000340: 7c06 093e ee46 c23d c2f5 aaba 6ffc 55be
00000350: e509 153c 19c7 213f 1019 b6bd c92c 0ebd
00000360: d6f6 303d 7d86 78bd 1d1e e2bd 4f7c db3d
00000370: 039c 5c3d 46d5 8bbd c1a2 dfba cd0f c3bb
00000380: f978 993c c990 81bd 5e44 143e ded3 71bd
00000390: c1e1 253e 4519 233d 4b32 9fbd 70c1 11bd
000003a0: 3b3f f1bc c5dc e33d 70b3 f33c b044 a93c
000003b0: aa6e acbd 0c46 0a3e 42be 37be a0be da3d
000003c0: 2018 873c 91ef debd 4d64 a43d df97 973d
000003d0: bd43 24bd 1677 0dbd dfcc 8d3d b0fd d8bd
000003e0: dec8 df3d 2f87 043e 2581 a3bc b140 0a3d
000003f0: 6193 b83d 5c35 d9bd d28c 2d3b bcda 0f3e
0.035620287 -0.08822705 0.16860715 0.058433287 0.043968797 -0.04815322 0.017555047 0.061133333
0.112488545 0.10446724 0.12699409 -0.04961741 0.14036056 -0.08700799 0.17702037 0.09224526
-0.002814137 0.14892909 0.07941925 0.24515167 0.12814489 -0.07055964 -0.06164109 -0.016268725
-0.03112872 0.06439953 -0.034643307 -0.031870775 -0.037255242 -0.0040437663 -0.003521259 -0.07556121
-0.14074178 0.052440334 0.00063046144 0.014422084 0.18938428 -0.008085171 -0.0023756418 0.098154746
-0.07624878 0.00284832 0.1258891 0.061573356 0.13734086 0.08312091 -0.24137425 -0.023244312
0.11197838 0.11437702 0.016090477 0.062200785 -0.08836795 0.13685304 0.14375888 -0.103534214
0.048427097 -0.011739659 0.09451418 0.04386207 0.11569851 0.0053387503 -0.10233991 -0.015464094
0.14817032 -0.051594328 -0.029206255 -0.0056058615 -0.09077783 0.025273189 0.1072709 0.10005155
0.019230206 0.14154772 0.049700905 -0.0004557566 -0.008456005 -0.002791857 -0.029429477 0.024574053
-0.046759307 0.09475899 -0.097822934 0.34288958 0.0040493994 -0.043201823 0.02697329 -0.042905204
0.10819242 0.107110254 0.0987353 0.0580972 0.017565588 0.036705583 0.14027068 -0.10170036
-0.03954955 0.07433255 -0.0660907 0.11917904 0.22470625 -0.01681874 -0.25077942 0.032666493
-0.09794299 0.081869364 -0.064666465 0.0688224 0.0023501609 0.029459568 -0.052151218 -0.07595581
0.077332154 -0.09466433 0.11850237 -0.007944532 0.013368199 0.0689402 -0.0077735176 -0.101298034
-0.010563613 -0.036252152 0.09456861 -0.09063967 -0.016807415 0.07824848 0.086959824 -0.013769306
-0.08151594 0.055479378 0.21798676 0.10639102 0.08784625 0.08424712 0.06576842 0.030713858
-0.01429371 0.193992 -0.018953452 0.007076867 0.07331575 0.057424463 0.1663419 -0.07520002
0.051385175 0.21652459 0.09399299 -0.10704063 -0.046372518 1.159429 -0.021362092 -0.04048316
0.11642289 0.033696327 0.19324331 -0.013735007 0.09413874 0.0027630094 0.1116029 0.04569896
0.09655918 0.07927984 0.027727922 0.21060537 -0.20267628 0.2189839 -0.044933293 -0.08039268
0.16289788 0.11110062 -0.00088855217 0.12685649 0.12881184 0.016072147 -0.051406663 0.018665895
-0.02227008 -0.014871732 0.056713764 0.008076907 0.1553329 0.18197978 -0.06262219 0.09488879
-0.008690846 0.022609608 0.019828027 -0.004235985 0.0050120316 0.08448655 0.04440815 -0.18890232
0.0660815 0.024515659 0.07148668 0.13411953 0.08233377 0.14349148 0.06505627 0.08122992
-0.10890507 -0.06624896 0.12022466 -0.014694139 -0.037643638 -0.08695346 -0.028000684 -0.04934446
0.1338138 0.09486185 -0.0013043212 -0.20897077 0.009096597 0.63194424 -0.08891499 -0.03471068
0.04320415 -0.060675133 -0.110409 0.10717069 0.053859722 -0.06827788 -0.0017062054 -0.0059528113
0.018734442 -0.06326444 0.14479205 -0.059039943 0.161994 0.03981902 -0.077732645 -0.035584867
-0.029449096 0.11126093 0.029748648 0.020662636 -0.08419545 0.13503283 -0.17943671 0.1068089
0.016490996 -0.108855374 0.08026943 0.07402014 -0.040103663 -0.034537397 0.06923842 -0.10595262
0.10926984 0.12942193 -0.019959042 0.0337531 0.09012485 -0.106058806 0.002648164 0.14048284

fc.bias f4 [13]
00000000: 764a e43e c7d6 943e 7acf a93e 3b21 133e
00000010: f95a a73e e362 b13e 661f b63d 5c62 da3e
00000020: 0a71 7cbc 591f ae3e 824f 693e 1114 cb3e
00000030: cb12 993e
0.4458806 0.29070112 0.33166105 0.14368145 0.32686594 0.34645757 0.088927075 0.42653167
-0.01540781 0.3400829 0.22784236 0.39663747 0.2989715
