models/h12_ep30_bs128.pth (torch, 38505 bytes, 6 tensors)

net.0.weight f4 [32, 13, 3]
0.45175716 0.14277795 0.052706167 0.09388907 0.039255634 0.06867503 0.13144857 0.14030632
-0.09979126 0.077804826 -0.031728655 -0.010435507 0.24482237 0.08033636 0.07423955 -0.22497672
-0.13326429 -0.0038531572 -1.2699665 -0.033341274 0.00732401 -1.3810937 -0.009352058 0.13771743
-0.0067507774 -0.14927556 0.1484774 -0.06489992 -0.12400581 0.019680038 0.48948884 0.1058785
0.09444827 0.17460884 -0.007890955 0.15347248 -0.7427933 0.10616073 -0.13102393 -0.23600009
-0.15570788 -0.050509207 -0.3913831 0.08705594 0.043628097 0.222945 -0.07544824 -0.098729886
-0.24232249 0.13068557 -0.025416479 -0.35408598 0.11102936 0.09040344 0.6000019 -0.07179134
-0.115113616 0.26130348 0.024393246 -0.049925305 1.1997607 -0.02512832 -0.10132067 0.1398085
0.097863436 -0.073372066 -0.3197475 -0.10279684 0.12998822 0.013477174 0.050529316 -0.01773107
0.09347028 -0.07899609 -0.10522354 0.89845675 -0.054779768 0.11754468 0.36914256 -0.07509743
-0.0073460042 -0.1345761 -0.07695106 0.11648786 -0.4631424 -0.08636008 -0.00018878281 -0.14237584
0.10889149 0.1579211 -0.17177533 0.14743352 -0.024357945 -0.18045858 -0.0018381476 -0.049845494
-0.33759767 0.15815565 0.083477676 -0.4997415 -0.093539536 -0.09188353 0.14258093 -0.085934974
-0.13947879 0.46670347 -0.036407135 0.093104035 0.31282648 -0.114345275 0.0904071 -0.20422715
-0.082776986 0.1166085 0.27381474 -0.098744914 -0.09784241 0.54631984 0.0016306341 0.07343455
-0.16210586 -0.04567609 0.1070331 -0.5610878 -0.02851431 0.14518553 0.19330566 0.08695078
-0.13886203 0.033333566 0.028501466 -0.05743421 -0.5363191 -0.052524522 -0.06946624 -1.221187
0.08391233 -0.001585424 -1.2816026 0.10597584 0.004683301 -0.12251401 -0.033483565 -0.15484074
-0.70167583 -0.06363535 0.085672826 0.40927267 0.119226545 0.08488938 0.16766393 0.05465454
0.13015845 -0.5794923 -0.010536507 -0.084319204 0.33336875 0.14331457 0.008589715 0.08952329
-0.000587821 -0.07373989 0.1275855 -0.11180468 0.0114914775 0.3330441 -0.043637693 -0.03694468
0.37472254 0.07292125 0.12569228 0.06084199 -0.08875368 -0.084835134 -0.07352373 -0.13967192
-0.0016941279 0.15836251 0.13486221 -0.03678529 0.031408206 -0.06417902 -0.051936552 0.8903687
-0.0782272 -0.053024136 0.33485126 0.06987919 0.053501323 0.14382719 -0.0020554364 0.14560437
0.13505663 -0.013817117 0.11281976 -0.24095678 -0.052820742 0.042302266 -0.33029884 -0.08608839
0.07648064 0.37123665 0.12975478 -0.0956346 0.15444458 -0.085862935 0.0005851537 0.41697252
-0.07647554 -0.06500216 0.46687457 -0.115812 -0.054469384 0.4019581 -0.15778077 0.13467127
1.3816807 0.11921924 0.07181735 -0.06860482 0.026317433 0.114498734 -0.22640814 -0.09859672
-0.110878415 -0.1932748 -0.11404986 -0.09162407 -0.30389386 -0.12253913 -0.018518701 0.7616197
-0.102163434 -0.037272736 0.032195996 0.00940083 0.11803377 -0.050697006 -0.05900245 0.11089465
-0.34437308 0.07244831 -0.058426045 -0.2321466 0.1510405 -0.12251538 -0.29311427 0.042908758
0.15595475 -0.26247656 -0.044577435 -0.01981397 0.018882427 -0.1570041 -0.13798216 0.5782261
00000000: b74c e73e 6234 123e 6ce2 573d ea48 c03d
00000010: 84ca 203d 7ea5 8c3d 749a 063e 76ac 0f3e
00000020: 5c5f ccbd 2358 9f3d e8f5 01bd b0f9 2abc
00000030: b7b2 7a3e 6487 a43d e80a 983d 4c60 66be
00000040: 6f76 08be 4085 7cbb 438e a2bf dc90 08bd
00000050: 40fe ef3b aec7 b0bf 6039 19bc cc05 0d3e
00000060: a035 ddbb b1db 18be 760a 183e 40ea 84bd
00000070: c2f6 fdbd 0838 a13c 489e fa3e d4d6 d83d
00000080: 186e c13d a9cc 323e 1049 01bc e427 1d3e
00000090: b427 3ebf cc6a d93d 232b 06be 02aa 71be
000000a0: e371 1fbe bee2 4ebd 5e63 c8be 624a b23d
000000b0: 60b3 323d b24b 643e 9b84 9abd e532 cabd
000000c0: 6323 78be 70d2 053e 3836 d0bc c24a b5be
000000d0: 5c63 e33d 7025 b93d b999 193f 5707 93bd
000000e0: b0c0 ebbd 92c9 853e 58d4 c73c 7a7e 4cbd
000000f0: c291 993f e8d9 cdbc 3681 cfbd f629 0f3e
00000100: a06c c83d 1844 96bd f2b5 a3be 2687 d2bd
00000110: a21b 053e 5dcf 5c3c d4f7 4e3d c040 91bc
00000120: 596d bf3d b4c8 a1bd 707f d7bd 4301 663f
00000130: c060 60bd 44bb f03d 4100 bd3e aecc 99bd
00000140: c0b6 f0bb 51ce 09be 8498 9dbd 3091 ee3d
00000150: 0021 edbe 8edd b0bd 00f4 45b9 f9ca 11be
00000160: 8002 df3d 12b6 213e dfe5 2fbe d0f8 163e
00000170: 508a c7bc 22ca 38be 00ee f0ba ca2a 4cbd
00000180: 9ad9 acbe 8ef3 213e 58f6 aa3d 1ede ffbe
00000190: a891 bfbd 6f2d bcbd bc00 123e adfe afbd
000001a0: 87d3 0ebe c2f3 ee3e a61f 15bd 54ad be3d
000001b0: cb2a a03e db2d eabd 5c27 b93d ec20 51be
000001c0: fb86 a9bd 70d0 ee3d 7231 8c3e c63a cabd
000001d0: 9a61 c8bd 9edb 0b3f 00bb d53a da64 963d
000001e0: 14ff 25be da16 3bbd 2c34 db3d 73a3 0fbf
000001f0: d896 e9bc 84ab 143e ebf1 453e 4013 b23d
00000200: d931 0ebe c788 083d e87b e93c 2240 6bbd
00000210: 354c 09bf f423 57bd 5144 8ebd db4f 9cbf
00000220: 3ada ab3d 00ce cfba 8e0b a4bf dc09 d93d
00000230: 6076 993b a0e8 fabd 1026 09bd 928e 1ebe
00000240: 07a1 33bf 4053 82bd 3c75 af3d 308c d13e
00000250: 0c2d f43d 7cda ad3d 18b0 2b3e 70dd 5f3d
00000260: 4248 053e 9b59 14bf 50a1 2cbc 8caf acbd
00000270: 4faf aa3e 0ec1 123e e0bb 0c3c fd57 b73d
00000280: 0018 1aba f004 97bd c6a5 023e daf9 e4bd
00000290: c046 3c3c c284 aa3e 70bd 32bd 4e53 17bd
000002a0: a2db bf3e bc57 953d 7ab5 003e 7335 793d
000002b0: 7dc4 b5bd 0bbe adbd 9c93 96bd 2806 0fbe
000002c0: 800d deba c829 223e 5219 0a3e 2cac 16bd
000002d0: e4a5 003d 4a70 83bd 6cbb 54bd 34ef 633f
000002e0: 9535 a0bd d62f 59bd a071 ab3e d21c 8f3d
000002f0: 3424 5b3d 6f47 133e 80b4 06bb 5019 153e
00000300: 494c 0a3e 3061 62bc 0c0e e73d 60bd 76be
00000310: 905a 58bd 2445 2d3d ee1c a9be 1c4f b0bd
00000320: e2a1 9c3d bb12 be3e 70de 043e 13dc c3bd
00000330: b826 1e3e e8d8 afbd 0065 193a 6c7d d53e
00000340: 359f 9cbd da1f 85bd 2f0a ef3e d82e edbd
00000350: 4a1b 5fbd 74cd cd3e 4891 21be 44e7 093e
00000360: eada b03f 3829 f43d fa14 933d af80 8cbd
00000370: a897 d73c 507e ea3d 89d7 67be 14ed c9bd
00000380: 3914 e3bd d4e9 45be f992 e9bd 67a5 bbbd
00000390: fa97 9bbe ccf5 fabd 88b4 97bc 82f9 423f
000003a0: 103b d1bd 4cab 18bd f3df 033d f005 1a3c
000003b0: b0bb f13d aaa7 4fbd 8eac 71bd bc1c e33d
000003c0: ab51 b0be c85f 943d 2650 6fbd d7b7 6dbe
000003d0: 5caa 1a3e 58e9 fabd 1313 96be 18c1 2f3d
000003e0: 9ab2 1f3e 5463 86be d496 36bd e850 a2bc
000003f0: 52af 9a3c afc5 20be 324b 0dbe a006 143f

net.0.bias f4 [32]
1.2521535 1.0308948 1.1465199 1.1923633 1.2987235 1.0438558 0.9515948 1.1403275
0.8620923 0.9494042 1.0119137 0.91458124 1.1284654 1.1026144 0.97828513 0.99328023
0.8657275 0.99918187 1.0102363 1.1935698 0.95683426 0.9673637 1.2180796 0.9425209
0.95834446 1.0975357 1.1011368 1.1295235 0.9415397 1.2540439 1.132713 1.2264669
00000000: 9146 a03f 5cf4 833f 2ac1 923f 5c9f 983f
00000010: 923c a63f 119d 853f b89b 733f 40f6 913f
00000020: 15b2 5c3f 270c 733f 6386 813f ff21 6a3f
00000030: 8e71 903f 7822 8d3f e570 7a3f 9d47 7e3f
00000040: 51a0 5d3f 62ca 7f3f 6c4f 813f e5c6 983f
00000050: 17f3 743f 26a5 773f 08ea 9b3f 0d49 713f
00000060: 1056 753f 0d7c 8c3f 0df2 8c3f 3a94 903f
00000070: bf08 713f 8384 a03f bdfc 903f defc 9c3f

net.2.weight f4 [64, 32, 3]
0.7463382 0.011188604 -0.0678388 0.63293946 0.09574109 0.0027572438 0.63479435 0.08445802
-0.011774309 0.9759287 0.011799179 -0.043716647 0.57527554 -0.091348596 0.046834722 0.5814299
0.080596104 -0.027826875 0.6159798 -0.034643866 -0.040725123 0.76932776 0.08656098 0.012721382
0.48637432 0.037289828 0.08927281 0.48232806 0.0033373013 0.037150547 0.59541434 0.015473016
0.01088801 0.74118495 -0.087565385 0.043819383 0.7057023 0.07111715 0.07786879 0.61482644
0.07347502 0.08279085 0.45875534 -0.07423895 -0.080928095 0.77388126 -0.059649404 -0.0027469844
0.45758313 0.025616392 0.06607813 0.53918266 0.025940046 -0.0013153628 0.57413554 -0.032767214
0.071589574 0.43055254 0.011534065 0.0021186322 0.67324543 0.06656706 -0.070913434 0.51525295
-0.08804614 -0.0055638626 0.44506955 0.0705017 0.01057215 0.519563 -0.042278364 0.029697627
0.572655 -0.0627068 0.039996013 0.7710881 0.058581874 -0.096091464 0.55356616 -0.015049562
0.07901245 0.79410267 -0.0760586 0.055426642 0.703009 -0.094649374 0.031796664 0.6640037
-0.071645364 0.031656966 0.4825994 -0.06974381 -0.033300087 0.48442948 -0.03919469 -0.020786427
-0.0045862156 0.025803074 -0.098697335 -0.10298145 -0.053920288 0.08790597 0.012238823 0.07563642
0.016887337 -0.028385926 0.03044489 0.009378284 0.025628174 -0.04225447 0.07218219 0.061540887
0.06280288 -0.025827914 0.037551437 -0.04738452 0.036246583 -0.07157866 0.014531255 -0.03171751
-0.108237125 0.07346903 -0.055903807 -0.04186384 -0.05434487 0.018513165 -0.09476391 -0.06571888
0.049206212 0.001163104 -0.02341611 -0.02055657 -0.10690395 0.09536281 0.025836423 -0.029978879
0.07603873 0.05380918 -0.030667765 0.055515736 -0.0020559356 -0.06659905 -0.0507472 0.0252458
-0.087363906 -0.040496875 0.027463123 -0.032393496 -0.070820995 -0.04595591 -0.09230207 0.05044794
0.09040873 -0.102515 -0.007372685 0.08746919 -0.09277479 0.043931603 -0.013000242 -0.08203088
-0.0686675 0.10160124 0.05579391 -0.009923026 0.0773752 0.054141667 -0.09659792 0.06592934
-0.014320539 -0.031099655 -0.055635434 0.09321963 0.027538285 0.025419787 -0.0013572893 -0.021872342
-0.07293982 0.0014930293 -0.025835246 0.03682004 0.0018082815 -0.07064965 -0.09942015 0.0558136
0.027823731 0.048478752 -0.013338785 0.0979736 -0.078782625 -0.10737888 -0.066388324 -0.066625446
0.86316335 -0.05877189 -0.015073322 0.58436376 0.08566694 -0.0475604 0.652193 -0.049386423
0.09492676 0.77326816 -0.086697675 0.0052056387 0.6580636 0.017161414 0.022194207 0.64827657
0.041628465 0.008981429 0.577605 -0.05903547 0.034158826 0.86657786 0.056392 0.05174738
0.5585189 0.096999764 -0.08873563 0.6405971 0.091799304 -0.027499273 0.78435796 0.0010638982
0.051566467 0.55730903 0.016838819 -0.011358909 0.76404935 0.02255512 -0.09055475 0.7352405
-0.095781215 -0.07284929 0.6359688 0.09756759 -0.04120886 0.5659466 0.06731984 0.08823751
0.48535722 0.061257973 -0.012769587 0.6785503 -0.005075142 -0.06579645 0.4429115 0.031026065
0.017651103 0.6552229 0.023844302 0.004910551 0.53588814 -0.079761036 0.0730117 0.60148525
00000000: 0510 3f3f 6850 373c 12ef 8abd 5208 223f
00000010: e813 c43d e0b2 343b e281 223f 54f8 ac3d
00000020: 08e9 40bc 77d6 793f 5851 413c 3a10 33bd
00000030: 4245 133f f914 bbbd c4d5 3f3d 97d8 143f
00000040: 920f a53d 30f5 e3bc dab0 1d3f bae6 0dbd
00000050: 63cf 26bd aaf2 443f e246 b13d 586d 503c
00000060: 0e06 f93e 38bd 183d aad4 b63d b4f3 f63e
00000070: a0b6 5a3b 2c2b 183d 136d 183f 8882 7d3c
00000080: a063 323c 4cbe 3d3f 7b55 b3bd f47b 333d
00000090: e8a8 343f dea5 913d ac79 9f3d 4465 1d3f
000000a0: 127a 963d 408e a93d fbe1 ea3e 970a 98bd
000000b0: a1bd a5bd 151d 463f ef52 74bd c006 34bb
000000c0: 5648 ea3e 78d9 d13c f853 873d e007 0a3f
000000d0: 3880 d43c 4068 acba 8cfa 123f ea36 06bd
000000e0: 8e9d 923d 6271 dc3e 60f9 3c3c c0d8 0a3b
000000f0: d059 2c3f 5054 883d 103b 91bd 9ee7 033f
00000100: 8951 b4bd 1051 b6bb 28e0 e33e 3263 903d
00000110: d036 2d3c 1502 053f 142c 2dbd 7048 f33c
00000120: 8599 123f 6c6c 80bd dcd2 233d 0866 453f
00000130: 8cf3 6f3d 9acb c4bd 83b6 0d3f 7092 76bc
00000140: 48d1 a13d 504a 4b3f 9cc4 9bbd 0c07 633d
00000150: 66f8 333f 88d7 c1bd 383d 023d 25fc 293f
00000160: ceba 92bd bcaa 013d 4517 f73e d8d5 8ebd
00000170: ac65 08bd 2407 f83e 9c8a 20bd 4c48 aabc
00000180: f747 96bb f860 d33c d421 cabd f0e7 d2bd
00000190: 85db 5cbd 0c08 b43d 5885 483c 44e7 9a3d
000001a0: 5057 8a3c 9a89 e8bc 9067 f93c 60a7 193c
000001b0: 2df2 d13c 0613 2dbd 42d4 933d 4c12 7c3d
000001c0: cc9e 803d 1095 d3bc 89cf 193d 4516 42bd
000001d0: 4c77 143d d597 92bd 8014 6e3c 38ea 01bd
000001e0: 6dab ddbd ee76 963d 64fb 64bd 6b79 2bbd
000001f0: ba98 5ebd eca8 973c 9513 c2bd 9f97 86bd
00000200: 748c 493d 4b73 983a 24d3 bfbc 4066 a8bc
00000210: 75f0 dabd 944d c33d e8a6 d33c 4496 f5bc
00000220: 32ba 9b3d 0467 5c3d f73a fbbc 7864 633d
00000230: e0bc 06bb 1565 88bd 4cdc 4fbd 48d0 ce3c
00000240: d9eb b2bd 0de0 25bd 58fa e03c 0baf 04bd
00000250: 990a 91bd 443c 3cbd de08 bdbd 80a2 4e3d
00000260: 3628 b93d 62f3 d1bd 9096 f1bb 0c23 b33d
00000270: b600 bebd a0f1 333d f8fe 54bc ceff a7bd
00000280: 8ca1 8cbd 5014 d03d 2888 643d 3094 22bc
00000290: e476 9e3d a7c3 5d3d 21d5 c5bd f605 873d
000002a0: b2a0 6abc b4c4 febc fbe1 63bd efe9 be3d
000002b0: f897 e13c 283d d03c 12e7 b1ba a02d b3bc
000002c0: 7961 95bd c0b1 c33a 70a4 d3bc 9cd0 163d
000002d0: dc03 ed3a c4b0 90bd cb9c cbbd cd9c 643d
000002e0: 98ee e33c a891 463d eb8a 5abc 62a6 c83d
000002f0: c958 a1bd 75e9 dbbd 9af6 87bd ec72 88bd
00000300: 46f8 5c3f cbba 70bd 18f6 76bc dd98 153f
00000310: 2672 af3d b2ce 42bd 1ff6 263f 6b49 4abd
00000320: f668 c23d e7f4 453f 8d8e b1bd 1094 aa3b
00000330: db76 283f 1896 8c3c a0d0 b53c 74f5 253f
00000340: 9c82 2a3d d826 133c ecdd 133f 2dcf 71bd
00000350: 20ea 0b3d 0cd8 5d3f 4cfb 663d 10f5 533d
00000360: 18fb 0e3f d0a7 c63d 07bb b5bd 2cfe 233f
00000370: 4601 bc3d 2846 e1bc afcb 483f 8072 8b3a
00000380: 5c37 533d ceab 0e3f 90f1 893c b81a 3abc
00000390: bd98 433f 84c5 b83c c574 b9bd b938 3c3f
000003a0: f128 c4bd 0232 95bd dace 223f 84d1 c73d
000003b0: 9fca 28bd e0e1 103f fcde 893d deb5 b43d
000003c0: be80 f83e a4e9 7a3d 8837 51bc 79b5 2d3f
000003d0: 604d a6bb 4ac0 86bd 4cc5 e23e 602a fe3c
000003e0: 0c99 903c b0bc 273f 2055 c33c b0e8 a03b
000003f0: f72f 093f c159 a3bd 2887 953d f0fa 193f

net.2.bias f4 [64]
0.731938 -0.02349927 0.64708906 0.6798396 0.02624019 -0.0014297162 0.6603182 -0.02447788
0.012746671 0.7181705 0.6819589 0.7958933 0.7857697 -0.08484232 0.70082027 0.02658956
-0.08002052 0.6188141 0.83295065 0.7848837 0.7344435 -0.12561706 0.84885424 0.6934184
0.69276655 0.66691995 -0.09892894 0.67767215 0.6347165 0.83496475 0.68478274 0.7318393
0.7144806 -0.11071663 0.64573747 0.5983855 -0.04798354 0.75485384 0.6987901 0.7279458
0.003495422 0.67985517 0.58155614 -0.057648815 0.5987924 0.80332303 0.051683336 0.034128305
0.81742895 0.7437181 0.8407858 0.79341877 -1.308533 0.7659499 0.74633527 0.6547857
-0.1137749 -0.054878924 0.6560252 -1.1289163 0.6566361 -0.0960951 0.63934517 0.042100865
00000000: 4a60 3b3f 8b81 c0bc a1a7 253f f809 2e3f
00000010: abf5 d63c 5165 bbba 9d0a 293f d685 c8bc
00000020: 6ad7 503c 06da 373f dc94 2e3f aabf 4b3f
00000030: 3428 493f cfc1 adbd f568 333f 59d2 d93c
00000040: cce1 a3bd 9a6a 1e3f 413c 553f 23ee 483f
00000050: 7d04 3c3f c2a1 00be 834e 593f de83 313f
00000060: 2659 313f 44bb 2a3f 429b cabd ec7b 2d3f
00000070: c87c 223f 40c0 553f ec4d 2f3f d259 3b3f
00000080: 33e8 363f 67bf e2bd 0d4f 253f cb2f 193f
00000090: 638a 44bd 1a3e 413f e8e3 323f a85a 3a3f
000000a0: 7313 653b fd0a 2e3f dde0 143f 2a21 6cbd
000000b0: 754a 193f 94a6 4d3f e8b1 533d 1fca 0b3d
000000c0: 0643 513f 4f64 3e3f bd3d 573f 7e1d 4b3f
000000d0: 027e a7bf 4b15 443f d40f 3f3f 09a0 273f
000000e0: d102 e9bd b9c8 60bd 44f1 273f 5480 90bf
000000f0: 4e19 283f 82cd c4bd 20ac 233f f571 2c3d

fc.weight f4 [13, 64]
0.087956466 0.05152686 0.06288824 -0.02833843 -0.08378172 0.13094059 -0.09149072 -0.068595104
0.11822378 0.12826207 0.15583509 -0.09022859 -0.012399587 0.13862018 0.010262855 -0.09122729
0.06505011 -0.041804984 0.027277328 -0.049596302 0.111862294 -0.0018244783 -0.03553403 0.12790683
0.10328303 -0.051353533 0.054655753 0.03742853 -0.019518096 0.06741123 -0.056269713 0.09543005
0.06753757 -0.02471949 -0.049267057 -0.040190823 -0.076031566 0.026537787 -0.026344314 0.00084055256
0.01910138 -0.0035764922 0.15731214 -0.01555937 0.19047423 0.0404251 0.1437265 0.06675037
-0.1943993 0.077074334 0.103825614 -0.010140934 -0.10182127 0.039431933 0.005771322 -0.051752478
-0.009560429 0.11730351 0.06232493 -0.1197213 -0.019231487 0.005649646 -0.060742505 0.14265159
-0.13236141 -0.033647597 -0.009192694 0.15781154 -0.046494 0.097444266 0.06826158 0.03504111
0.01100861 -0.033882167 0.07645573 -0.0629626 -0.01880437 0.13552205 0.1294981 -0.05836308
-0.046838876 0.09639598 0.11356923 0.06633652 0.034015536 0.117021225 0.0250183 -0.054198824
0.047694582 -0.04447348 0.048627052 0.16248399 -0.00805051 -0.05118629 -0.052650392 -0.054912306
0.048528202 -0.035520747 0.0943967 -0.01772283 0.07550366 -0.056110997 0.074397996 -0.042296376
0.11691031 0.018899743 0.098260224 -0.07287673 0.19513832 0.114441544 0.08809115 0.028418124
-0.2520069 -0.024180207 0.11049351 -0.0230028 -0.12342356 -0.005606169 0.07469369 0.101076394
0.11970557 0.13118596 -0.01654101 -0.14557026 0.035372168 -0.098701894 -0.014578636 -0.060872134
0.07976913 -0.063214466 0.14829046 0.1461119 0.07879213 -0.0130881285 0.077764034 0.114793494
-0.09819717 0.120966986 -0.03755215 -0.07818067 0.10330166 -0.008681 0.040086646 -0.10153274
-0.012822943 0.09430695 0.052128132 0.053337652 0.13680199 -0.06949841 0.123989984 0.10742447
0.010640971 -0.017848939 0.060808294 0.11881121 0.067945376 0.023386594 0.0970205 0.1059995
0.042573426 0.11581172 0.004794713 0.02919597 0.09019668 0.10614122 -0.019578556 0.061370548
0.022756267 0.026895748 -0.06707693 -0.053589046 0.11596412 0.16785413 -0.0813409 0.09110985
-0.18141751 0.10504853 0.08015198 0.044694472 -0.008446902 0.026698804 0.07683133 0.041031964
0.09540755 0.020249262 0.005684988 -0.23684749 0.039399847 0.025240637 0.107898206 0.14006482
-0.15300883 0.063932344 0.0006151321 -0.054579966 0.10252668 0.11943768 0.032781813 -0.022581406
0.02326424 0.077432446 -0.05004111 -0.008237655 -0.058077686 -0.08221553 -0.020235004 -0.018197594
0.032493368 0.13821945 0.108985394 -0.12268542 0.0008675237 -0.06358857 -0.13692752 0.12754019
-0.02637011 0.16999835 0.12232079 -0.05562743 -0.08393451 0.12157068 -0.042587113 0.12574483
0.12080499 0.08111704 0.08682906 0.00068606087 -0.10709302 -0.029436147 -0.032457553 0.012392083
0.09540538 0.08857873 0.16508728 0.037713453 -0.004632237 0.13334851 0.06735835 0.047196615
-0.30484438 0.04299114 0.06938771 -0.0154675525 0.0019109129 0.019732947 0.064097025 0.08012526
0.1011656 0.015304061 -0.07268443 0.16468352 -0.028512945 0.08398304 -0.06154759 0.13847914
00000000: 8522 b43d d40d 533d 8dcb 803d ff25 e8bc
00000010: c095 abbd 4a15 063e 7d5f bbbd 977b 8cbd
00000020: 4f1f f23d 2257 033e 3c93 1f3e c4c9 b8bd
00000030: a327 4bbc 73f2 0d3e 8925 283c 60d5 babd
00000040: fe38 853d b43b 2bbd b474 df3c 7e25 4bbd
00000050: 0f18 e53d 5523 efba 228c 11bd 02fa 023e
00000060: 0e86 d33d 1558 52bd b6de 5f3d a94e 193d
00000070: 6ae4 9fbc e60e 8a3d 127b 66bd d470 c33d
00000080: 2351 8a3d 8780 cabc 41cc 49bd 229f 24bd
00000090: 70b6 9bbd c665 d93c 08d0 d7bc 8758 5c3a
000000a0: 7f7a 9c3c 9563 6abb 6f16 213e baec 7ebc
000000b0: ad0b 433e ca94 253d 0a2d 133e 6bb4 883d
000000c0: 9c10 47be 26d9 9d3d 86a2 d43d 2926 26bc
000000d0: ac87 d0bd 6183 213d 5c1d bd3b 68fa 53bd
000000e0: 58a3 1cbc d33c f03d 6d48 7f3d 7130 f5bd
000000f0: 5a8b 9dbc aa20 b93b 22cd 78bd 4213 123e
00000100: c089 07be 10d2 09bd f49c 16bc 5999 213e
00000110: 7e70 3ebd dc90 c73d bacc 8b3d 4487 0f3d
00000120: 755d 343c 07c8 0abd d294 9c3d 89f2 80bd
00000130: 9f0b 9abc 4bc6 0a3e 269b 043e 200e 6fbd
00000140: 1fda 3fbd 416b c53d fc96 e83d 71db 873d
00000150: e053 0b3d d3a8 ef3d 2ef3 cc3c 96ff 5dbd
00000160: 655b 433d d329 36bd 292d 473d 3462 263e
00000170: 49e6 03bc b7a8 51bd f0a7 57bd baeb 60bd
00000180: 82c5 463d 347e 11bd 0f53 c13d 782f 91bc
00000190: aaa1 9a3d a5d4 65bd fa5d 983d f73e 2dbd
000001a0: ac6e ef3d a2d3 9a3c a83c c93d 6540 95bd
000001b0: 57d2 473e 5460 ea3d 2269 b43d 20cd e83c
000001c0: 0c07 81be 9215 c6bc 6c4a e23d 5e70 bcbc
000001d0: 7ec5 fcbd f4b3 b7bb 01f9 983d 2401 cf3d
000001e0: 3228 f53d 9d55 063e 0381 87bc 5f10 15be
000001f0: 68e2 103d 3824 cabd 3bdb 6ebc 0f55 79bd
00000200: ff5d a33d 9676 81bd 74d9 173e 5c9e 153e
00000210: c55d a13d 976f 56bc c042 9f3d da18 eb3d
00000220: 991b c9bd 8abd f73d 49d0 19bd 301d a0bd
00000230: d28f d33d c13a 0ebc e531 243d 66f0 cfbd
00000240: 5217 52bc 0124 c13d 4f84 553d 9578 5a3d
00000250: d215 0c3e 2f55 8ebd 76ee fd3d 5c01 dc3d
00000260: 7857 2e3c f037 92bc 1e12 793d 4b53 f33d
00000270: f226 8b3d 3e95 bf3c afb2 c63d 4416 d93d
00000280: 7961 2e3d b22e ed3d f81c 9d3b 632c ef3c
00000290: 09b9 b83d 9160 d93d 3563 a0bc af5f 7b3d
000002a0: 5a6b ba3c 7954 dc3c a15f 89bd 3080 5bbd
000002b0: 997e ed3d f4e1 2b3e 0f96 a6bd cd97 ba3d
000002c0: 83c5 39be af23 d73d b926 a43d 8d11 373d
000002d0: e064 0abc 73b7 da3c bf59 9d3d 2211 283d
000002e0: 0965 c33d c8e1 a53c 2349 ba3b 2688 72be
000002f0: bc61 213d 74c5 ce3c bcf9 dc3d 276d 0f3e
00000300: 59ae 1cbe f6ee 823d d140 213a 3e8f 5fbd
00000310: 82f9 d13d be9b f43d 3946 063d a4fc b8bc
00000320: a694 be3c e794 9e3d e8f7 4cbd 3bf7 06bc
00000330: dee2 6dbd 9e60 a8bd e1c3 a5bc 1f13 95bc
00000340: c417 053d 6689 0d3e bc33 df3d 7e42 fbbd
00000350: 886a 633a b93a 82bd ba36 0cbe e599 023e
00000360: 2106 d8bc 0c14 2e3e 5383 fa3d 97d9 63bd
00000370: dbe5 abbd 0cfa f83d d36f 2ebd 41c3 003e
00000380: 9b68 f73d b120 a63d 6fd3 b13d c4d8 333a
00000390: 9653 dbbd 1324 f1bc 36f2 04bd 2a08 4b3c
000003a0: e563 c33d c468 b53d a40c 293e 6c79 1a3d
000003b0: 05ca 97bb 838c 083e 2df3 893d 3d51 413d
000003c0: 9014 9cbe 7a17 303d 251b 8e3d 9e6b 7dbc
000003d0: 9977 fa3a fda6 a13c 4d45 833d b618 a43d
000003e0: e92f cf3d e2bd 7a3c 93db 94bd cca2 283e
000003f0: fb93 e9bc 4dff ab3d 5319 7cbd 7acd 0d3e

fc.bias f4 [13]
0.32638386 0.17443399 0.3564218 0.21626392 0.31914648 0.42894605 0.09916229 0.2117271
-0.0058094887 0.10887006 0.3065308 0.24322072 0.35976294
00000000: c91b a73e d39e 323e eb7c b63e 4a74 5d3e
00000010: 2b67 a33e d19e db3e 9915 cb3d fdce 583e
00000020: 865d bebb 44f7 de3d 9bf1 9c3e da0e 793e
00000030: d932 b83e
