models/h12_ep50_bs64.pth (torch, 38237 bytes, 6 tensors)

net.0.weight f4 [32, 13, 3]
000000 09 06 92 3e 98 74 e5 3d 38 8c ed 3c 04 07 10 3e
       0.2852023 0.11203879 0.028997526 0.14065176
000010 25 55 09 be 1c 3d 0e 3e a7 16 31 3e 7c fa 45 3d
       -0.13411386 0.13890499 0.17293797 0.048334584
000020 2c d3 1d 3d 5e 93 20 be 50 16 a9 3d 7c f2 96 bd
       0.038531467 -0.15681216 0.08256209 -0.07370469
000030 d5 35 51 3e f3 cc be bd 52 19 aa 3d 60 f9 ed 3b
       0.20430692 -0.09316435 0.08305611 0.007262394
000040 4c 69 a2 3d 04 82 c1 bd 26 43 f0 3c 2c 24 ef bd
       0.0793024 -0.09448627 0.029328894 -0.11676821
000050 30 17 c5 bd 58 56 14 3f fe 48 84 bd 34 f3 42 bd
       -0.09623563 0.5794425 -0.06459235 -0.047595218
000060 78 fe 89 bc 26 bc 1f bd e2 8d aa bd 94 b7 6e bf
       -0.016844973 -0.03899779 -0.08327843 -0.9324887
000070 08 ba 56 3d 90 b0 89 3c 1e f5 83 3d 9e 21 b1 bd
       0.052423507 0.016807824 0.06443237 -0.0864899
000080 00 7e ed 3c 0c 36 84 be e0 18 a4 3d 6c 6c 40 3d
       0.028990746 -0.25822484 0.08012557 0.0469784
000090 a8 ba 82 bd 5c 2b ea 3d 7c d8 26 3d ae ef 98 3e
       -0.06383258 0.114340514 0.0407338 0.2987036
0000a0 99 c4 bb bd 40 87 20 bb 96 cc 98 be 40 9b a5 3b
       -0.091683574 -0.0024494678 -0.29843587 0.0050539076
0000b0 7e cc 64 bd a4 f1 42 3b d4 a0 89 3d d0 c4 9a 3c
       -0.05585908 0.002974608 0.06720129 0.018892676
0000c0 77 67 ad bd 9f dc ba bd a8 16 e7 3d fc 24 e6 bd
       -0.08467 -0.091241114 0.11283618 -0.11237523
0000d0 68 75 df 3d 86 05 da bd 0f 23 0c 3d d0 ee 09 3e
       0.10911065 -0.10645585 0.034213122 0.13470006
0000e0 00 a4 87 bb 59 45 b2 bf 13 08 f4 bd ea 61 1f 3e
       -0.0041394234 -1.3927413 -0.119156025 0.15564695
0000f0 9c 18 cf bf 80 e9 bb bc 55 0e e4 bd d6 e0 f5 bd
       -1.6179385 -0.02293849 -0.11135546 -0.12005775
000100 18 b8 14 3d f0 6a 3b 3c 9f 1a b7 bd 4a 08 18 3e
       0.036308378 0.01143907 -0.089406244 0.14846912
000110 cc 73 ae 3d 0c a4 44 3e 68 1d 0c bd ac e6 02 bd
       0.0851818 0.19203204 -0.03420773 -0.031958267
000120 dc 36 57 3d e8 05 02 3e 0c 53 24 bd 60 44 32 3f
       0.052542552 0.12697566 -0.040118262 0.6963558
000130 96 59 90 3d aa d8 96 bd c4 f3 13 3e f9 e4 1a be
       0.07048337 -0.07365544 0.14448458 -0.15126409
000140 c0 b3 8d 3b 93 cd 84 3c dc 68 fb 3d 64 fd 63 3d
       0.0043244064 0.016211307 0.1227586 0.055661574
000150 cf a4 3a bd e0 27 5f bd e4 45 93 bd 5f 97 86 3d
       -0.04556733 -0.054481387 -0.07191065 0.065718405
000160 cc 11 bd 3d 4e 76 80 3d 2c 0b ce 3d 26 f4 34 bd
       0.0923191 0.06272565 0.100607246 -0.04417815
000170 e8 e5 00 3e 3e 7f d5 3c 0c b1 f6 bd fa d8 0b be
       0.12587702 0.02606165 -0.12045488 -0.13656989
000180 30 9a 01 be 70 e7 39 bc 8e 9d a6 bd 5e 40 5b 3f
       -0.12656474 -0.011346683 -0.0813552 0.8564509
000190 80 bd c0 3d 90 e6 69 3c 4d a4 02 be 8d 0e 1e be
       0.09411144 0.014276162 -0.12757988 -0.15435238
0001a0 40 9e da 3b ef 61 b7 3e c4 bb d0 3d d2 cb eb bd
       0.006671697 0.35816905 0.101920635 -0.11513485
0001b0 c6 20 8b 3d a0 03 7e bc e4 b1 73 3d 43 fd 40 be
       0.067933604 -0.015503794 0.05949582 -0.18846612
0001c0 18 1c f1 3d 90 bf 29 bc e2 a6 d8 3e ea 5c 90 bd
       0.117729366 -0.010360613 0.4231482 -0.07048972
0001d0 38 91 c6 3d eb 5b c2 bd 16 29 09 be 86 3f 1f be
       0.09695667 -0.09490188 -0.1339458 -0.15551576
0001e0 50 40 89 be 6c 81 02 3e cc ed 06 bd 5e 50 7d b8
       -0.2680688 0.12744683 -0.032941625 -6.039475e-05
0001f0 60 22 ff 3c 14 ba 04 be e3 ef 05 3e c0 92 a2 3c
       0.031144321 -0.12961608 0.13079791 0.019845366
000200 56 3f f9 bd 87 b5 8e 3e 50 fe 18 3e 00 3d ea bb
       -0.121702835 0.2787287 0.14940763 -0.007148385
000210 35 78 58 3e 9c 42 4e 3d 80 62 f3 3d 8b bc f8 be
       0.21139605 0.050356492 0.11884022 -0.48581347
000220 9e c3 7a bd 1e b1 d5 bd 4a ca 44 bf 7a 81 9b 3d
       -0.06122171 -0.10434173 -0.7687117 0.07593055
000230 a0 00 a7 3b 96 6e 02 be 55 cf 9d bd 84 eb d7 bd
       0.00509651 -0.12737498 -0.07705561 -0.10542968
000240 ae c1 0b bf 23 68 a9 bd 08 ef ee 3c a2 39 a4 be
       -0.54592407 -0.08271816 0.029166713 -0.3207522
000250 34 04 90 3d 7c f4 cf bd d5 19 a7 3d 04 cf 08 3e
       0.07032052 -0.101540536 0.08159224 0.1336022
000260 c0 4b 99 bb 03 f1 bb be 4a 41 13 3e ba e0 29 bd
       -0.0046782196 -0.36707315 0.14380375 -0.04147408
000270 60 e0 c9 3c 76 a3 e4 bd 00 67 0f 3e 12 6f 98 bd
       0.024643123 -0.1116399 0.14004135 -0.0744306
000280 f0 5b 00 3d aa 93 9b bd 2e 73 34 be 1c 0c 03 3e
       0.03133768 -0.07596524 -0.17622063 0.12797588
000290 b4 50 bb 3d c9 f4 46 bd f8 e8 bc 3d 80 59 ef bc
       0.09146252 -0.04857329 0.09224123 -0.029217482
0002a0 c8 01 27 bd 18 a8 ce bc 8a 9c 9d bd d3 01 1e be
       -0.040773183 -0.025226638 -0.07695873 -0.15430383
0002b0 34 3d 8b 3d c0 a2 31 bd 29 33 fe bd 09 32 17 be
       0.06798783 -0.0433681 -0.12412102 -0.1476518
0002c0 e0 ec eb 3d 4e 61 30 3f 74 88 fc 3d 20 bb 1b bd
       0.1151979 0.68898475 0.12330714 -0.038020253
0002d0 b4 c9 0b bd 80 24 2f 3b 28 92 00 3d 5b 82 6e 3e
       -0.034127906 0.0026724637 0.031389385 0.23291914
0002e0 80 a6 37 3c 6a 62 22 3e 85 0d ab 3d 90 0f c0 3c
       0.01120913 0.15857854 0.08352188 0.02344492
0002f0 86 0b 08 3e da b7 0b be 65 b3 19 be ac 85 35 bd
       0.13285646 -0.13644353 -0.1500984 -0.044316933
000300 29 54 1f 3e 9e 65 f3 bd 00 8d 33 3c 8e 54 4f 3e
       0.15559448 -0.11884616 0.01095891 0.20247099
000310 b0 71 44 bc e6 01 49 bd 52 7e 4e 3d be 78 09 3e
       -0.011989996 -0.049074076 0.050413437 0.13424966
000320 b4 83 b8 bd 05 f3 49 bd 59 b1 e3 bd c2 e2 ac bd
       -0.090094954 -0.049304027 -0.11117811 -0.08441688
000330 55 ca 18 bd 18 06 0a 3d 14 65 00 bd 69 aa 1a be
       -0.037302334 0.033697218 -0.031346396 -0.15104069
000340 dc 49 55 3d b0 a5 47 3d 04 14 f8 3e 21 34 07 be
       0.05207239 0.048741996 0.4845277 -0.1320348
000350 f0 56 62 bc 85 b0 f3 bd f0 f5 74 3d 10 24 c1 bc
       -0.013814673 -0.11898903 0.059804857 -0.023576766
000360 05 53 0e 3f f0 35 d9 3d a7 ed 80 bd 48 aa f9 bd
       0.5559543 0.10605991 -0.062953286 -0.12190682
000370 4e 97 9c 3d f8 3c b6 3c af 2d a8 be 90 9a 4f 3c
       0.076460466 0.022245869 -0.32847354 0.012671128
000380 ae 86 00 3e 74 66 e9 3e 88 88 5a 3d e6 d0 69 bd
       0.12551376 0.45585978 0.053352863 -0.057083987
000390 c1 e3 06 be cc 14 f9 3d 50 1d 61 bc 02 06 1f 3e
       -0.13172819 0.1216217 -0.013739899 0.15529636
0003a0 6d d9 88 bd 78 08 ca 3d 1c 90 a9 be d4 5f fb 3d
       -0.06682096 0.098648965 -0.3311776 0.12274137
0003b0 a6 02 f6 bd 8f 04 01 bf 44 3c 61 3d 0c 86 eb 3d
       -0.12012224 -0.5039758 0.054989114 0.11500177
0003c0 d7 be a2 be 98 96 f8 3d 2c 6d b0 3d 55 72 eb 3d
       -0.31786224 0.121380985 0.08614573 0.114964165
0003d0 90 7b 21 bd e0 28 05 3c 83 79 8d bd 2c 33 25 3d
       -0.03942448 0.008127421 -0.06907942 0.040332004
0003e0 b4 41 f7 bd c3 6a 33 bd 2a 92 a1 3d a6 39 1d bd
       -0.12073079 -0.043802988 0.07889207 -0.038385056
0003f0 aa 51 1f bf 8c 9f fb 3d 09 ff 88 bd 38 4d 17 bf
       -0.62233984 0.122862905 -0.06689269 -0.591022

net.0.bias f4 [32]
000000 a5 39 9e 3f 29 14 82 3f 82 38 b2 3f 38 00 a4 3f
       1.2361342 1.0162402 1.3923495 1.2812567
000010 d1 08 a6 3f 48 18 bd 3f 77 49 94 3f cd 5b 99 3f
       1.297144 1.4773035 1.158492 1.198114
000020 86 48 a2 3f 49 5e aa 3f e3 a9 b4 3f 24 dc bd 3f
       1.2678382 1.3310024 1.4114345 1.4832807
000030 d5 5b 98 3f af ab b1 3f ce 77 8d 3f c8 df bc 3f
       1.1903025 1.3880519 1.1052186 1.4755793
000040 dc f5 9e 3f 39 2a b4 3f 87 b6 95 3f 72 8e c7 3f
       1.241878 1.4075385 1.1696328 1.5590346
000050 83 07 ce 3f 28 f6 97 3f 0c b0 a5 3f 03 4f bb 3f
       1.6096042 1.1871996 1.294435 1.4633487
000060 14 5c 97 3f 3c 97 a3 3f e1 46 96 3f 0e 57 a4 3f
       1.1824975 1.2780528 1.174038 1.2839067
000070 d3 69 b6 3f 68 fa bf 3f 11 10 c0 3f 1c 4b 8f 3f
       1.4251045 1.4998293 1.5004903 1.1194797

net.2.weight f4 [64, 32, 3]
000000 25 68 0b 3f ec bb 73 3d 10 e4 97 3c ba ea 5b 3f
       0.54455787 0.05950539 0.018541366 0.8590504
000010 14 44 7b 3d 34 5d 85 3d d0 1a 2b 3f d4 78 15 3d
       0.06134422 0.06511918 0.6683779 0.036492184
000020 a8 44 44 3d 85 93 05 3f 40 47 01 3b 10 af 37 3d
       0.04791704 0.5217822 0.0019726306 0.044844687
000030 48 0e ea 3e b8 65 44 bc 38 a9 af bc f6 95 38 3f
       0.4571402 -0.011987142 -0.021442994 0.7210382
000040 b0 9d c2 3b 8e 0d c3 3d 0a 1e 10 3f c0 b2 bd 3a
       0.005939208 0.0952407 0.56295836 0.0014472827
000050 8a 94 c9 3d 98 ca 1b 3f 74 05 11 bd 2e a1 9e bd
       0.09842785 0.6085601 -0.03540559 -0.07745586
000060 f4 38 2b 3f 36 af ab 3d dc 38 77 bd 35 51 3b 3f
       0.6688378 0.08383028 -0.06035696 0.7317079
000070 44 2e a2 bc 96 e6 98 bd d8 46 20 3f b8 aa c4 bc
       -0.019797452 -0.07465856 0.626081 -0.024007186
000080 80 e0 21 ba 58 4f 1a 3f 04 1c 8e bd 80 a0 e9 ba
       -0.00061751157 0.6027732 -0.06938937 -0.0017824322
000090 d7 9c 2f 3f 1a 79 62 bd 40 1b 61 3b e9 85 51 3f
       0.68598694 -0.055291273 0.0034348518 0.81844956
0000a0 9e 4c 8b bd cc 5e ab bd 04 b3 20 3f c4 44 41 3d
       -0.06801723 -0.083676904 0.62773156 0.04718472
0000b0 f0 77 b4 bc 49 fc 47 3f 80 63 da 3a 48 99 dd 3c
       -0.022029847 0.7811933 0.0016661733 0.02705063
0000c0 95 e7 39 3f 97 0b b2 bd d5 f4 7c bd 7d 1c 50 3f
       0.7261899 -0.08693617 -0.061756928 0.8129347
0000d0 e4 50 98 bd d2 e2 bc 3d b5 83 20 3f 84 f2 c8 3d
       -0.07437304 0.0922295 0.6270097 0.09811881
0000e0 a0 ab 0c 3c 00 84 5b 3f ac 92 b3 bc 64 95 ca 3d
       0.00858584 0.8574829 -0.021920525 0.09891775
0000f0 1a 5c 33 3f da b1 84 3d d4 2a 98 bc 17 6f 6a 3f
       0.7006241 0.06479235 -0.01857511 0.9157576
000100 c4 8b 37 3d a0 c8 83 bc c0 33 3b 3f 6a 79 bc bd
       0.044811025 -0.016086876 0.7312584 -0.092028454
000110 8a 2b 05 bd 40 ce 35 3f 58 c9 82 3c 40 04 da 3c
       -0.032512225 0.7101784 0.015965149 0.026613355
000120 80 80 20 3f 90 a7 95 3d 32 7b 80 3d d4 64 6a 3f
       0.62696075 0.07307351 0.06273498 0.915601
000130 c8 c3 c2 3d 00 aa ab bb 39 dc 0c 3f c8 51 0a 3c
       0.095099986 -0.0052387714 0.55023533 0.00844235
000140 80 54 53 bb 4b d4 0d 3f b1 af 7a bd ce 41 49 bd
       -0.003224641 0.5540206 -0.06120271 -0.049135022
000150 a8 83 3e 3f d4 17 65 3d 3b 56 b4 bd 98 00 64 3f
       0.7441964 0.055930927 -0.0880551 0.89063406
000160 6c 0e 9a 3d f0 d0 e9 3c 56 fc 30 3f f8 e1 10 bc
       0.07522282 0.028542012 0.69135034 -0.008842938
000170 68 5c 0a 3d 10 42 07 3f 96 15 91 3d 80 ae be 3d
       0.03377953 0.5283518 0.07084195 0.09310627
000180 af b5 33 3f cc 23 1f bd f8 43 4d 3d d7 45 62 3f
       0.701991 -0.038852498 0.05011365 0.8838782
000190 c7 0a 60 bd f2 22 b9 3d 10 3e 06 3f 98 43 e2 bc
       -0.054697778 0.090398684 0.5243845 -0.027620122
0001a0 da bc aa bd 05 bd e0 3e ac 0e 69 bd 00 cf bc 3d
       -0.08336802 0.4389421 -0.056898758 0.092191696
0001b0 22 52 13 3f 42 2d bb 3d ac 6f 9d bc c0 af 3c 3f
       0.575472 0.091394916 -0.019218288 0.73705673
0001c0 e6 62 9f bd 4a 92 85 3d eb b6 1f 3f 00 63 8a ba
       -0.07782535 0.06522043 0.62388486 -0.0010558069
0001d0 58 b2 a0 3c 8a 91 45 3f f6 5d 92 bd 92 1d 73 bd
       0.01961629 0.771752 -0.07146828 -0.059354372
0001e0 8d 24 17 3f 10 93 3f 3c 24 83 53 3d 17 5e 24 3f
       0.5904015 0.011692777 0.051638737 0.6420607
0001f0 c4 c5 c3 bd ca 15 93 bd f3 f1 34 3f ec b0 04 3d
       -0.09559205 -0.0718189 0.70681685 0.03239529
000200 a4 7f c1 3d 2f 65 19 3f 10 68 36 3c f0 a7 93 3d
       0.09448174 0.5992002 0.011133209 0.07209766
000210 ee 61 13 3f 70 e8 19 3c b8 bf f3 3c 9d c4 59 3f
       0.57571304 0.009393796 0.029754505 0.85065633
000220 ca 39 8a 3d a0 61 d1 3c 50 55 0e 3f a2 ea 06 bd
       0.06749304 0.025559247 0.55598927 -0.032938607
000230 4c d9 1f 3d de 68 4f 3f ec 41 ce bd bc f4 38 3d
       0.03902559 0.8101939 -0.10071167 0.045155272
000240 ae 97 39 3f f0 53 ec 3c 10 a5 31 3d 71 79 3e 3f
       0.7249707 0.028848618 0.043370306 0.74404055
000250 85 b2 a2 bd 30 4e 6c 3d a1 d5 3d 3f 3c 54 b3 bd
       -0.07944206 0.057691753 0.74154097 -0.08756301
000260 be 69 c5 3d 11 91 4b 3f b1 fb 58 bd 22 64 c5 3d
       0.09639309 0.7951823 -0.052974407 0.096382394
000270 2e 35 36 3f 90 f6 10 3d 58 b4 22 3c 47 b8 75 3f
       0.71174896 0.03539139 0.009930693 0.9598431
000280 f4 47 74 3d d0 5b 8f bd 10 28 1d 3f 68 fc 90 3d
       0.059638932 -0.06999934 0.61389256 0.07079393
000290 58 cd c6 3c 52 7a 3c 3f 67 dd 7a bd a1 fe 98 bd
       0.024267837 0.73624146 -0.061246302 -0.074704416
0002a0 bb c0 2d 3f 20 f2 e2 3c dc e7 ce 3d 83 ad 48 3f
       0.6787221 0.027703345 0.101028174 0.7838976
0002b0 41 7e 43 bd 38 c9 88 3c 85 d7 2d 3f b2 4a af 3d
       -0.047727827 0.016697511 0.6790698 0.08559169
0002c0 7e ab 93 3d 54 75 08 3f fd 15 c4 bd 34 21 4f 3d
       0.07210444 0.5330403 -0.095745064 0.050568774
0002d0 7b 8d 29 3f 4c be 1b 3d 53 f8 92 bd c7 51 77 3f
       0.6623151 0.038023278 -0.0717627 0.9660916
0002e0 b0 c6 52 bc 55 45 cb bd 13 6e 4f 3f 15 64 6e bd
       -0.012864754 -0.099253334 0.81027335 -0.058200914
0002f0 58 e3 07 3c 0c a3 06 3f 70 69 54 bc 4d 09 24 bd
       0.008293949 0.5259254 -0.012964591 -0.040047932
000300 47 65 2e 3f 86 d1 b7 bd ae ed 9b bd a4 ae 4c 3f
       0.68123287 -0.0897551 -0.07613693 0.7995398
000310 58 26 c2 bd 60 82 7d 3d 1b 58 08 3f a8 27 1f 3d
       -0.0947997 0.061891913 0.5325944 0.03885618
000320 58 e9 90 3d d6 69 25 3f 90 6f 8f 3b 87 f7 52 bd
       0.07075757 0.6461462 0.004377313 -0.05150559
000330 78 5f 18 3f 88 0f 30 3d 2c 69 77 bd c4 ee 4a 3f
       0.59520674 0.04298356 -0.060403034 0.7927058
000340 f6 01 82 bd ac 5c 8a 3c 9b 34 22 3f 24 b1 03 3d
       -0.0634803 0.016889893 0.6336152 0.032151356
000350 3a 08 97 3d d7 5b 43 3f c0 f8 8a bd 54 7a a4 bc
       0.07374616 0.7631201 -0.067857265 -0.020077862
000360 cb 5e 22 3f d1 39 2e bd f6 ea a6 bd a0 d5 0e 3f
       0.6342589 -0.042535607 -0.08150284 0.55794716
000370 fc 28 0c bd 79 5a 46 bd d7 0e 27 3f 17 b3 25 bd
       -0.034218773 -0.048426125 0.6525702 -0.040453997
000380 9c af b8 3d 4e 1e 0c 3f e2 8e 80 3d cb 25 ac bd
       0.0901787 0.5473374 0.06277253 -0.08405646
000390 85 35 30 3f 98 95 23 bc 6e 8d 13 bd d6 41 78 3f
       0.68831664 -0.009984396 -0.03602355 0.9697546
0003a0 24 bf b5 3c 3c 67 cd 3d 4b 70 3b 3f 90 53 a7 3b
       0.02218587 0.10029456 0.7321822 0.005106397
0003b0 2b e0 7f bd 9b 7e 42 3f 5d c6 79 bd ac 8d 0e 3d
       -0.062469643 0.75974435 -0.06098019 0.034803078
0003c0 ad 8f 5f 3f c4 66 5e 3d 34 38 55 bd e2 93 1e 3f
       0.87328607 0.054297224 -0.052055553 0.619444
0003d0 58 52 1f 3c 90 a7 d0 3d d5 03 40 3f 97 ce b1 bd
       0.009724222 0.1018821 0.7500585 -0.08681982
0003e0 c0 3f 8f 3a 99 b3 53 3f 80 ef 8b bb 74 0e 77 3d
       0.0010929033 0.8269592 -0.004270494 0.060316518
0003f0 54 61 44 3f 27 a7 c9 bd 70 82 49 3d 97 75 59 3f
       0.7671101 -0.09846335 0.04919666 0.8494505

net.2.bias f4 [64]
000000 83 4a 66 3f 8d df 47 3f cc 93 63 3f 02 8d 63 3f
       0.89957446 0.78075486 0.88897395 0.88887036
000010 5c 96 53 3f 06 91 49 3f 3f 19 71 3f 3b 64 c3 bd
       0.82651305 0.78736913 0.9417915 -0.09540602
000020 77 7d 8b bd a8 43 56 3d 9a 16 97 bb c1 b6 36 3f
       -0.0681104 0.052310616 -0.0046108486 0.7137261
000030 dc 31 68 3f 43 ff d4 bd 03 63 5b 3f 2d 48 3f bc
       0.9070108 -0.1040025 0.85697955 -0.011674923
000040 70 24 f2 bd cc f0 49 3f ae d7 4c 3f ef 09 5f 3d
       -0.11823356 0.7888305 0.800166 0.054452833
000050 eb 3c 78 bd 2a 83 53 3f 62 33 3e 3f 5a 5c 47 3f
       -0.06060497 0.82622015 0.74297154 0.7787529
000060 34 ec df bd 77 f7 63 3f 8b d9 52 3f c5 fa 4d 3f
       -0.10933724 0.89049476 0.82363194 0.8046077
000070 87 9e 30 3f bd 97 40 bd 85 1a 65 3f 3b 6c 9e bd
       0.68991894 -0.04701971 0.8949359 -0.07735487
000080 4a 66 4c 3d d7 40 f4 bd 33 0f 3c 3f de 42 63 3f
       0.049902238 -0.1192643 0.7346069 0.88773906
000090 6d 8f 31 3c ed 33 73 bd 25 63 1a bd e4 44 27 3d
       0.010837418 -0.059375692 -0.037692208 0.040837184
0000a0 c8 1c 4f 3f dc d6 57 3f 4b 34 95 bd 19 ae 6b 3f
       0.8090329 0.84312224 -0.07285365 0.92062527
0000b0 42 b6 58 3f df 76 b1 bd 7c bb 44 3f 50 a7 44 3f
       0.84653103 -0.08665251 0.7684858 0.768178
0000c0 13 db 04 3c 3b cb 4d 3f ef 24 4f 3f a2 79 4d 3f
       0.008108872 0.8038823 0.8091573 0.8026372
0000d0 c2 7c 96 bb 7a c0 48 3f da 30 5e 3f d9 5b ee 3f
       -0.004592509 0.78418696 0.8679329 1.862178
0000e0 9f 20 78 3f 25 34 96 bc ac 0c 1e bd 3a 2a 89 3f
       0.96924776 -0.018335411 -0.038586304 1.0716012
0000f0 d1 fe 46 3f 21 f5 68 bd 91 9a aa bd b5 8f 77 3f
       0.7773257 -0.0568744 -0.083302625 0.96703655

fc.weight f4 [13, 64]
000000 ca 82 d8 3d 32 1a b0 bd 3b 17 9a 3d 83 1a da 3d
       0.10571821 -0.08598746 0.07523962 0.10649588
000010 73 39 52 3d 42 c8 4b 3b bb 34 76 bd 96 53 46 bd
       0.05132432 0.0031094705 -0.06010888 -0.048419558
000020 69 b8 d4 bc 98 d6 67 bd 19 85 56 bd 2e 1f e3 3d
       -0.02596684 -0.056601137 -0.052373026 0.110899314
000030 e7 b8 0f 3e 88 26 de 3c c5 a3 7b bc 00 a7 fd 3d
       0.14035378 0.027117983 -0.01535887 0.12385368
000040 e6 ef 07 3d 34 6f 39 3d 5f c2 f5 3d ac 2b fa 3c
       0.03318777 0.045272067 0.11999964 0.030538402
000050 87 0a b7 3d 63 fd 84 3d 63 8b a4 bc e3 81 07 be
       0.08937555 0.06493642 -0.020085996 -0.13233142
000060 98 7a b5 3d 58 30 21 3e 02 29 5d bd 0d f9 2b 3e
       0.088612735 0.15741098 -0.053994186 0.16794224
000070 70 b5 ca 3c 25 0c ac 3d f5 c4 19 3d 88 6d 44 bc
       0.02474472 0.08400754 0.03754135 -0.011989005
000080 9b 54 85 3c 20 ef df 3c a1 64 31 3d 3c a9 ba bb
       0.016275695 0.027335703 0.043308858 -0.005696444
000090 b7 11 b6 3d 4d e2 a8 ba b2 ec 3c bd 2a 6c d3 bd
       0.088900976 -0.0012884826 -0.046124168 -0.10323365
0000a0 20 31 7c 3c b5 72 00 3d b7 e3 82 3c c4 5d 90 3b
       0.015392572 0.031359393 0.015977724 0.004405709
0000b0 21 7d a1 bd f3 02 c4 3d c8 a0 83 bc 84 cc c2 bd
       -0.078851946 0.09570875 -0.016067877 -0.095116645
0000c0 7f 0f f9 3d 01 79 9c bc a7 77 95 bc a8 89 20 3d
       0.12161159 -0.019100668 -0.018245531 0.03919378
0000d0 fa 8f a1 bd 53 a9 97 bd 34 4e b1 3b 44 48 e7 3c
       -0.078887895 -0.07405343 0.005410934 0.028232701
0000e0 fb 09 68 bd 53 5f 05 3e f0 f1 06 3c 44 d4 10 3e
       -0.056650143 0.13024645 0.008236393 0.14143473
0000f0 4a 18 46 bd 30 1a d4 bc 83 5f 1f bd a2 52 ed 3d
       -0.048363008 -0.025891393 -0.038909446 0.115880266
000100 73 9b 84 bc bf cf bd bc 63 c8 13 3c fe 00 65 bc
       -0.016187405 -0.02317035 0.009019944 -0.013977287
000110 d6 db 3f bc c3 5a 0f be 17 a7 a3 3c 88 a5 04 3e
       -0.011710128 -0.13999467 0.019977136 0.1295377
000120 f1 4b ae bd 92 dd a5 3c 22 fa a9 bd cc 11 b7 3d
       -0.085105784 0.020247255 -0.08299662 0.08938941
000130 b1 25 94 3d 52 44 29 bd 4d e6 63 3d 8e e5 42 3d
       0.072337516 -0.04132492 0.055639554 0.0475822
000140 aa 94 91 bd 1d f3 d4 bd 8b bf c8 bd d6 b1 af bd
       -0.071084335 -0.10397933 -0.09802159 -0.085788414
000150 fc 89 62 3d 58 46 cd 3d 5e 6b 9a bc da aa ea bd
       0.055307373 0.10023183 -0.018850025 -0.114583686
000160 26 5f 38 bd 03 93 2f 3e 5a d8 80 3d 58 87 41 3e
       -0.045012616 0.17145924 0.06291266 0.18899286
000170 bc f4 26 3e 2d 76 92 3c 7b 43 6c bd 7e 68 91 bc
       0.16304296 0.017878616 -0.057681542 -0.017750021
000180 62 ec d6 3b 3d 43 d5 3b 72 8d a8 3d 73 ac ba 3d
       0.0065589407 0.0065082596 0.082301036 0.09114923
000190 12 c6 53 bd 46 22 63 3d b6 35 a5 3d 8b 7d 10 3c
       -0.051702566 0.055452608 0.08066885 0.008818994
0001a0 2b 79 58 3e 62 69 4b 3e cc d2 08 3e e4 b7 a3 bd
       0.21139972 0.19864419 0.13361663 -0.07994059
0001b0 0f 03 0a 3d db 43 90 3b e4 39 72 3d 8a 05 3a bd
       0.033694323 0.0044026203 0.05913724 -0.04541544
0001c0 3b fb 92 bd fd e3 2a bc c4 55 32 be cf fa 27 3d
       -0.07176825 -0.010430333 -0.1741553 0.041010674
0001d0 79 44 af 39 01 13 ae bd e7 34 1e 3c 9b 0c c5 3d
       0.00033429617 -0.084997185 0.009656168 0.09621545
0001e0 2c 10 6d 3d 93 51 e2 bc f4 43 fe bd 7c 13 6e 3e
       0.05787675 -0.027626788 -0.12415305 0.2324962
0001f0 d7 99 4e 3d 11 54 a7 3c 4a 97 86 3c d1 ed 51 bd
       0.05043968 0.020425828 0.016429562 -0.05125219
000200 23 c1 0e 3e 27 fa 65 3d 29 5f 19 3e 1a f4 52 3e
       0.13940863 0.056146767 0.14977707 0.2060093
000210 73 51 69 bb 38 95 88 3e 50 30 2f 3e ce 67 69 bd
       -0.0035601526 0.26676345 0.17108274 -0.05698376
000220 a8 51 e8 3d 77 31 2b bd 63 d9 3d 3d 28 93 cd 3d
       0.113437 -0.04179522 0.046349894 0.100378335
000230 15 04 cc bd 6c 12 84 bd 1f 90 34 bd 3b a6 54 3c
       -0.09961716 -0.06448826 -0.044082757 0.012979086
000240 7b 32 83 bd 7a fa 95 3d 30 fe 84 3c e2 1c 86 bd
       -0.06406113 0.07323165 0.016234487 -0.06548478
000250 aa a1 16 bd 61 81 2a 3e 41 f7 8c bd cd 56 85 3d
       -0.03677527 0.16650917 -0.068830974 0.065106966
000260 6e 0b 9f 3d c8 f3 26 bd 21 8b 00 3e f6 2a ee bd
       0.07765852 -0.04075983 0.12553073 -0.11629288
000270 28 53 29 3e 4f 24 2b bd 12 11 f7 3b 62 26 a2 3d
       0.16535628 -0.041782673 0.0075398767 0.07917477
000280 c7 cc 64 3d 36 26 77 3d 2e 81 b8 3c c1 be e3 bd
       0.055859353 0.060339175 0.022522535 -0.11120368
000290 8a 74 9d bd 0a 59 d5 3d 86 32 89 bd a4 cf bc 3c
       -0.07688244 0.104173735 -0.0669909 0.02304823
0002a0 2f 2c f0 3d c3 74 c9 3d 97 ae 80 3c 4e fa 10 3e
       0.11727177 0.09836724 0.01570825 0.14157984
0002b0 f8 40 06 3e 1a e2 62 bb 97 c2 07 be 78 33 87 3e
       0.13110721 -0.003461963 -0.13257824 0.26406455
0002c0 34 5f 0d 3e 56 67 90 3e 71 db ac be c7 68 57 3c
       0.13805848 0.2820384 -0.3376117 0.013147539
0002d0 ae be cc 3d 6a 10 6f be 5a 54 08 3e 38 ec bd bd
       0.09997307 -0.23346105 0.13313428 -0.09273571
0002e0 71 77 76 3e a1 aa 0d 3e aa 8c e8 3d 4f 15 04 3e
       0.24069001 0.13834621 0.113549545 0.12898754
0002f0 b0 cc 28 3e 1c 88 a0 3d 12 d7 d9 bd 67 11 92 3c
       0.16484332 0.07838461 -0.106367245 0.017830564
000300 66 92 26 3e de 8e 25 3e 0d 44 db bd e6 8b f5 3d
       0.16266784 0.16167781 -0.10706339 0.11989574
000310 3a 89 dc bb 8f 95 b1 3d aa d4 06 3e 8b e3 8f 3d
       -0.006730226 0.08671104 0.13167062 0.07025822
000320 86 7e ce 3d 06 9d 48 bd 42 55 8e bd 05 23 9e bc
       0.10082726 -0.048977874 -0.069498554 -0.019303808
000330 ba 9e 96 3b 73 01 98 3d 3b 6a 96 3d 32 bd f0 3d
       0.0045965584 0.074221514 0.073444806 0.11754836
000340 0a 54 0f bd a7 a5 e0 bd a1 b4 8b 3d 19 09 77 bd
       -0.034992255 -0.10969096 0.068215616 -0.06031141
000350 69 25 85 3d b1 16 3b bd 49 b9 95 3d 72 49 5f 3d
       0.06501276 -0.045675937 0.07310731 0.054513402
000360 65 ea 37 bd cf ec 87 bd 9e 5f 1f bd 0d ea b2 3d
       -0.04490127 -0.066369645 -0.038909547 0.08736048
000370 4e c1 ed bc d8 00 c8 3d 26 db 8b 3d 3e 9c 5e 3c
       -0.029022839 0.09765786 0.068289086 0.013587056
000380 c8 6d cf 3b 83 88 ea 3c 40 1d 20 3d be 29 b4 3d
       0.0063302256 0.028629547 0.039090395 0.08797024
000390 0c 57 6b bd 40 56 02 3e a1 11 d2 bd d4 7e 9c 3d
       -0.05745606 0.12728214 -0.10257269 0.07641378
0003a0 44 f9 91 3d ec 9f 98 3c 1f 0b c0 3b 67 74 b4 3c
       0.07127622 0.018630944 0.0058607007 0.022028161
0003b0 06 ad ee bc c0 83 f1 bc fc fa 20 3d a4 48 19 3e
       -0.029135238 -0.029481769 0.039301857 0.14969116
0003c0 27 31 85 bd b6 24 5c bd 60 af fc bd e7 e6 f4 bb
       -0.06503516 -0.053745948 -0.123381376 -0.0074738148
0003d0 e5 d7 14 bd 45 e9 78 be 17 f7 94 bc 6d a5 9e 3d
       -0.036338706 -0.24307735 -0.018184228 0.07746396
0003e0 4a 1c 9c 3d 87 29 f8 3d e0 be c0 bc 4c e0 fb be
       0.07622583 0.12117296 -0.023528516 -0.49194562
0003f0 39 57 86 bc ef d3 17 3e b5 55 a9 3d 5e 4b a4 3c
       -0.016399013 0.1482694 0.082683004 0.02005547

fc.bias f4 [13]
000000 b5 d8 da 3e a1 1d a3 3e f6 53 cb 3e 28 d0 57 3e
       0.4274346 0.31858543 0.39712495 0.21075499
000010 b1 e4 1f 3e de c1 13 3f 45 78 ec 3c 08 ca 81 3e
       0.15614583 0.5771769 0.028865943 0.2534945
000020 82 35 60 3d 40 5c b7 3d 6c eb c8 3e 3b 93 d3 3e
       0.05473853 0.08953142 0.39242113 0.41323265
000030 b4 f7 8f 3e
       0.2811867
