models/h12_ep30_bs128.pth (torch, 38249 bytes, 6 tensors)

net.0.weight f4 [32, 13, 3]
00000000: e028 af3e d012 e63d 62d4 e3bd 7f7d 873e
00000010: ec8d 1cbe e413 e83d 5fc7 133f e45d cabd
00000020: bda4 12be 52e8 a33e 2043 953c 986b 363d
00000030: 78b4 ca3e c853 343d 4e5e ffbd 64c5 89bd
00000040: 74ae 0f3d d4d5 b93d bea1 49be 36fd 1b3e
00000050: a2c1 233e 67e0 713f 70ad 16be e8b3 41bd
00000060: 9627 1ebe 7089 a2bd da02 1a3e eed9 29bf
00000070: 3cb1 9fbd 188b 90bc 4ad0 233f 4408 bbbd
00000080: 5a8a 1ebe 1cc6 4fbe 9652 8d3d c45a ccbd
00000090: baa2 273f 7093 093d 4f16 1bbe 577f 0bbe
000000a0: 122f 0d3e 08a1 a3bc 6aef f3bd a20e fbbd
000000b0: 50b7 773c e127 c03e 90c0 63bd a6d1 14bd
000000c0: ce5f 883e 804a 0dbb 8a93 8cbd 0d44 1d3f
000000d0: 22c9 8c3d fc17 2e3d 39ed 743e c45c 483d
000000e0: 9849 de3d 148b 78bf 802d 223d 6a1a a93d
000000f0: 6596 39bf 40f5 0cbe 8435 44bd 93ff e4bd
00000100: d4ae 06be 80ca bb3a f9e8 fdbe 1cf6 483d
00000110: 1864 bf3d 37dc 0b3d b0be 7a3d f875 063e
00000120: 3837 283e e83f f1bd e06e ca3d 44fb 8b3c
00000130: 2e3c 15be a4d5 1b3d ea9d bbbe 6c62 7bbd
00000140: 1657 07be 3fae 1abf 34a6 1abe a71a e0bd
00000150: 94fd c3be 54bd b2bd cca2 203e 44c1 ab3e
00000160: 6eff 883d 1a05 103e 89c5 9f3e 748f 813d
00000170: 40e5 e2bb 8433 4d3e 682d dd3d bc2f 763d
00000180: 4bbe 65bf ee79 173e 289e 87bc 9220 92be
00000190: 28d6 bcbd e800 1f3e 006a 6cbb 18dd 883c
000001a0: 10cd 263c 8822 923f 8039 f43d 9d2a 9abd
000001b0: 9f3d 62be 142c 6fbd 7093 eb3d 2e94 4f3f
000001c0: 5395 edbd 3630 0b3e 553a b6be a0df 98bb
000001d0: 64b2 e4bd 6621 a23e e0b0 2f3d 266a 9bbd
000001e0: b039 93bc 70c9 19be 98cf 89bc c3fa 3ebe
000001f0: c0d6 1abb 1c0a e6bd d0bc 793e d60e 9bbd
00000200: b555 98bd d0e2 ab3d a814 76bd b416 16be
00000210: 8765 b4be 709f 0dbd 48aa 20be 03e4 95bf
00000220: 5a40 52bd 08c5 f8bc c9ec b7bf 0413 1cbd
00000230: 201f d13d e0e0 373d 4054 88bd 30db 7cbc
00000240: fa02 0c3d 7e85 b03d 00df 743b da14 cd3e
00000250: 8639 0d3e 3a0b 91bd f2ed 92be 7447 da3d
00000260: f07c 0dbc 09f5 b9be 3e64 233e 368c 20bd
00000270: a9a4 bbbe fae6 3bbd cef1 3fbd cd62 3fbf
00000280: 1ab9 973d 0e88 163e dded ce3e aa13 00be
00000290: 0043 843a 5fda 16bf 2e28 d1bd 38fa 1f3d
000002a0: 5709 d0be d805 943c 4836 f13d 4ff2 68be
000002b0: d989 febd 8087 0cbe 89f7 01be 8677 67bd
000002c0: 1c1b e23d 7e54 8b3f 8094 64bc 9293 133e
000002d0: d07b 3e3c 800b 1fbd e7af b9bd b4f4 37bf
000002e0: 0c54 d63d 281d ebbd 6b3a 143f 70ca 103e
000002f0: bcd9 d33d 9cdb 49be b20c 15bd 26ca 11be
00000300: f5c6 483f 8ccf 3c3d f2b5 a4bd 67dc 5ebe
00000310: 364d 103e 1ec5 163e f5b5 c4be 4cda 77bd
00000320: 64f3 223e dc98 5e3e e6ef 193e 089b 6cbd
00000330: 933f 953e 4044 df3c 8cf7 b33d c15e 313e
00000340: bc2b 0c3e b8ba 20be ab68 8bbd c87f d8bc
00000350: 8018 023d cb22 89bf ffc4 bfbd 48d2 e13d
00000360: 5e35 44bf febb d2bd e76c 9bbd d803 913c
00000370: a75f 16be 1896 d3bc da59 0c3e 00b2 84b9
00000380: d812 af3d c9ff c03d c0ed 9a3c a84a 0f3e
00000390: 22dc 8b3e 2030 81bb dc8a ef3d 2f6e afbe
000003a0: 95d3 d4bd f2c4 0ebe e082 80be 1893 0cbd
000003b0: e09b 01be e052 d0be 0f18 aabd 08ce 0abe
000003c0: b7b9 c93e b012 823c 8881 013e 2a6b b13d
000003d0: 7423 d33d 4d6a c4bd 2449 953d e0da b8bb
000003e0: 0b0d b3bd 9b9a fa3e 97a0 84bd 4443 c83d
000003f0: 4734 b03e 4ee4 10bd 6c11 3fbd 9f2d ad3f
0.34210873 0.11234057 -0.11124493 0.26462933 -0.15288514 0.11331919 0.5772609 -0.098811895
-0.14320655 0.32013184 0.018220484 0.044536203 0.39590812 0.044025213 -0.12469159 -0.067271024
0.03507848 0.090739876 -0.19690606 0.15233311 0.15991834 0.94483036 -0.14714599 -0.047290713
-0.15444788 -0.079363704 0.1504015 -0.6634816 -0.07797477 -0.01764445 0.639897 -0.09132436
-0.15482464 -0.20290416 0.06900518 -0.0997825 0.65482676 0.033587873 -0.15145229 -0.13622795
0.13787487 -0.019974247 -0.11910899 -0.1225865 0.015119389 0.37530425 -0.055603564 -0.03633275
0.26635593 -0.0021559298 -0.06864078 0.6143196 0.068743005 0.042503342 0.23918618 0.048916593
0.10853881 -0.97087216 0.039594173 0.08256991 -0.7249511 -0.1376543 -0.0479026 -0.111815594
-0.13152629 0.0014327317 -0.49591807 0.049062833 0.09345263 0.03414556 0.06121701 0.13130939
0.16427314 -0.11779767 0.09884429 0.017087586 -0.14573738 0.03804554 -0.36643916 -0.06137316
-0.13216814 -0.6042213 -0.15102464 -0.109425835 -0.38279402 -0.08727518 0.15687102 0.33545887
0.06689344 0.14064446 0.31205395 0.0632619 -0.0069243014 0.20039183 0.10799676 0.060104117
-0.8974349 0.14792606 -0.016554907 -0.28540474 -0.092205346 0.1552769 -0.0036073923 0.016706988
0.010180727 1.1416788 0.1192503 -0.07527659 -0.22093819 -0.058391646 0.11502731 0.8108548
-0.11600747 0.1359261 -0.3559138 -0.00466533 -0.11166838 0.31666106 0.04289329 -0.075886056
-0.017971843 -0.15018249 -0.016822621 -0.18650346 -0.0023626536 -0.11232397 0.24388433 -0.07571189
-0.07438222 0.083928704 -0.060078293 -0.14657098 -0.3523371 -0.03457588 -0.15689957 -1.1710209
-0.0513309 -0.03036739 -1.4369136 -0.038104072 0.10211015 0.044892192 -0.066566944 -0.015433118
0.034182526 0.086192116 0.0037364364 0.4005497 0.13791475 -0.070822194 -0.28697163 0.1065816
-0.008635744 -0.3631976 0.15956208 -0.039196216 -0.36649063 -0.045874573 -0.046861462 -0.74760133
0.07408352 0.14700338 0.4041585 -0.12507501 0.0010090768 -0.5892696 -0.10212742 0.039056987
-0.40632126 0.018069193 0.117779315 -0.22748683 -0.12428636 -0.13723564 -0.12692083 -0.05651047
0.11040327 1.088516 -0.013951421 0.14411762 0.011626199 -0.038829327 -0.09066754 -0.7185776
0.104652494 -0.114801705 0.5790164 0.14139724 0.10344264 -0.1971268 -0.03638906 -0.1423727
0.78428584 0.04609637 -0.08042516 -0.21763764 0.14091954 0.14723632 -0.38420072 -0.06051092
0.15913159 0.21737999 0.1503292 -0.057765037 0.29150066 0.027254224 0.0878745 0.17321302
0.13688558 -0.15696228 -0.06807073 -0.026428118 0.031761646 -1.0713743 -0.09363746 0.11026436
-0.7664393 -0.10289763 -0.07589131 0.017702028 -0.14684926 -0.025828406 0.1370615 -0.00025309622
0.08548516 0.09423787 0.018912196 0.13993323 0.27316386 -0.0039425045 0.11696407 -0.3426375
-0.103919186 -0.13942316 -0.2509985 -0.034319967 -0.12657118 -0.4068823 -0.0830537 -0.13555157
0.39399502 0.015878052 0.12647069 0.08663018 0.103094965 -0.09590588 0.07289341 -0.0056413263
-0.08742722 0.4894608 -0.064759426 0.09778455 0.34414884 -0.03537398 -0.046647474 1.3529547

net.0.bias f4 [32]
00000000: 174a 963f 9d11 9a3f 680d 6f3f 4ea4 813f
00000010: 4030 7c3f f6db 843f 1c20 7f3f b706 663f
00000020: ea47 7e3f 914d 843f 5bb7 763f 208d a13f
00000030: 5b6b 863f b8e6 883f adf2 803f 5e90 6d3f
00000040: b684 5e3f 6dfd 9a3f 3fa8 813f 85e2 873f
00000050: 3657 643f ba59 623f 73e4 8e3f a703 803f
00000060: abcd 923f 190c 843f 8f09 733f 5d64 853f
00000070: d0ad 743f 7c93 773f b4b6 8f3f fc9b 843f
1.174136 1.2036625 0.9337983 1.0128267 0.98511124 1.0379627 0.9965837 0.89853996
0.9932848 1.0336171 0.9637353 1.2621193 1.0501512 1.069541 1.0074059 0.9279841
0.8692125 1.210859 1.012947 1.0616003 0.89195573 0.8841816 1.1163467 1.0001115
1.1469015 1.0316192 0.9493646 1.0421253 0.95577717 0.9670942 1.1227632 1.0360103

net.2.weight f4 [64, 32, 3]
00000000: f812 223f 781d d33c 0c72 82bc 6890 0e3f
00000010: 0a2c 09bd f8f0 2c3d ffb4 0c3f f465 243d
00000020: d0a4 96bc b567 193f 16d3 a73d be29 a33d
00000030: 6d2e 403f 4027 0ebc d8a9 413d 5110 2f3f
00000040: fd6a 86bd 3f9b 8cbd c9c3 313f a86a 28bd
00000050: 5ca3 86bc ccf3 263f 77d7 a5bd caae 8a3d
00000060: a21d 2e3f b870 f93c 98d2 843c 451a 303f
00000070: d83d 84bc a026 0abd ab81 233f 2236 8a3d
00000080: 30b8 823d 41a4 3e3f 96eb 8f3d 5f42 b5bd
00000090: 81b6 2e3f 4eef ce3d 1e5b 88bd 066f 293f
000000a0: d047 05bd 5063 5ebd d6a7 493f 5463 1dbd
000000b0: 6162 30bd 802e 073f f001 a23b 48c9 63bd
000000c0: 69ce 2e3f e045 8fbc b2ab cfbd 63dc 1b3f
000000d0: 74ec 0f3d 4894 633d 23ab 3d3f daed a93d
000000e0: d61f 79bd 0547 153f e0b9 6b3b e0d3 0e3d
000000f0: 5233 203f e8be 2b3d d40c 9ebc 8cc0 283f
00000100: e0f4 4bbb 5c76 2bbd 72b5 333f b4e6 e9bc
00000110: ab4e 3ebd ab5e 3d3f aa07 4fbd 3596 8cbd
00000120: 85f1 293f 9338 a2bd 448e dcbc 481f 143f
00000130: 3065 bdbb 30ca 413c 0362 3c3f 4ed7 b03d
00000140: 3ead 19bd dbb8 3b3f a030 5c3d e0bf bcbd
00000150: c91d 093f a027 d0bc 98e1 6e3c b76b 173f
00000160: 3c39 493d 28fb 55bc 5785 2b3f 0a33 afbd
00000170: 1473 8a3c f430 2b3f e803 553d 4045 15bb
00000180: 8fe8 213f a26e 33bd f0d5 bdbd c252 1c3f
00000190: 3c33 8abd da6e 833d 1f1b 3a3f f06d 0e3d
000001a0: be9f 17bd fa59 3e3f 9c10 193d 5666 963d
000001b0: 7eac 1e3f 80d5 28bb 00e3 353a d559 0e3f
000001c0: c09b a2bb 9e7b 933d a6e3 4f3f e0e8 86bd
000001d0: e09c d0bc 9c49 073f a294 b83d c1a0 cbbd
000001e0: 2959 423f 34c4 8c3d 5816 fa3c fc1c 273f
000001f0: 3ca0 373d d13a 23bd 8f4f 163f e671 ab3d
00000200: ae3c 8b3d 9c8c 383f d06a b3bd 80b0 c4bc
00000210: 3e86 323f b2cf 973d 9c5e 323d 71f5 303f
00000220: 082e 403d 1062 a0bd 563a 3a3f 202b c63c
00000230: ee99 a93d 6a95 1d3f 206a ba3d b882 f4bc
00000240: 049e 1a3f 0c2f 863d b8bb 293c 6691 183f
00000250: b23d b13d 588f 0b3d b2c6 2b3f 39ea 70bd
00000260: 2d0e cdbd ba07 2a3f 663e 96bd ae46 1fbd
00000270: 28b7 253f 3cb1 973d 7333 c1bd 9fd2 303f
00000280: 40c2 7d3c 3045 9fbb 3f7a 3e3f c6d0 81bd
00000290: cc7f c3bd 0f2a 403f 374a c1bd 8278 05bd
000002a0: 9b16 373f 1296 56bd 1656 0bbd af43 123f
000002b0: 0c80 d5bc 000a 3a3c 4f29 3f3f d64a af3d
000002c0: d65c 803d 8fca 3d3f 503c 83bc 3853 893d
000002d0: 67a4 173f c4c3 b23c 70f5 0f3d 8208 0f3f
000002e0: 6d53 7fbd ae2a 1fbd 04f4 543f 5457 98bd
000002f0: c8bb 55bc ae23 353f 88da 133c d4d0 bdbc
00000300: 6bf4 fabd 22de cbbd 9058 4e3d 97f8 a2bc
00000310: 7019 a03d 80db 1ebc 2b3e 22bc 38af 8d3d
00000320: f8df bb3c 2a04 d7bd c440 8dbc da90 37bd
00000330: 1522 d3bd 2c6d c7bd 1731 a5bd 991d 3d3d
00000340: fe0e 8fbd 4018 613b 05a7 943d 11e8 2dbd
00000350: c0fa ae3b fd41 8fbb 8080 483d f694 863d
00000360: a8cc 93bd 784e 963c 2072 643c 7e22 443c
00000370: a639 893d d790 9fbd ce90 093d 22cd 51bd
00000380: fa85 afbd e247 963c 14a5 6e3d 80fc 4abc
00000390: 301a 383c c0a4 27bc 7802 b03c f84b c5bd
000003a0: bc0f 503d b0a8 fa3c 320d 62bd 3cf0 a5bd
000003b0: e415 c9bd ccf1 7a3c 0826 823d b890 bf3d
000003c0: 9f98 9abc fa15 14bd 583b fc3c 993b 103d
000003d0: 6ce0 52bd 28d4 133c 4864 b2bd f0e7 1abd
000003e0: 0c01 b13d f2db 863d 7eea 81bd 9129 36bd
000003f0: 3ce9 1e3d 44a4 9cbc 6eff 8d3d 82ea 24bc
0.63310194 0.025770888 -0.015923522 0.55689096 -0.033489265 0.042221993 0.5496368 0.040136293
-0.018389136 0.5992387 0.08194558 0.07966946 0.7507084 -0.00867635 0.047281116 0.6838427
-0.06563375 -0.06865548 0.6943937 -0.04111734 -0.016435318 0.65215755 -0.08097737 0.067716196
0.68013966 0.030449256 0.0162137 0.68790084 -0.01614277 -0.033728242 0.6386973 0.06748606
0.06382787 0.7446938 0.07027356 -0.0885055 0.6824723 0.101042375 -0.06658004 0.66185033
-0.03253919 -0.05429393 0.7877172 -0.038424805 -0.04306257 0.5280533 0.0049440786 -0.05561188
0.68283707 -0.017489374 -0.1014017 0.6088316 0.03513761 0.055561334 0.7408926 0.0829732
-0.060821377 0.5831149 0.0035968944 0.03487003 0.6257831 0.04193011 -0.019293226 0.65918803
-0.0031121299 -0.041860923 0.7019874 -0.02855239 -0.046461742 0.73972577 -0.05054442 -0.06864587
0.66384155 -0.07920947 -0.026923306 0.5786023 -0.0057798848 0.01182799 0.73587054 0.08634816
-0.037518732 0.7332894 0.05375731 -0.09216285 0.53561074 -0.02540952 0.014580153 0.59148735
0.04912685 -0.013060369 0.67000335 -0.08554657 0.016900577 0.6687157 0.05200568 -0.0022776872
0.6324548 -0.04380668 -0.09269321 0.6106378 -0.067480534 0.06417628 0.72697634 0.034772813
-0.037017576 0.74356043 0.037369356 0.07343738 0.6198195 -0.0025762022 0.00069384277 0.5560582
-0.0049624145 0.072013125 0.8120674 -0.06587386 -0.025465429 0.52846694 0.090127245 -0.09942771
0.759173 0.0687336 0.030528232 0.652786 0.044830546 -0.039851014 0.58715147 0.08371334
0.06798683 0.7208955 -0.08760607 -0.024009943 0.6973609 0.074126616 0.043547258 0.69124514
0.0469189 -0.07831204 0.72745264 0.024190485 0.08281313 0.6155611 0.09102273 -0.029847488
0.6039736 0.06551942 0.010359697 0.5959686 0.086543456 0.03407225 0.6710006 -0.058817122
-0.100124694 0.6641804 -0.0733612 -0.038885765 0.647326 0.07406852 -0.09433641 0.6907138
0.015488207 -0.0048605427 0.7440528 -0.063386485 -0.0954586 0.75064176 -0.094379835 -0.03258563
0.7151887 -0.052389212 -0.034017645 0.57134527 -0.026062034 0.011354923 0.74672407 0.08559196
0.06267707 0.74137205 -0.01601997 0.06705326 0.59235233 0.021821864 0.035146177 0.55872357
-0.06233542 -0.038859062 0.8318484 -0.074385315 -0.013045259 0.7075757 0.00902427 -0.023170866
-0.1225365 -0.09954478 0.05037743 -0.019893927 0.07817352 -0.009695888 -0.009902517 0.06918186
0.022933945 -0.10498841 -0.017242797 -0.044815876 -0.10309235 -0.0973762 -0.08066004 0.046170805
-0.069852814 0.003434673 0.07258419 -0.042457644 0.0053399503 -0.00437188 0.048950672 0.06571381
-0.072167695 0.018347964 0.013943225 0.011971114 0.06700449 -0.07791298 0.033585362 -0.05122102
-0.08570476 0.018344823 0.0582629 -0.012389302 0.011236712 -0.010232151 0.021485552 -0.096336305
0.050796255 0.030598015 -0.055188365 -0.08102462 -0.098186284 0.015316438 0.0635491 0.09353775
-0.018871604 -0.03615377 0.030790016 0.035213087 -0.051483557 0.00902275 -0.087105334 -0.03781885
0.08642778 0.0658492 -0.06343554 -0.044473235 0.03879665 -0.019121297 0.06933485 -0.010065677

net.2.bias f4 [64]
00000000: afc6 223f e3cd 243f a076 dcbb fada bbbc
00000010: c08f 413f 11a9 363f c410 353f 23a9 3b3f
00000020: 2488 293f dc1e 243f 2fd3 503f 90fc a5bd
00000030: 34da 4a3f c2a7 56bd a631 453d 74d8 9ebd
00000040: bf7e c4bd 944e 363f 3d83 3d3f 31d2 6b3b
00000050: 1d34 e23c c07e c2bd 8ed6 503f 80de 423f
00000060: d0c8 343f 1ab5 213f 1749 583f 13f2 313f
00000070: cf35 333f c57a 243f 854b 263f c7f9 273f
00000080: d564 6f3d f580 283f 5397 383f fc13 383f
00000090: cc45 1a3f edf9 303f 9420 9dbe 667f 543f
000000a0: 8e67 233f eda1 323f 52fa bbbd ae4c 393f
000000b0: fc54 293f e243 4fbd 1419 513f 4d7e 2d3f
000000c0: 7f9b 273f 70ea 93bc dfa5 063d 7f8e 373f
000000d0: 1f69 173f 0ae9 80bf 0271 d6bd d4f1 8ebd
000000e0: 26b4 293f 1eef 443f 4aa7 42be 7934 3c3f
000000f0: 1dae a5bc 99e2 dabd 2f9f 1f3f ae41 89bf
0.6358442 0.6437666 -0.0067280084 -0.022931565 0.7560997 0.71351725 0.7072871 0.7330496
0.6622336 0.6410959 0.8157224 -0.08104813 0.792392 -0.05240608 0.04814305 -0.07756129
-0.095944874 0.7121365 0.7402838 0.0035983438 0.02761274 -0.09496832 0.81577384 0.7612076
0.70618916 0.63166964 0.84486526 0.6951 0.7000398 0.6424983 0.64958984 0.65615505
0.05844577 0.6582177 0.721059 0.71905494 0.6026275 0.69131356 -0.30688918 0.83006895
0.63829887 0.6977833 -0.09178604 0.7238263 0.661453 -0.050601847 0.8167889 0.67770845
0.65471643 -0.018056124 0.03287303 0.71701807 0.5914478 -1.0071118 -0.10470773 -0.06979719
0.6629051 0.76927364 -0.19009128 0.73517567 -0.020224625 -0.10687751 0.6235227 -1.0723169

fc.weight f4 [13, 64]
00000000: b060 223e 8060 963d 8937 cdbc 1e3e d63d
00000010: 1040 163e 0381 543d f5c3 bfbd 1dab 18be
00000020: e06c ca3d 9c3c ad3d 4427 d33d 4c36 b8bc
00000030: 0f09 58bb 27c5 0ebd 874c e03d f544 173e
00000040: 764a 13bd 3650 71be abfb f13d 7655 9ebb
00000050: f3b9 dbbb 2f9b 843d cdd4 05bb faca 033e
00000060: ace6 84b9 6a7d e03d ca46 403d 1efe 1bbd
00000070: 85de f23c 7904 a73d eefd 14bd d5bb edbc
00000080: 2077 b53b b375 043e caa3 0f3d c7d9 42bd
00000090: 5b6a d33b 2a94 d03d 754b 023e 665f 86bd
000000a0: 07e3 88bd 11b2 8f3d d825 093e 255b 133d
000000b0: de51 b7bd 8374 98bd 3993 28bd 65bc 103e
000000c0: 9acc 5a3d 628b 76bd 0566 e03d 40c5 37bc
000000d0: 3101 86bd 4ebf 7ebd 8b6d 7bbc 6bfd 023e
000000e0: 7c43 bd3c 4f1c a33d 8478 8bbc 5adc c3bd
000000f0: 639e 8c39 e767 bc3c 555c 83bd 1db5 53be
00000100: ca63 8ebc c3bf 5dbc b4b1 b9bd bec6 c83b
00000110: 027c 40bd 0866 06bc c954 e73c a5df 5bbe
00000120: 540b f33c fe0a a2bd 6ef3 0c3e 6668 943d
00000130: 433b 113d b0d7 e13d ed7f 863d 80b4 56bc
00000140: 7c9a 853d 8778 49bd 30aa 8d3d d105 e13d
00000150: ae51 ed3d eee0 aebc 1bb4 2c3c 347f a2bd
00000160: 5673 bd3d 6ec1 6abd 7148 e03c feb9 44bd
00000170: c1db b1bc e316 eb3d 72da 8d3d d41c c33d
00000180: 726f f5bc 5ee4 09bd a2dc dd3d 425d 8b3d
00000190: 713f 213e aa42 d73d 3b44 593e 15b1 0abb
000001a0: dd55 cb3d 8bbb 2f3e 3b9b a03d 7932 06be
000001b0: 9caa 42be 25b8 ac3c 8107 083d 4e51 aa3c
000001c0: 6ed9 703d c147 cebc edc8 193d 5cc9 5bbd
000001d0: 3c4e 8f3d 667b 0fbe ca54 b0bd 2461 c9bd
000001e0: 1302 1c3e fed4 093e 3963 2d3d ca96 b5bc
000001f0: af48 b03d 4b24 ad3d d93a 5b3d c3c3 7ebe
00000200: ed3c 40bd fd52 c03d 6f08 b0bd 752f 043d
00000210: 1611 383e d4a2 0e3c 613c fa3d 964f d1be
00000220: 9510 8b3c 74e4 2c3c f296 3f3e 0bac cdbc
00000230: 40b3 933c 62d0 e03c fc39 cf3c 73b7 ddbc
00000240: a1cf c43d a783 943c 6c1d e03d 0f6a bd3d
00000250: 9d0e 35bd a4a0 33bd 2d44 a43d 46b1 4a3e
00000260: 0016 af3c ae64 ae3c 0224 173e dc94 083c
00000270: c249 393e 755c 183e dbc2 f23d ed0f 223e
00000280: 7fa8 83bd 9483 32bd fb1c 003e 9eca 303d
00000290: f18b c33d bf5d 073d 3b52 fd3d c9d5 f83d
000002a0: 6ed7 a03d e420 263e b0e6 babd 6ffa a7bc
000002b0: 26e1 61be aadc 0c3e 8952 abbc c128 f53d
000002c0: aa46 0b3d 271c 853d 7def ad3d d707 393e
000002d0: 3c08 c7bc 4c17 d6be 04a4 573d f1eb 8d3d
000002e0: 4cae 48bd 6fc2 d23d b511 01be dc75 1b3e
000002f0: 96db 05bb 0082 afbd 1ef1 d63d 73df afbe
00000300: b1af 83bd 5eaa 003e 1690 e23c 0af0 153e
00000310: 407b 1f3e a872 8bbd c7f5 0bbd 056b 67bd
00000320: e43b 3dbd b6ef 8e3d 2524 3cbd 80bf 083e
00000330: 8dbe 14bd 2121 073e 2f08 7dbd 69dd 163d
00000340: 3f11 b8bd 6b75 1bbe 6e28 44ba 22c1 b8bd
00000350: ea08 6c3d ebad 453d 6fe6 ccbd 484f 98bd
00000360: 6a04 043d 5b2b e43d ac5b 453d 6b24 0bbd
00000370: 8678 ae3b df41 b83d 2d5f 99bc c38c 45bd
00000380: f2f3 84bd 0769 1e3e 1699 083e fd71 c93d
00000390: 2c80 923d 60b5 34bb 2667 88be e4f0 bb3d
000003a0: 6448 243e 1b20 55bd 49c5 f93d bb98 d03c
000003b0: 5209 d9bd 7aff a6bd 77a7 a93d ab1f dc3d
000003c0: 7ca3 4f3c e57f faba 69fd 123e f0ee 5fbd
000003d0: 703a ac3d 2723 7abc 7c22 0e3e 978c 2f3d
000003e0: 8056 81bd 6c77 ac3d a6b0 96be b0d9 c3bc
000003f0: ae60 403d 29b9 c83d cdc2 03bd 02b0 50bc
0.15857196 0.07342625 -0.025050895 0.10461067 0.14672875 0.051880848 -0.09363548 -0.14909025
0.098840475 0.08458826 0.10310224 -0.022486828 -0.0032964384 -0.034855988 0.109520964 0.14772399
-0.035959683 -0.23565754 0.1181558 -0.004831965 -0.0067055165 0.064749114 -0.0020421029 0.12870398
-0.00025348866 0.10961421 0.04694251 -0.038084142 0.029647121 0.0815515 -0.03637498 -0.02902023
0.0055378824 0.12935524 0.03506831 -0.04757097 0.0064518875 0.1018451 0.12724097 -0.065611646
-0.06683927 0.07016385 0.13393342 0.035975594 -0.08951162 -0.07444098 -0.041156027 0.14134367
0.05341778 -0.06019152 0.10956959 -0.011216462 -0.06543196 -0.06219416 -0.015345941 0.12791984
0.023103468 0.07964384 -0.01702524 -0.09563513 0.00026820888 0.022998763 -0.06414095 -0.20674558
-0.017381568 -0.013534489 -0.09067097 0.0061272075 -0.046993263 -0.008203037 0.02823867 -0.21472032
0.029668488 -0.07912253 0.13764736 0.07246475 0.035456907 0.11027467 0.06567369 -0.013104558
0.06523606 -0.04918721 0.06917226 0.109874375 0.11587845 -0.02134749 0.010540987 -0.07934418
0.09250514 -0.057313375 0.027378293 -0.04802894 -0.021711232 0.11478975 0.06926431 0.09526983
-0.029960368 -0.033665054 0.10833098 0.06804897 0.15746857 0.10510762 0.21217434 -0.0021162678
0.099284865 0.17161386 0.07842108 -0.13105191 -0.19010395 0.0210839 0.03321028 0.020790722
0.058801107 -0.0251807 0.037545133 -0.05365883 0.06997344 -0.14011917 -0.08609922 -0.09832981
0.15235166 0.13460156 0.042330954 -0.022166628 0.08607613 0.08454188 0.05352292 -0.24879365
-0.046933103 0.09390829 -0.085953586 0.03227182 0.17975268 0.008705813 0.122185476 -0.40881032
0.01697568 0.010552514 0.18709925 -0.02510645 0.018029809 0.027443115 0.025296204 -0.027065014
0.096099146 0.018129183 0.10943112 0.09248745 -0.04420339 -0.04385437 0.08020816 0.19794187
0.021372795 0.021288242 0.1475983 0.008336272 0.18094543 0.1487902 0.11853572 0.15826388
-0.064286225 -0.043582514 0.12511055 0.04316198 0.09548176 0.033048388 0.123692 0.12150151
0.0785359 0.16223484 -0.091260314 -0.020505158 -0.22058544 0.13756052 -0.02091338 0.11970664
0.034002937 0.0649951 0.084929444 0.18069397 -0.024295919 -0.4181465 0.052646652 0.06929768
-0.048994347 0.102909915 -0.12604411 0.15181679 -0.0020425073 -0.085697174 0.10495208 -0.34350166
-0.06429995 0.1256499 0.027656596 0.14642349 0.1557436 -0.06808978 -0.03416994 -0.056498546
-0.046199694 0.06979315 -0.045932908 0.13354301 -0.036314536 0.13196231 -0.061775383 0.036832247
-0.089876644 -0.1518151 -0.0007482831 -0.09021212 0.05762569 0.048261564 -0.10004889 -0.07436997
0.032230772 0.11141082 0.04818313 -0.033970278 0.005324426 0.08996939 -0.018722141 -0.048229944
-0.064918414 0.15469752 0.13339648 0.09836195 0.07153353 -0.0027573928 -0.26641196 0.091768056
0.1604324 -0.05203257 0.12195832 0.025463453 -0.10597481 -0.08154197 0.082838945 0.10748228
0.012673255 -0.0019111602 0.14354481 -0.054671228 0.084095836 -0.01526717 0.13880342 0.042858686
-0.06315327 0.084212154 -0.29431647 -0.023907512 0.0469672 0.098009415 -0.0321682 -0.012737276

fc.bias f4 [13]
00000000: ce96 0f3e 55e2 423e 693b 233e b734 223e
00000010: 254c 493e b8c1 e43e b9d9 223e 545e 813e
00000020: 07da 863d 7158 6d3e e60a ad3e cf7b 5d3e
00000030: 73b2 633e
0.14022371 0.19031651 0.15940632 0.15840422 0.19657953 0.44679046 0.15903367 0.2526728
0.06584554 0.23178269 0.33797377 0.2162926 0.22236042
