models/h12_ep30_bs64.pth (torch, 36061 bytes, 6 tensors)

net.0.weight f4 [32, 15, 3]
000000 f0 fb 6e bd 7c 63 a1 3d d2 d5 52 bd 45 5a 07 3e
       -0.058345735 0.07880303 -0.051473446 0.13218029
000010 c4 fa bb 3d 50 06 3b 3c 17 4e 32 be c0 78 59 bc
       0.09178689 0.011415079 -0.17412601 -0.013273418
000020 d9 25 14 3e 8d 3a 9d be a5 d1 16 be 9c 02 ac 3d
       0.14467563 -0.30708733 -0.1472841 0.08398935
000030 a1 76 c9 3b 41 5c 16 be d8 ec fd bc 4e 29 36 be
       0.006148175 -0.1468363 -0.030996725 -0.17789194
000040 b9 54 a0 bd 60 84 8e bd fc 54 5f 3e bc 2d 16 be
       -0.078286596 -0.06958842 0.21809763 -0.14665884
000050 ad c6 14 be 5f 1b 60 be a0 64 48 3d 12 0f 48 bd
       -0.14528914 -0.21885441 0.04892409 -0.048842497
000060 98 92 d5 be 24 d5 ba 3d a0 fd 8f 3d 60 81 b4 3c
       -0.41713405 0.091226846 0.07030797 0.022034347
000070 0a a3 c0 3d 94 c5 da bd c7 45 9a 3c af e1 9d bd
       0.09406097 -0.10682216 0.0188321 -0.07709061
000080 f4 1b 11 be fd e6 21 be 8c 87 fa bd 38 0b 48 3d
       -0.1417082 -0.15810771 -0.12232885 0.048838824
000090 e7 75 ad 3e e0 6c 2e bc 28 5b da bd 18 1b 87 be
       0.33879015 -0.010646075 -0.10661918 -0.26387858
0000a0 0e ec 04 be 18 92 ef bd f9 3c 72 be ec 85 c0 bd
       -0.12980673 -0.11697787 -0.23656072 -0.094005436
0000b0 56 c6 18 bd 80 1e a5 3b c4 bc cc bd 9e 6f ef 3d
       -0.037298523 0.0050390363 -0.09996942 0.11691211
0000c0 53 c2 33 3d fe f2 ed 3d 38 24 6b bd f5 9a 58 3e
       0.043886494 0.11618613 -0.057407588 0.21152861
0000d0 70 9a b8 3d a8 67 27 bd 83 42 81 3e e0 62 e2 bb
       0.090138316 -0.04087034 0.25246057 -0.0069087595
0000e0 70 3a a5 bc af b1 19 be e2 2d b0 3d 18 e2 a7 bd
       -0.020169467 -0.15009187 0.086025015 -0.08197421
0000f0 99 a1 79 3e f3 90 95 bd 63 36 90 bd b4 7c aa bd
       0.24378051 -0.073030375 -0.070416234 -0.083245665
000100 e2 cc a8 bd d7 ad 0c 3e 4b 56 81 3d f8 09 ec bc
       -0.08242203 0.1373819 0.06315287 -0.028813347
000110 0e 69 0e be f6 46 37 3d e5 15 03 3e 3f 39 0f be
       -0.13907263 0.044745408 0.12801321 -0.13986681
000120 80 ef ca bc 96 aa c3 bd 55 ac 0f 3e d7 01 75 be
       -0.024772406 -0.09554021 0.14030583 -0.23926483
000130 ab d5 bd bd 03 e7 8d bd 3d 60 bc 3e 00 5b ae 3a
       -0.092692696 -0.069288276 0.36792174 0.0013302267
000140 8e 9c 05 be be 28 81 3d d6 d8 99 bd c0 e6 2f 3c
       -0.13048002 0.06306599 -0.07512061 0.010736167
000150 0b c5 3e 3e be 82 01 be 60 6f 45 3d 1e 13 14 3d
       0.18629853 -0.1264753 0.04820192 0.036151044
000160 dc ee b8 3d ba 77 da 3d 30 7b 14 3d 28 bf 7d 3d
       0.09029934 0.10667367 0.036250293 0.06194988
000170 aa 38 ab bd 36 02 f8 3c c0 e1 d4 bb 0f 81 f3 bd
       -0.08360417 0.030274492 -0.006496638 -0.1188985
000180 81 47 80 3e a6 e8 5d bd 60 6e 15 3c f1 41 6b 3e
       0.25054553 -0.05417695 0.009120554 0.22974373
000190 af 02 16 3e b7 24 ba bd 8b 8f d0 be c0 fd 36 bc
       0.14649461 -0.09089034 -0.40734515 -0.011168897
0001a0 ec 13 6f 3d f4 17 6f 3e 00 df 40 bc ff f1 9b bd
       0.05836861 0.23348981 -0.011771917 -0.076145165
0001b0 ef b9 7b 3c c0 e1 0b bd 2e 54 e2 3d 64 66 66 3d
       0.015364154 -0.03415084 0.11051212 0.05624999
0001c0 8a 67 93 bd 4c 44 e1 bd 36 79 53 3e 28 dd f2 bc
       -0.07197483 -0.10999355 0.20651707 -0.029646471
0001d0 b7 a9 16 3e ae 00 e8 3d ca 12 c9 bd 46 11 82 3d
       0.14713179 0.11328255 -0.09818037 0.06350951
0001e0 4d 33 0c be da 4e 0c bd f7 1f 07 3e df a5 a6 3e
       -0.13691445 -0.034254886 0.13195787 0.32548425
0001f0 e2 fa e7 3d 0e af 67 bd 7b 6b 5a bd c0 ac c9 bd
       0.11327149 -0.05656343 -0.053325158 -0.098474026
000200 ef 7f 03 be a6 f7 46 3d e2 5f ca 3d 3e 74 d1 3d
       -0.12841772 0.04857602 0.098815694 0.102272496
000210 66 ee 57 3e fc c0 00 be 4e 69 11 be 5b 20 de bd
       0.21087036 -0.12573618 -0.14200327 -0.10846015
000220 42 ae df 3d da 80 60 bd bd 96 5a 3c d4 71 c6 bd
       0.10921909 -0.054810382 0.013341603 -0.0968968
000230 3e 06 cf 3d bd ac ec be 4c c6 8d 3d 0e 58 f1 3d
       0.101086125 -0.4622554 0.06922588 0.11784373
000240 71 59 9e 3e 00 eb 28 ba 5b ef ff bd 78 d6 b5 be
       0.30927613 -0.0006443709 -0.12496825 -0.3551519
000250 d7 a6 04 3e 36 cf 95 bd fe ff 7a 3d ff 88 13 3e
       0.1295427 -0.07314913 0.06127929 0.14407729
000260 56 87 6f bd a7 0f ab 3e 41 08 0e be cc 2c 13 be
       -0.058478676 0.3341038 -0.13870336 -0.14372557
000270 13 d9 9a bd 21 c0 9b bd 9e be af 3d af 52 70 3e
       -0.07560935 -0.07605005 0.08581279 0.23469041
000280 34 4d c9 3d 00 11 34 3b 2c 66 ca 3d 5d 0b 82 bd
       0.098291785 0.0027475953 0.09882769 -0.063498236
000290 30 c9 a8 bc 41 f0 82 be 7a d7 b9 bd 98 c8 15 bd
       -0.020603746 -0.25573924 -0.09074302 -0.036568254
0002a0 a1 0c 4b bd e6 0b fd 3d b2 d7 05 bd f4 da a3 3e
       -0.04957259 0.12355785 -0.032676406 0.32002985
0002b0 fd af 0a 3e f4 3f f0 bc de f5 37 3e 9e 83 ca bd
       0.13543697 -0.02932737 0.17964885 -0.09888385
0002c0 6b 0e 17 3e 3d 0f 71 3e 25 5e a5 bd 02 7b 1c bd
       0.14751594 0.23540969 -0.08074597 -0.038203247
0002d0 46 de fc 3d ec 46 a6 3d e6 0a bb bd b6 2b 69 3c
       0.12347083 0.08118996 -0.09132938 0.014231613
0002e0 f4 45 c8 bc 60 d1 b1 3b 32 0b f4 3d ce 48 e7 3d
       -0.024447419 0.005426571 0.11916198 0.11293183
0002f0 4e 8f a1 3d c1 23 1e be 50 42 0e be 00 93 dd 3a
       0.07888661 -0.15443327 -0.13892484 0.0016904771
000300 71 49 b6 be e7 7c 01 3e 96 7e 98 3d 5a a5 82 be
       -0.35602906 0.12645303 0.07446019 -0.25516778
000310 ba c0 0a bd 20 c3 e6 3b 68 bb 5e be 05 14 0a be
       -0.033875205 0.0070423037 -0.21751177 -0.134842
000320 90 85 cf 3c d2 2b 58 3d 70 cf 36 3c 06 52 82 bd
       0.025332242 0.052776165 0.011157855 -0.06363301
000330 dd a5 b1 3e 6c cb 12 3d d3 38 a8 bd 74 e3 ec bd
       0.34696856 0.03583853 -0.08213963 -0.11566821
000340 d8 22 d4 bd 1e 88 b3 3d eb da 9b 3d 10 8c e1 bd
       -0.103582084 0.08766197 0.07610115 -0.11013043
000350 70 f9 9b 3c 67 2d 83 3e a0 86 59 bd b7 cc 10 3e
       0.01903984 0.25620577 -0.053106904 0.14140593
000360 99 54 bc 3d a5 f7 0d 3e 6b 1d dc bd d0 ea 9c 3e
       0.09195823 0.13864 -0.107477985 0.30647898
000370 68 3c 0d 3d c0 a2 31 bc f4 62 99 3e c0 94 1a bc
       0.034481436 -0.010842025 0.29958308 -0.009434879
000380 b5 7f a3 bd 60 b1 83 bc cb c3 14 be a4 4d cc bd
       -0.079833426 -0.01607579 -0.14527814 -0.09975746
000390 93 43 ab bd 20 8a b5 3c e2 20 07 be 65 39 5d be
       -0.08362498 0.02216059 -0.13196138 -0.21603926
0003a0 ba cc ca bd f6 c3 ea 3d 08 95 1e be 28 ed e3 3c
       -0.0990233 0.11463158 -0.15486538 0.027823046
0003b0 9d ad 12 3e 28 7a 47 3c 92 b9 03 be 0e d7 d1 bd
       0.1432404 0.01217512 -0.12863758 -0.102460966
0003c0 1c 67 94 bd 50 6e 30 bc ac 86 02 be 4f 16 9e 3e
       -0.07246229 -0.010768488 -0.12746686 0.30876395
0003d0 b1 f6 16 be af f5 0b 3e e0 c8 3f be 14 13 fc bd
       -0.14742543 0.1366794 -0.18728971 -0.12308326
0003e0 c2 ae a8 3d 16 99 b9 be 1e 3d 3e bd a0 84 92 bd
       0.082364574 -0.36249608 -0.046445005 -0.071542025
0003f0 4c ee 0d 3d f6 00 cc 3d 25 7d e9 bd 73 51 ce bd
       0.034651086 0.09961121 -0.114008226 -0.10074129

net.0.bias f4 [32]
000000 48 ef a7 3e 12 0f ad 3e d9 74 c1 3e 9f fc 6f 3e
       0.32799745 0.3380056 0.3778446 0.23436211
000010 a4 39 b0 3e a3 12 48 3e 26 50 d5 3e 02 34 42 3e
       0.34418976 0.1953836 0.4166271 0.18965152
000020 17 7c 66 3e d3 5c af 3e 07 f3 ea 3e 32 52 ac 3e
       0.22508274 0.34250507 0.4588854 0.3365646
000030 a5 9c dd 3e 67 2e bf 3e ef 0e a7 3e ca 1a c6 3e
       0.43283573 0.3734009 0.3262858 0.38692313
000040 98 66 87 3e 84 39 00 3f 7f fb 65 3e 6d 0a 8c 3e
       0.2644546 0.5008776 0.2245922 0.27351704
000050 65 ab b4 3e 9e 9d e0 3e 52 a4 c1 3e 81 78 5b 3e
       0.35287014 0.43870252 0.3782068 0.21432687
000060 6f e5 99 3e 0e 88 ab 3e 39 f6 f1 3e 9e 10 8f 3e
       0.30057856 0.3350224 0.47258165 0.27942365
000070 de c0 86 3e 49 2c b0 3e 89 af e4 3e 9e ac 77 3e
       0.2631902 0.34408787 0.44665173 0.24186942

net.2.weight f4 [64, 32, 3]
000000 2c 94 1d 3e f8 15 5f 3c 09 20 48 bd 84 43 7a 3e
       0.15388554 0.013616078 -0.048858676 0.24439818
000010 1c 33 80 bd ca f9 85 3d ac bd 16 3e 5c 2a 90 3d
       -0.06259748 0.06541784 0.14720792 0.070393294
000020 72 ea 33 bd a4 56 7d 3e 68 f3 18 3d 88 16 ab 3d
       -0.043924756 0.24740082 0.037341505 0.08353907
000030 0b f5 44 3e 78 3f 9c 3d 10 73 88 bd 3f f1 8b 3e
       0.19234101 0.07629293 -0.066625714 0.27332494
000040 e8 23 11 3d 12 d7 c8 bd fb 0e 36 3e e0 80 d9 bb
       0.035434633 -0.098066464 0.17779152 -0.0066376776
000050 dc 97 c4 3d 98 83 8c 3e 80 3e 28 3d 00 3c 7d bc
       0.095992774 0.27444148 0.04107523 -0.0154562
000060 fe 76 6f 3e 80 a5 60 3b ec c7 df bc 4d 73 66 3e
       0.23385236 0.0034278333 -0.02731701 0.22504921
000070 5c 5b 83 3d 58 65 db bc 9e 32 ae 3e f8 ff 9a 3d
       0.0641391 -0.026781723 0.34022993 0.075683534
000080 cc 36 49 3d 76 f7 69 3e cc f4 42 3d 24 0a b2 3d
       0.049124524 0.22848305 0.047596738 0.086933404
000090 4e 85 89 3e 0a c6 b4 3d 34 21 9b 3d 61 91 89 3e
       0.26859516 0.088268355 0.07574692 0.26868728
0000a0 b0 a1 3c bc 48 e5 a3 bc 4d 04 48 3e fe 94 9a bd
       -0.011513159 -0.02000679 0.1953289 -0.07547949
0000b0 7d c7 b3 bd 53 ef b3 3e 24 a5 0b bd 18 d3 21 bc
       -0.08778284 0.35143527 -0.034093037 -0.009876989
0000c0 55 0b 4c 3e 11 a0 86 bd ac 91 7a 3d d5 f7 c6 3e
       0.19926198 -0.06573499 0.06117408 0.38860956
0000d0 94 27 21 3d a8 80 24 bc dc cb 4f 3e 0a d2 05 bd
       0.039344385 -0.01004044 0.2029261 -0.032671012
0000e0 80 ae 59 ba 1e 4c 91 3e ec c2 84 3c ac 9e 99 3d
       -0.00083038956 0.28378385 0.016206227 0.075009674
0000f0 7d ba b0 3e 2c e8 5b 3d e0 2a 14 3d c6 96 95 3e
       0.3451728 0.053688213 0.0361737 0.29216594
000100 90 4d fa bc fc a0 c8 3d aa 52 98 3e a0 85 0a bd
       -0.030554563 0.0979633 0.29750568 -0.03381884
000110 2c 1c 90 3c 3c 35 68 3e 6c 8d 1e bd 38 dc c8 3d
       0.017591558 0.22676557 -0.03870909 0.098076284
000120 0b 68 be 3e 0a 12 09 bd ac 25 c6 bc e4 1f 99 3e
       0.37188753 -0.03346447 -0.024187885 0.29907143
000130 4e d7 4b bd b2 34 8c 3d 18 ac 6f 3e 38 bf 7a 3d
       -0.049765877 0.06845988 0.23405492 0.061217517
000140 40 71 b9 3a b3 92 d8 3e 55 c9 6d bd e4 53 5a 3d
       0.0014148131 0.42299423 -0.058053333 0.05330266
000150 d8 88 9c 3e f4 79 6e 3d 6a 31 c7 3d 24 41 83 3e
       0.30573153 0.058221772 0.09726222 0.25635636
000160 ae 99 c9 bd 42 54 bd bd 3f e6 c2 3e fe a4 97 3d
       -0.09843765 -0.092445865 0.3806629 0.07404517
000170 f8 e2 4e 3c 32 eb cc 3e ba bd 82 3d 8c 51 a2 bc
       0.012627356 0.4002319 0.06383844 -0.019814275
000180 9a 31 13 3e 98 a2 1d bc ce ce a9 bd 44 1d 8a 3e
       0.1437439 -0.009621285 -0.08291398 0.26975453
000190 8c 56 35 3d b8 15 9d 3d 5e ed 5e 3e 00 d1 80 bb
       0.04427199 0.07670158 0.21770236 -0.0039311647
0001a0 40 9a 64 3d da 3f c6 3e 60 8a 4b 3c c0 cb 64 bc
       0.055811167 0.3872059 0.012423128 -0.013964593
0001b0 06 ba 3c 3e c6 45 56 bd 50 43 b3 3d e0 e8 91 3e
       0.18430337 -0.052312635 0.08753073 0.28497982
0001c0 a0 c9 c3 bd 79 c9 35 bd 1d ca 3f 3e d2 9c b1 bd
       -0.09559941 -0.044381592 0.18729444 -0.08672489
0001d0 48 12 c3 bc 66 a9 83 3e 80 5b a0 bd fc 6d 13 bd
       -0.023812428 0.25715178 -0.07829952 -0.03599356
0001e0 3f cd 29 3e b8 6f 38 3d 36 9c 86 3d a3 a5 96 3e
       0.16582201 0.04502842 0.065727636 0.29423246
0001f0 9f 8a c1 bd 50 ba e4 3c d4 d1 6f 3e ae b5 9b 3d
       -0.09450268 0.027920872 0.23419887 0.07603012
000200 05 07 71 bd ec 14 97 3e 68 d4 51 bc 94 d0 a9 3c
       -0.058844585 0.2950815 -0.012806989 0.02072934
000210 e1 83 93 3e 04 84 cf 3d 5a 98 2e bd 2e d0 c3 3e
       0.28811553 0.10132602 -0.042625763 0.38244766
000220 9c a9 36 3d a4 f8 ab bd e7 0f 9b 3e 63 3f 99 bd
       0.044595346 -0.08397034 0.3028557 -0.07482793
000230 28 5b 7e 3c 5d 7f 4f 3e 10 5e 68 3c d8 71 c3 3d
       0.015524663 0.20263429 0.0141825825 0.09543198
000240 4d fd 89 3e 64 d2 7f bd fc a2 2a 3d 6c f5 b6 3e
       0.26951066 -0.062456504 0.04165934 0.35734117
000250 d1 ee a5 bd fe e4 ac 3d 99 12 69 3e 60 e8 35 3c
       -0.08102191 0.08442114 0.22761 0.011102766
000260 0c f9 41 3d 7d 30 20 3e 50 67 52 bc 80 dc 46 ba
       0.04735665 0.15643497 -0.012842014 -0.00075859576
000270 62 37 74 3e 60 fc 72 bd c8 b2 e5 bc 2d 6a 50 3e
       0.23849252 -0.059322715 -0.028039351 0.20353003
000280 94 3e a0 3c 80 58 6c bb 1a c4 8c 3e d4 f6 8b 3d
       0.01956109 -0.0036063492 0.27493364 0.06834188
000290 32 c0 b1 3d 0f a1 ae 3e 31 08 52 bd a8 43 ad bd
       0.086792365 0.34107253 -0.051277343 -0.0846017
0002a0 c9 96 9b 3e b0 ca 7b 3d cc 67 29 3d e1 20 86 3e
       0.30388477 0.061472595 0.041358754 0.2619696
0002b0 fa 8a 9d 3d 54 c1 bf 3d 16 3e b4 3e b8 b5 8a 3d
       0.07692523 0.09363046 0.35203618 0.06772941
0002c0 80 39 b1 ba 49 4a 9d 3e 32 2f cd 3d d2 07 b2 bd
       -0.0013521165 0.30720738 0.100187674 -0.08692898
0002d0 ba f2 b5 3e 50 a0 76 3c 00 f6 e2 bb 10 ee 8b 3e
       0.35536748 0.01505287 -0.006926298 0.27330065
0002e0 05 47 d0 bd a1 db 2c bd 8f 75 c1 3e e0 e9 70 bb
       -0.10169796 -0.042201642 0.37785003 -0.0036760494
0002f0 68 2d a6 3d 25 97 96 3e a0 c5 38 3c c7 3c 4e bd
       0.08114129 0.2941219 0.011277586 -0.05035093
000300 6d 90 81 3e 94 35 2f bd 38 aa 6e 3d 17 9f 86 3e
       0.253055 -0.042775705 0.058267802 0.2629325
000310 f0 b9 53 3d f9 1a 7e bd 55 9b 33 3e be 3b aa bd
       0.051690996 -0.062037442 0.17539723 -0.08312176
000320 fa 55 0d bd 70 af ba 3e 68 0e 6f 3c e8 61 3c bc
       -0.03450582 0.36461973 0.014590837 -0.011497952
000330 b6 8d 41 3e b0 8f 82 3d ba c1 57 bd 75 be 8d 3e
       0.18901715 0.063750625 -0.052674986 0.2768437
000340 8c 45 84 3c a6 e5 c3 bd df 20 5b 3e da d5 86 3d
       0.016146444 -0.09565286 0.21399258 0.06583758
000350 f8 ca 19 bc f0 d3 50 3e 0c 73 57 3d fa 49 8b 3d
       -0.00938677 0.20393348 0.05259995 0.06801219
000360 3a 6e 18 3e b8 ac 90 3d d0 4a d3 bc 21 54 8c 3e
       0.14885798 0.070641935 -0.02579251 0.27407935
000370 e0 6d 83 bd 2c 1e c7 bd 43 a4 8f 3e 6c 92 8b 3c
       -0.06417441 -0.09722552 0.2805501 0.017037593
000380 94 4e 50 3d 43 8d 9f 3e dc 63 be bd 8a e0 90 3d
       0.050856188 0.31162462 -0.092963904 0.070740774
000390 a4 13 ad 3e 54 88 87 3d 16 37 bf 3d 91 15 96 3e
       0.33804047 0.066177994 0.09336679 0.2931333
0003a0 00 19 a9 b9 24 af 5e 3d b7 d0 61 3e 68 0a 3c 3d
       -0.00032252818 0.054366246 0.22052275 0.04590836
0003b0 f8 60 a1 bd e9 9d b5 3e 62 ad d0 bd 84 f4 b4 bc
       -0.078798234 0.35472038 -0.1018932 -0.02208925
0003c0 27 68 80 3e c6 86 1c bd 20 d4 86 3c 8d 94 c1 3e
       0.25079462 -0.038214467 0.016458571 0.37808648
0003d0 50 73 88 3c 8c 82 36 3d 5c 2b f8 3d 70 92 b7 bc
       0.016656548 0.044558093 0.12117645 -0.022408694
0003e0 14 bb 0e bd 49 2c 84 3e 1e 81 99 3d 48 73 87 bc
       -0.03484638 0.25815037 0.0749533 -0.016534463
0003f0 ff 6f 30 3e 88 ec 10 bc 10 b7 8c 3c f2 43 9e 3e
       0.17230223 -0.008845456 0.017177135 0.30911213

net.2.bias f4 [64]
000000 00 af 41 3e c6 5c 40 3e 9f f5 84 3e 65 e9 64 b9
       0.18914413 0.1878539 0.25968644 -0.0002183072
000010 2f a6 80 3c 02 b3 85 3e e2 4a ec bd 25 e3 da bd
       0.015704243 0.26113135 -0.1153772 -0.10687856
000020 07 92 54 3e 84 8c 4a bd 0d 46 e7 bd bd 5d 76 bd
       0.2075883 -0.049450412 -0.11292658 -0.06014799
000030 6c 5d ad 3c ab a2 93 bb b7 e5 82 3e b1 8f 6e 3e
       0.021162711 -0.0045054755 0.25565884 0.23297001
000040 25 fb 3b 3e 54 d2 d8 bc ec fb 59 3d 01 67 70 3e
       0.18357523 -0.02646748 0.053218767 0.23476793
000050 92 de 9f 3e 68 00 7d 3e 4d 58 8c bd e6 70 84 3e
       0.31224495 0.24707186 -0.068527795 0.25867385
000060 be c7 5e 3e 1e 84 91 3e c7 c3 f0 bc 81 5a ad 3e
       0.21755883 0.2842111 -0.029390229 0.33858112
000070 70 53 84 3d 7b d2 8c 3e 18 61 3e 3e 5d 29 68 bd
       0.06461227 0.27504334 0.18591726 -0.056680072
000080 19 af a4 3e 3b 78 2f 3e 2f d5 8c 3d 88 64 b2 3e
       0.3216484 0.17135708 0.06876599 0.34842324
000090 f2 68 26 bd 70 f8 c0 bc b3 a8 fd 3c 5e eb 5b 3e
       -0.040627427 -0.023555964 0.030964231 0.21476504
0000a0 0a 05 46 3e d1 be 90 3e ac f9 7a 3b 55 d3 3c 3e
       0.1933786 0.2827058 0.0038295789 0.18439992
0000b0 c1 39 b8 3e ba fa 26 3e 44 ce c2 bd 90 8b 84 bd
       0.35981563 0.16306582 -0.09511998 -0.06471932
0000c0 aa de 72 3e 75 34 9d 3e 19 31 42 3e 41 0d 3f 3e
       0.23717752 0.30704084 0.18964042 0.186574
0000d0 a5 c0 19 bd 76 ee 6c bd e2 86 28 3d d3 80 96 3e
       -0.037537236 -0.0578446 0.04114426 0.2939516
0000e0 3c 2c 70 3e 5e ac 8e 3e 10 24 0d bd f5 ba 86 bc
       0.23454374 0.2786588 -0.03445822 -0.01644657
0000f0 66 8a 2d 3e d0 a3 0b 3d 61 bb ee bd 55 79 79 3e
       0.16947326 0.03409177 -0.116568334 0.24362691

fc.weight f4 [2, 64]
000000 b9 f6 b7 3c 73 09 3e 3e 7f 29 f0 3c 9f 65 88 3d
       0.022456514 0.18558292 0.029316662 0.06660008
000010 bd 03 4a 3d ae c6 33 3e 81 03 6e 3a 23 55 85 bd
       0.04931997 0.17556259 0.00090795016 -0.06510379
000020 95 f9 44 3e af 8e 09 3e 33 0a 66 bd 14 b5 0b 3e
       0.19235833 0.13433336 -0.05616207 0.13643295
000030 f9 8c 8d 3b 27 ba da 3d fe 5c 1f 3e 93 f0 b9 3b
       0.0043197838 0.10680037 0.15562817 0.0056744306
000040 b3 c6 72 3d 5c a9 a1 bd a6 63 5d bd 61 a6 3b 3e
       0.059271526 -0.07893631 -0.05405011 0.18325187
000050 db a7 48 3e 1a e3 3b bd 22 c0 ec 3b 31 18 f0 3d
       0.19595282 -0.045870878 0.0072250525 0.11723364
000060 83 40 06 3e 25 00 1c 3e e7 f7 2a 3c 3e 07 13 3e
       0.13110547 0.1523443 0.010435081 0.14358231
000070 f5 de 91 b9 32 1a 12 bc 03 16 e1 3d 45 19 ec 3d
       -0.0002782267 -0.008917378 0.109905265 0.11528257
000080 0d 01 ad 3c 96 25 37 3e f1 3e 5d 3d 5f bc 45 3e
       0.021118665 0.17885432 0.054015104 0.19310139
000090 be 4b 9a 3c 6f 2c ff ba c1 4a 02 bc 93 36 be 3d
       0.018834945 -0.0019468198 -0.007952393 0.09287753
0000a0 6d b1 4f 3e 81 f3 20 3e e7 83 24 bc 6d f0 02 3e
       0.20282526 0.1571789 -0.010041214 0.12787028
0000b0 1e b2 c0 3c 06 6b 38 3e 25 2d a5 bb ff 90 04 bd
       0.023522433 0.18009576 -0.005040782 -0.03236484
0000c0 a7 50 86 3d 3c 80 e5 3d 15 14 d4 3d c6 7a 05 3e
       0.06558352 0.112060994 0.10355393 0.13035116
0000d0 1d 37 cc 3c c0 84 8d bd f3 61 9b 3c e7 c8 31 3e
       0.024928624 -0.06910086 0.018967604 0.17361794
0000e0 f5 12 42 3e c9 ea f6 3b dc 37 81 3d fb 79 bc bd
       0.18952544 0.007535313 0.063094825 -0.092029534
0000f0 a4 79 32 3e f8 1b 40 3d 63 e8 37 3d e5 fc 98 3d
       0.17429215 0.046901673 0.044899356 0.07470111
000100 9d ca b9 3e a0 c7 c0 3e dc 6c a5 3e 05 a0 29 bd
       0.36287394 0.37652302 0.32309616 -0.041412372
000110 50 be a3 bd c7 3d ad 3e bd 76 b3 bd b1 1b 64 bd
       -0.079952836 0.33836195 -0.08762882 -0.05569047
000120 e9 06 89 3e 82 b3 d2 bd 5f 3b a2 bd 14 29 59 bd
       0.26763085 -0.10288145 -0.079214804 -0.05301769
000130 b9 15 27 3b 9f 05 0e bd 92 7a ce 3e d9 ba d6 3e
       0.0025495125 -0.03467333 0.4032789 0.41939428
000140 26 61 ba 3e 94 92 3e bd 47 2e 08 3b c5 45 b6 3e
       0.36402243 -0.046526507 0.0020779537 0.35600105
000150 5a 02 c9 3e 51 c6 cf 3e 25 bf 24 bd 40 24 a2 3e
       0.39259607 0.4058099 -0.040221352 0.31668282
000160 da 98 a4 3e a1 24 c9 3e 70 18 8c bd aa 1e b6 3e
       0.32147866 0.39285758 -0.068405986 0.3557027
000170 aa c2 a9 bc 17 86 c2 3e 0d 11 ad 3e fe 43 44 bd
       -0.020722706 0.37992927 0.3380207 -0.047916405
000180 cd 4c ba 3e 27 a0 b9 3e 80 94 9c bc f8 a0 95 3e
       0.3638672 0.36255 -0.019113779 0.29224372
000190 e0 e4 8b bd 57 6e b2 bd ae e1 34 bd 30 60 cc 3e
       -0.06830764 -0.08712452 -0.044160537 0.39917135
0001a0 fd df ba 3e 3e 1d 87 3e 3a 1c b9 bd 25 c2 a9 3e
       0.36499014 0.26389498 -0.09038587 0.33155933
0001b0 42 e9 9a 3e 79 83 c1 3e cd 73 cd bd 33 5f 1f bd
       0.30256087 0.37795618 -0.10031853 -0.03890915
0001c0 72 32 d6 3e d8 c0 d6 3e ae 21 9a 3e 2f ab 9c 3e
       0.41835362 0.41944003 0.3010382 0.30599353
0001d0 0e ee af bc 17 d8 3c bd bf 8c ba bd e8 bb be 3e
       -0.021475818 -0.046104517 -0.091088764 0.37252736
0001e0 b0 58 cd 3e f7 f4 a7 3e 25 84 af bd c6 3d a0 3c
       0.40106726 0.3280408 -0.085701264 0.019560706
0001f0 0a ee dd 3e cc 84 65 bd 1d c1 2b bd 34 6a a2 3e
       0.43345672 -0.056034848 -0.041932214 0.31721652

fc.bias f4 [2]
000000 3a 29 b5 3d 7a 3a a9 3d
       0.08845754 0.08263107
