models/h12_ep50_bs128.pth (torch, 36073 bytes, 6 tensors)

net.0.weight f4 [32, 15, 3]
00000000: dcad 8d3d b94d 06be 90e0 c13c b12e 883d
00000010: 4e89 05bd fc9b 65bd f542 2cbd 9cb5 513d
00000020: e8e9 f13c 04f8 a4bd fcb7 633d 8c95 4bbd
00000030: 0fa2 a5be acd8 a43d 7367 073e 27f3 0e3e
00000040: b5a6 113e c0b6 17be 54f5 ed3e 72e7 8fbd
00000050: d854 023d 98d1 6fbc 3be8 afbd f285 7dbd
00000060: 95d6 953e f849 3cbd c85b 503d 5987 043e
00000070: 4039 c5bb a42d ab3d 36e1 e3be 3040 523d
00000080: c015 2abc 9730 923e dc9c 143d fe50 843d
00000090: d0f0 4fbc 0f32 fdbd 9a6f 74bd a343 bf3e
000000a0: 2434 dcbd 48bc a8bc d74f eb3d 4002 0f3d
000000b0: 007a 1aba 0a9b ed3d 425b 9c3d 1cfc c8bd
000000c0: 1cf4 56ba 9ec7 00be 00ee f2bb 4943 57be
000000d0: 3d12 163e f4cd 633d 1950 0d3e 768c f7bd
000000e0: 9269 9ebd d701 1a3e 3c79 c03d 024f 99bd
000000f0: a33d 823e 4887 e1bc 8c2d bb3d 8bca 7cbe
00000100: c247 cc3d 5789 abbd 3d7a dabe 1873 e8bc
00000110: da94 f0bd f294 a0be 708e 7f3c 092b 0c3e
00000120: e8be 33bd 20bf f43c 9c88 16be 1e6d b2be
00000130: 80af 0dbd 16cd 0ebe 7262 14be 2aa5 f63d
00000140: b6ac 95bd 5c74 c43e 8191 0abe 8557 083e
00000150: 1b93 57bd c647 68bd 9807 433d fb6e b4be
00000160: 20b6 a9bc f9b7 033e 4b82 173e b637 ecbd
00000170: b809 a4bc 0685 653d d3c0 11be 2013 48bc
00000180: 426e a63e bda9 0c3e d0a4 b03c 13e8 d6bd
00000190: e4d9 01be 607b 273d 472e e2bd e2f4 e63d
000001a0: e466 633d 2830 e33c bbef d8bd aafb ce3d
000001b0: cdb8 a7bd d05e d23c c099 383b 705f e43d
000001c0: c464 e5bd 8477 8cbd 9ea1 ad3e e323 debd
000001d0: 7b1c 0f3e 503a 143c 8006 bd3c 4c54 ca3d
000001e0: 3956 c53e 7851 bd3d e265 f53d b064 9c3e
000001f0: 0931 e9bd 741c 1e3d d440 2c3d a20b f53d
00000200: a870 bb3d 13ff 973e 8d21 063e 58d6 c2bc
00000210: d101 7f3e c724 003e a148 0c3e 71d4 0a3e
00000220: dafe b9bd b251 efbd 674c 333c a49c 553d
00000230: 3293 c4bd b510 0fbe 2276 d2bd 558c f3bd
00000240: 11cc 3c3e 8773 153e 8967 f6bd a0b2 1d3e
00000250: 004a a33a 506c 56bc ce81 f33d 4ffc 063e
00000260: 1544 0c3e 3b30 363e 309b df3c e164 083e
00000270: 1986 11be 08f3 14bd cf23 023e f746 98be
00000280: f426 44bd 1cad ccbd d89e acbd e443 d2bc
00000290: a86d cebd 54c6 afbe 0141 0cbe 44c3 56bd
000002a0: df3b e8bd da33 0cbd 28bb 603d 29f8 8a3e
000002b0: 00ed 59bc 008b dd3b c98f a3be 1faa 14be
000002c0: a884 883d 5412 a7be 4a30 d13d 6085 f0bd
000002d0: f471 523d 84d7 3bbd fcf7 bfbd 1b71 eb3d
000002e0: c63b f43d 5b65 8dbd 81c7 4cbe e357 113e
000002f0: 565c b33d dfc7 9ebe 317f bfbd 2fb0 003e
00000300: be67 4d3e 602a 0e3c e479 dcbd 4b26 d3bd
00000310: 32f2 ac3d d660 a83d dacc 7d3d aef6 e6bd
00000320: 2cc1 2f3d 6e93 dbbe be45 8cbd 4cdc 76bd
00000330: 3dab aabe 2e89 07bd 4a81 7dbd 8ce7 023d
00000340: 2e67 08be de76 fd3d 68de a63e 5472 8e3d
00000350: ac23 5fbd df66 89bd b0c4 88bd 0c18 cc3d
00000360: 68f2 a63e c1dc 02be f8fd 82bc efa9 0b3d
00000370: 4b5f 18be 024a b23d 8fc2 aabe 3ef5 8abd
00000380: 7fa4 b4bd a54f 133e a4e0 2a3d 4a2e da3d
00000390: 4278 013d 0ab8 a8bd 8240 e23d 5249 c6be
000003a0: 2ebe a73d 5002 4e3c 92bd d63d 429f d73d
000003b0: d0a0 6c3d 2668 783d 3c3a e5bd 60c8 e2bc
000003c0: f2ef 543e 71a8 eebd ac7a 783d b82b c43e
000003d0: a085 debb 1226 b3bd 457d 003e 9ecc f53d
000003e0: 28fa d93c 6cae 8a3e 4a58 a3bd 36cb e2bd
000003f0: 24fb 273d 7849 ec3c ac1c a63d 0598 6fbe
0.06917927 -0.13115586 0.02366665 0.06649531 -0.032601647 -0.05605696 -0.042056043 0.051198587
0.02953048 -0.08055118 0.055595383 -0.049703166 -0.32350203 0.080491394 0.13223056 0.13959943
0.1422375 -0.14815807 0.46476233 -0.070265666 0.031819195 -0.014637373 -0.08589216 -0.06189532
0.29265276 -0.04596898 0.05086878 0.12942256 -0.0060187876 0.08358315 -0.4450776 0.051330745
-0.010381162 0.28552696 0.036282405 0.064607605 -0.0126916915 -0.123630635 -0.059676744 0.3735629
-0.107521325 -0.020597592 0.114898376 0.034914255 -0.0005892813 0.11601837 0.076345935 -0.09813711
-0.0008199827 -0.12576148 -0.0074136257 -0.21021761 0.14655395 0.055616334 0.13800086 -0.12087338
-0.0773498 0.15039764 0.093981236 -0.07485773 0.2543765 -0.027530327 0.09139547 -0.24686639
0.09974624 -0.08375805 -0.42671385 -0.028375193 -0.11747141 -0.31363636 0.015597925 0.13688292
-0.043883234 0.029876292 -0.1470055 -0.34848875 -0.034591198 -0.13945422 -0.14490679 0.12043221
-0.073083326 0.38370025 -0.13532068 0.13314636 -0.052630525 -0.056709073 0.047614664 -0.3524092
-0.020716727 0.12863149 0.14795797 -0.115340635 -0.020024166 0.056035064 -0.14233713 -0.012211591
0.32505995 0.13736625 0.021562964 -0.104934834 -0.12680775 0.040889144 -0.11043983 0.112771764
0.055518046 0.027732924 -0.105926 0.10106595 -0.08189545 0.025679976 0.0028167814 0.11151016
-0.1120086 -0.06858733 0.33912367 -0.108466886 0.13975708 0.009047106 0.023074389 0.098793596
0.38542345 0.092440546 0.11982323 0.30545568 -0.11386306 0.038601354 0.042054012 0.119651094
0.09152347 0.29686794 0.13098736 -0.023783848 0.24903037 0.1251403 0.1369958 0.13557602
-0.09081812 -0.11685504 0.010943509 0.052151337 -0.09598388 -0.13971217 -0.10276438 -0.118920006
0.1843722 0.14594851 -0.120314665 0.15400171 0.0012457967 -0.013087347 0.11889993 0.13182186
0.13697846 0.17791836 0.027295679 0.13319732 -0.1421131 -0.036364585 0.12708972 -0.29741642
-0.04788871 -0.099939555 -0.084287345 -0.025667138 -0.10079509 -0.34331 -0.13696672 -0.052432314
-0.113395445 -0.034229137 0.054865986 0.27142456 -0.013301134 0.006760955 -0.31945637 -0.14518021
0.06665927 -0.3263117 0.102142885 -0.11744189 0.051378205 -0.04585983 -0.09373471 0.114961825
0.119254634 -0.06904098 -0.1999798 0.14193682 0.08757846 -0.31011865 -0.09350432 0.12567209
0.20059106 0.008677095 -0.10765436 -0.10310038 0.084446326 0.08221595 0.06196294 -0.11277519
0.042908832 -0.42885917 -0.0684924 -0.060268685 -0.3333377 -0.03308981 -0.061890878 0.0319591
-0.1332061 0.12376188 0.32591558 0.069554 -0.05447738 -0.06709074 -0.0667814 0.09965524
0.32606816 -0.12779523 -0.015990242 0.03409761 -0.14880101 0.08705522 -0.3335156 -0.067850575
-0.08820438 0.1438585 0.04171814 0.1065336 0.031608827 -0.08238228 0.1104746 -0.38727814
0.08190571 0.0125737935 0.104853764 0.10528423 0.05777055 0.0606462 -0.11192748 -0.027683437
0.20794657 -0.116532214 0.060663864 0.38314605 -0.0067908317 -0.08747496 0.12547787 0.12001918
0.026608542 0.27086198 -0.07975824 -0.11073916 0.04101099 0.028843626 0.081109375 -0.23397835

net.0.bias f4 [32]
00000000: 353d 403e df48 913e 390c cd3e 0b22 2f3e
00000010: 1803 bd3e 5579 ae3e 3f6e e83e 945e d73e
00000020: 8f3f da3e 761b a63e 5f29 b73e 6f29 373e
00000030: c933 ad3e f2eb 6d3e 6c59 de3e a1ee 393e
00000040: 9ac8 6e3e 2ca8 713e be90 3c3e 3ec5 5d3e
00000050: 5032 5a3e 87ca b53e 77f4 c03e c312 3a3e
00000060: 74c7 b23e 4939 853e 44d5 7f3e ba8d df3e
00000070: 6b3f 7c3e 5512 623e 4195 aa3e 7f88 bc3e
0.18773349 0.2837591 0.40048388 0.1710283 0.36916423 0.34076944 0.4539661 0.42064345
0.42626616 0.32442826 0.3577375 0.178869 0.3382857 0.23234537 0.43427598 0.18157436
0.23318711 0.23599309 0.1841459 0.21657273 0.21308255 0.3550608 0.37686512 0.1817122
0.34917796 0.26020268 0.24983698 0.43662816 0.24633567 0.22077306 0.33316997 0.36822888

net.2.weight f4 [64, 32, 3]
00000000: 8dfd 643e 8008 863d 403f 67bb 1204 b93e
00000010: 2872 cd3c 6402 083d 7d00 963e 2a5e 0abd
00000020: 2011 133d 5ea9 3c3e bf52 97bd a8a9 283c
00000030: 9f94 883e 6869 3a3c 5a34 833d c77b a73e
00000040: 803a ff3b 9e6c 7cbd d35e a03e 50af 313d
00000050: cf8f b8bd 3fdb a83e e033 533d 90b7 bebb
00000060: 5c86 2c3e 42bd 9cbd 541d 7c3d 3727 5e3e
00000070: 310b 75bd 4a42 1abd c73e 2a3e b458 8bbd
00000080: c626 a73d fe3f 113e d8cf 523d d76a 58bd
00000090: 42c6 943e 1b2a 3ebd a384 94bd f410 bf3d
000000a0: 7cee 4f3d d52b c6bd a92e 913e 9ce7 203d
000000b0: 4b40 30bd 527a a43e d1a6 bdbd d01e c73c
000000c0: 55ee 6c3e e821 80bc 32dd 64bd 717a 9c3e
000000d0: c810 be3c 5357 6ebd e10e a43e 408d bdbd
000000e0: f98d 75bd defa 943e 5219 0fbd e849 a63d
000000f0: 0dfd 9a3e e00d 963d 18bc 813c 447c c33e
00000100: 7417 7e3d 14d6 4a3d 4d7b 1b3e d7bc abbd
00000110: b0a3 90bb 74e7 983e 10e4 92bc 4bb9 9ebd
00000120: bac1 f13d 5889 2abc f096 16bd 0d89 583e
00000130: 0322 b7bd 1fa5 61bd f42b 9d3e 900f 263c
00000140: 1ca2 83bd 2363 9f3e 115d bebd e0fb 353d
00000150: f3bc 4c3e 3ce5 b73c 105a 043d 3daf a53e
00000160: 54c9 9f3d 98be a7bd 4708 9b3e 29a5 cebd
00000170: 0080 1737 f131 7f3e ac47 a23d 108d a9bc
00000180: c2b1 a03e 64e0 4fbd a3a7 bbbd af8e 2b3e
00000190: b459 0a3d 7c05 01bd 2a4f a03e ca54 94bd
000001a0: 3c29 813d 50d5 9c3e 4f6a 4abd 202e 263d
000001b0: 00ac 943e 7073 86bb dc01 8abc 1075 273e
000001c0: 7456 3f3d 1a07 8e3d e769 833e 9c0e cd3d
000001d0: cc56 653d 71d4 583e 48f8 363d 7091 65bc
000001e0: 9ae4 483e f692 af3d d0b8 e03c af45 053e
000001f0: a02d 893d ad3a 35bd c765 8c3e dc4f 6abd
00000200: 353c 7abd b4e1 043e 1451 753d ec2a 863c
00000210: 8b91 b03e 68ae 333d 20d0 15bb 1422 303e
00000220: f73d 40bd 020f cc3d 6437 ad3e 2625 89bd
00000230: 823e adbd 8858 3b3e 04b4 143d b4c7 4f3d
00000240: ced3 883e 6516 a0bd e88d 8dbc 6278 673e
00000250: e0e3 2b3d a231 953d 31e5 2d3e a8f0 5dbd
00000260: 944e 413d ab75 563e 6776 8abd 124c 96bd
00000270: adf6 bb3e 54b7 153d a394 c8bd 2d53 5c3e
00000280: 4853 eb3c b002 86bc a983 893e b8e8 353c
00000290: b02a bfbb 30a0 b03e 4d93 2dbd 4828 c43d
000002a0: 344a 393e 4ed2 27bd 54ef cdbd b9f7 be3e
000002b0: c08d 50bc a412 8ebc 2d48 503e b692 58bd
000002c0: fc53 743d e62f 723e de77 ac3d a6e9 bfbd
000002d0: b761 a33e 88e1 88bd a50c 8fbd 0117 633e
000002e0: 3862 98bc e8ca 1b3d ca32 863e 8fbd 3ebd
000002f0: 2cbf bb3d 1426 983e 40ff 2bbb 761b 963d
00000300: c304 523e a3fc cbbd 14a5 83bd 844e 993e
00000310: 7806 4e3d 7242 8d3d d6fb 953e 6808 533d
00000320: 6cc4 bb3d 4ed9 253e 7b56 a3bd 9a4c a23d
00000330: 19c0 b13e b91c bcbd 5829 84bc d78f 573e
00000340: e0c4 8cbc a0f2 e33b 6e90 b53e 8eb1 7dbd
00000350: c0d4 913a 2962 ae3e 605f b0bd 84d9 b13d
00000360: 6e19 af3e e238 a4bd 1867 b3bd 68d6 093e
00000370: f030 9bbc 1c5c 943c 2aeb 8c3e 2061 36bd
00000380: af85 96bd b356 993e f88a bc3d 0853 d23c
00000390: ec34 6b3e b6d9 b33d 5056 46bd e0a2 793e
000003a0: 98b7 353c 40d0 a73c c890 893e 8b7d 9bbd
000003b0: b0be 0ebd 591f 843e 7ef2 4cbd 606f 213c
000003c0: fbbb 3d3e 7a3d 84bd 55cb c9bd 4a2d b23e
000003d0: 2cfc 8cbd c706 5fbd 94db a93e 6c53 acbd
000003e0: 44fb 973d 389b 123e 6009 a8bc 3ce5 afbd
000003f0: 5dc7 863e eef6 15bd 1a75 29bd d5c1 9c3e
0.22362347 0.0654459 -0.0035285503 0.36135918 0.025078848 0.033205405 0.29297248 -0.033781208
0.035905004 0.18423983 -0.073888294 0.010294355 0.2667589 0.01137767 0.0640647 0.32711622
0.007788956 -0.061627023 0.31322345 0.04338008 -0.09011804 0.32979771 0.051563144 -0.005820222
0.16848129 -0.076532856 0.061551407 0.21694647 -0.059825126 -0.037660874 0.1662551 -0.06804028
0.08161692 0.14184567 0.051467746 -0.052836265 0.2905751 -0.046426874 -0.07251861 0.093294054
0.050764546 -0.09676329 0.2835591 0.03928338 -0.043030065 0.32124573 -0.09260333 0.024306685
0.23137791 -0.015641168 -0.05587501 0.30562165 0.023201361 -0.058188748 0.32042602 -0.09255457
-0.05994985 0.29097646 -0.034936257 0.08119565 0.30271187 0.07326865 0.01583676 0.38180745
0.062034085 0.049520567 0.15183754 -0.08385628 -0.0044140443 0.29864085 -0.017931014 -0.077501856
0.118045285 -0.010408722 -0.03676504 0.2114603 -0.08942034 -0.055089112 0.30697596 0.010135546
-0.06427404 0.31130323 -0.09295095 0.04442966 0.19993953 0.022448175 0.032312453 0.3236026
0.07802072 -0.0819065 0.30279753 -0.100900955 9.030104e-06 0.24921395 0.079238266 -0.020697147
0.31385618 -0.050751105 -0.091628335 0.16753648 0.033776954 -0.03149937 0.31310397 -0.07242735
0.06306693 0.30631495 -0.04941779 0.040571332 0.29037476 -0.0041031167 -0.01684659 0.1635325
0.046713307 0.06934948 0.25666735 0.10012552 0.05599098 0.2117479 0.044670373 -0.014011726
0.19618455 0.085729524 0.027431875 0.13014863 0.066981554 -0.04424541 0.274214 -0.057205066
-0.061092574 0.12976724 0.059891775 0.016377889 0.3448604 0.0438675 -0.0022859648 0.172005
-0.046934094 0.099638 0.33831322 -0.066965386 -0.08459188 0.1829549 0.03630449 0.05072756
0.26724094 -0.078167714 -0.01727958 0.22604516 0.041965365 0.07284857 0.16981961 -0.054184586
0.04719408 0.20943324 -0.06760865 -0.07338728 0.36711636 0.03655179 -0.09793975 0.21516104
0.028726235 -0.016358703 0.2685826 0.011102848 -0.005833946 0.34497213 -0.042376805 0.095779955
0.18094712 -0.040972047 -0.10055414 0.37298372 -0.012729108 -0.017342873 0.20340033 -0.05287429
0.059650406 0.23651084 0.084213 -0.09370737 0.31910488 -0.06683642 -0.06984834 0.22176744
-0.018601522 0.038035303 0.26210624 -0.046567496 0.091673225 0.2971655 -0.002624467 0.073294565
0.20509629 -0.09960296 -0.064279705 0.29942715 0.050299138 0.06897439 0.29293698 0.05152169
0.09168324 0.16196176 -0.07975479 0.07924767 0.3471687 -0.09185166 -0.016132995 0.21050964
-0.017183721 0.0069564134 0.35461754 -0.061936907 0.0011126027 0.34059265 -0.08611941 0.08684066
0.3419909 -0.08018662 -0.08759898 0.13460696 -0.018944234 0.018110327 0.27523166 -0.04452622
-0.07349717 0.2994896 0.09206194 0.025674358 0.22969407 0.087817594 -0.048422158 0.24378538
0.011091135 0.020485044 0.26868272 -0.07592305 -0.034849823 0.25805166 -0.050035946 0.009853214
0.1852874 -0.06457038 -0.09853236 0.34800178 -0.068840355 -0.054449823 0.33175337 -0.08414349
0.07420972 0.14317024 -0.020512283 -0.08588645 0.26323977 -0.036612444 -0.041371442 0.30616632

net.2.bias f4 [64]
00000000: 3a7c 3a3e ce7e 833e 8fc4 143e 156b 6abc
00000010: dbf9 933e 046e 923e 20dc 653d 586b aabc
00000020: 521f a13e 431a 7a3e b2fa a23e 59b4 a33e
00000030: 5866 6e3e bf24 6abd fd71 1fbc 6125 193e
00000040: d61c edbd 2ca3 853e 9b5a 143e 5631 4c3e
00000050: 163c 793e 01f8 803d 5d59 253d a153 a8bd
00000060: 59b6 66bc 0aba c5bd 7b72 923e 1c6a 9dbd
00000070: ee5a 983e 7557 7a3e be09 843e f976 b43e
00000080: caa0 b7bd 8c78 a43e 0c79 183e 9aca 863e
00000090: 3efe 373e 1697 7f3e 37a5 863e ca2e 4fbb
000000a0: 9090 503e 5ded cbbd 2b4d 763e c444 f23c
000000b0: 2971 613a 51f8 a73e a270 883e 0a0b dd3c
000000c0: b254 093d b359 073d feb1 8a3e aebc 623e
000000d0: 07d3 1fbd 04d4 c4bb 62e8 403e 7058 223d
000000e0: e798 183e d94b 803e 60b0 a33c e4e3 8f3d
000000f0: 1a02 463e d146 ad3e 4459 893e 1624 653e
0.18211451 0.25682682 0.14528106 -0.014307757 0.28901562 0.2859956 0.05611813 -0.020803139
0.31469208 0.2442408 0.3183189 0.31973532 0.23281229 -0.05716395 -0.009731767 0.14955665
-0.11577766 0.26101053 0.14487688 0.19940695 0.24339327 0.06297303 0.040368427 -0.08219076
-0.014081561 -0.09654625 0.28602967 -0.076862544 0.29756874 0.24447425 0.25788683 0.3524702
-0.08966215 0.3212322 0.14889926 0.26326448 0.1796808 0.24959978 0.26297924 -0.0031613582
0.20367646 -0.09957383 0.24052875 0.029573806 0.0008599931 0.32806638 0.26648432 0.026982803
0.033528037 0.03304453 0.27088922 0.22142288 -0.03901961 -0.0060067195 0.18838647 0.03963512
0.14902078 0.25057867 0.019981563 0.070258886 0.19336739 0.3384309 0.26825917 0.22377047

fc.weight f4 [2, 64]
00000000: 5c4f 683e c520 0f3e 8b14 fe3d ec6b dc3d
00000010: 800a 493e 4156 2f3e f7e5 873d ee02 87bd
00000020: adf2 893d b835 683d c5f1 293d 83ba 7e3c
00000030: 7050 1a3e 69ab 153d f6b7 91bd 90e3 ca3d
00000040: c32b 743d fc6f b23d 4373 3b3e 1c9c 5d3e
00000050: 9448 563e 58e9 1c3e 43c4 9e3d c148 a8bb
00000060: cdcf 95bc edf6 f23d a956 4fbb 138f a1bd
00000070: e589 073e efb0 913d 1eaa 4e3e 6869 57bc
00000080: aa42 6c3c 0e7f 9ebc 52bd 5d3e 07fb 9a3d
00000090: 4957 f93d 587a 053e d7dd b53d 2e19 b03d
000000a0: 0d50 483e 28b2 3a3c 8383 553d e866 693d
000000b0: 1765 dbbd 922e eb3c f778 c73d 0be7 77be
000000c0: a393 76bd ec17 13bd 9015 a83d efec ee3d
000000d0: 0d28 87bd 658d 3cbd b3b9 533d ae2c c23d
000000e0: f427 693e 9c69 3d3e f708 0a3e f1e9 74bd
000000f0: f55e 443e db74 003d 9564 1c3d c6e0 c13d
00000100: f4ce 8d3e f8e1 b23e 3042 b03e ef3d 30bd
00000110: a8aa cb3e a90f ba3e 8872 c1bd fae4 aebd
00000120: 422a c33e bc32 c33e cfd8 c13e 1d09 c53e
00000130: 9f44 a43e 9a79 83bd 15f6 babd bcb0 c43e
00000140: 3914 4bbd 79dc b53e 7a96 9f3e 7321 b13e
00000150: c312 9a3e f639 4ebd f9c0 a3bd 07e4 e6bc
00000160: c1eb 74bd 72d5 4ebd 73be cf3e 35cd 82bd
00000170: 2d68 933e ec07 9f3e 8bdf 963e f3be a33e
00000180: 2d5e c0bc 34cf 9e3e 5cfc ab3e b7ee b83e
00000190: 79b0 9c3e e31e c43e d6af bd3e b8ce febc
000001a0: 514f bc3e 1fa3 8cbd 6c96 b93e cac2 5cbd
000001b0: ce45 68bd 8e12 8e3e 103b c03e f1af 433e
000001c0: 22ec 1cbd f6fd c5bd fdb6 bc3e 0ded 9d3e
000001d0: 1b26 93bd e2a6 dfbc 2367 ae3e b625 9cbc
000001e0: 33ed bf3e 0077 873e e79b 6fbd 6005 983c
000001f0: 28f1 9c3e 7cc5 a73e 216c 9c3e 2042 9f3e
0.22686523 0.13977344 0.12406262 0.10762772 0.19632912 0.17122747 0.06635659 -0.06592356
0.0673574 0.056691855 0.041490335 0.015547398 0.15069747 0.036540423 -0.07115166 0.09906685
0.059612047 0.087127656 0.18305688 0.21641582 0.20926124 0.15323389 0.07752278 -0.005135626
-0.018287564 0.118635036 -0.0031637347 -0.07888617 0.13236196 0.071138255 0.20182082 -0.013147689
0.014420191 -0.019347694 0.21654251 0.07567411 0.121748514 0.13034952 0.08880203 0.08598553
0.19561787 0.011395015 0.052127372 0.056982905 -0.10712641 0.02870873 0.09739869 -0.2420923
-0.06019939 -0.035911486 0.08207238 0.11666285 -0.06599436 -0.04603328 0.05169077 0.09481178
0.22769147 0.18497318 0.13479982 -0.059793416 0.19176848 0.031361442 0.03818186 0.094667
0.27696955 0.34938025 0.34425497 -0.043027814 0.39778638 0.36340073 -0.09445673 -0.085397676
0.38118178 0.38124645 0.37860724 0.38483515 0.32083604 -0.06419678 -0.09128968 0.38416088
-0.049579833 0.3551977 0.31169492 0.34595832 0.3009244 -0.050348245 -0.07995791 -0.028184904
-0.059795145 -0.050496526 0.4057499 -0.063867964 0.28790417 0.3106073 0.29467425 0.3198162
-0.023482407 0.31017458 0.33590972 0.36119625 0.30603388 0.38304815 0.37048215 -0.03110443
0.36779264 -0.068670504 0.36247575 -0.053896703 -0.056707196 0.2774853 0.3754506 0.19110085
-0.03831113 -0.0966758 0.3685836 0.30844918 -0.071850024 -0.027301256 0.34063062 -0.01906095
0.37485656 0.26457977 -0.05849829 0.01855725 0.30652738 0.32767856 0.30551246 0.31105137

fc.bias f4 [2]
00000000: bb29 0e3e df42 113e
0.13883106 0.14185666
