models/h6_ep30_bs64.pth (torch, 38225 bytes, 6 tensors)

net.0.weight f4 [32, 13, 3]
00000000: 68a2 323e 7c07 6ebd daac 03be 7109 c8bd
00000010: 8368 81bd 7627 79bd dac3 fd3d 1432 cb3d
00000020: e216 9dbd 2590 10be e0c1 733c 4c40 d43d
00000030: f991 1bbe c220 2bbd dd44 87bd 3528 0c3d
00000040: 78a9 d2bc 2f41 1dbe 37dd b03d 39b6 a6bd
00000050: 306b 03bd a1d5 593f 9869 9bbc 7c36 363d
00000060: 2028 683c 7cf7 e63d 30e8 bc3c da62 163f
00000070: 44fe ee3d 913c b6bd c905 9d3e beb5 b2bd
00000080: 507d b53c 7d3c 883e 1886 ee3d 7a55 003e
00000090: bc63 903e fd41 19be e0ee 19bc 63eb 84bc
000000a0: c963 97bd 2633 3fbd 88cc edbd 38ef d5bc
000000b0: 78ef 053e 9bcd 173e e9b6 a7bd 98fd e7bc
000000c0: 33cc 2dbe 94a2 1f3e 3df0 9dbd 3985 84be
000000d0: a7a2 0bbe 80f2 953d c752 163e bad2 b43d
000000e0: 00d4 88bb f079 d6bc 303b e03d f63d 0f3e
000000f0: 752b 033e 7b77 ebbd e08b ef3d 7c1c d4bd
00000100: 4ad5 113e 9805 63bd c835 c1be 2433 1abe
00000110: 44c8 ee3d 039f 003d 7c1b 473d 14ce 58bd
00000120: 14c4 b53d 1478 3c3d 00a7 7c3a 00bd 42be
00000130: ac8c 5dbd 07c5 e6bd a544 29bd 9675 f1bd
00000140: 0bdb b0bd 60a9 83be cc9c 2f3d cc1a 0d3e
00000150: 2847 98bd 03e5 83bd 24fc a2bd babc 18be
00000160: 9823 0abd e0b3 fa3d b930 3ebe 5003 a03c
00000170: 5413 cf3d 6bf2 cb3e 6bde e8bd e063 803c
00000180: 520d c2bc 35bf 86bd 36d1 b73d ecb1 7b3f
00000190: c8a1 903d ce50 14bd 7970 fdbd 06f7 873d
000001a0: 8cfa b63d bc7c 9dbe 80fd d03c 565b 20be
000001b0: 874d 1b3d 9aec a73d a4bb 013e ad3c 603e
000001c0: 30a8 273d 326f 233e aa0e 043e e06a 583c
000001d0: 5eeb 1dbe 5c98 8b3e 2cc7 0b3e 3a65 a03d
000001e0: 5925 fdbd 703c bb3d 80c1 63bb 9c9e b83d
000001f0: a056 683d dcf7 5d3d 7295 80be 8cde bbbd
00000200: a010 af3c 38e8 54be 8cf5 54bd 2e71 883d
00000210: eb4c 1d3d 2000 ad3d 3c0d 5a3d fd09 5ebf
00000220: 383c a53c 346c 1a3e 234a 8cbf b25c 9ebd
00000230: d0c6 d43d 14b0 4cbd 08f0 13be 0a81 0e3e
00000240: e4df c0be 978d 95bd 1020 e23d ca61 5c3c
00000250: a7b9 95bd 50a2 25bc 2885 bb3d 6041 45bd
00000260: 7c69 f73d 8f01 e8bc 5c8d c93d c8b5 a73d
00000270: 258e 84bd 984e bfbd 181f fa3c 6f68 27be
00000280: c8c1 e3bc 2487 b53d 3046 07be f01e 5ebc
00000290: a037 b73d 04da 5dbe 2eb7 0abe 46e7 37bd
000002a0: 57da 7f3d 4a2f a73d 2cd6 213d 1852 05be
000002b0: cafb 10be 3213 b3bd 2d79 96bf 8808 03bd
000002c0: b3f5 f9bd 94aa 8fbf fc61 3d3d d5db 0cbe
000002d0: d015 f63d a020 85bd 104f 9a3d a111 aa3d
000002e0: 2284 1a3e 7a62 45bd 5f81 21be a029 f13b
000002f0: 9418 fd3d 501c f4bd a86d a63c 2646 d6bd
00000300: 405e 693d 6da8 bdbd 3851 c53c b64f 333e
00000310: 488c 8d3c 728a 133e 05f9 64be 82a9 b13d
00000320: 464c c8bd b0f7 24bd 14de 55bd 44be ed3d
00000330: 5848 633e 868c 6cbd 70cf 653d 2b90 933d
00000340: 2bfc acbd ac06 ee3d ea13 6b3e c8ba 54bd
00000350: 10a8 3e3d 9692 adbf 04e7 eb3d 80cd 703d
00000360: f3f0 80bf ac0a 243d 6611 d8bd 9630 223e
00000370: 2bca 13be 40db 193c 5d7e fb3c a851 1f3e
00000380: d6d7 1b3e 0272 9fbd 30fb de3d 3002 1f3c
00000390: 5d00 bc3c 20f1 4a3c 6468 47bd 1598 4abd
000003a0: 5c84 683d 1c51 19be 63a5 0e3e d279 b13d
000003b0: 9834 063e 1db5 31be 635f 9cbd ce65 993d
000003c0: d106 d63d 6d65 10be 0c56 193e b053 e43d
000003d0: 00ae 3aba 5ae5 5bbd 0f6d e43e 34b7 91bd
000003e0: d49e d93d 4025 9d3e ac3a f63d d46a fdbd
000003f0: 27d4 4dbd 5737 e3bd 1831 fbbd ec36 bebd
0.17444766 -0.058112606 -0.12858906 -0.09767426 -0.06318762 -0.06082865 0.12390871 0.09921661
-0.0767038 -0.14117487 0.014877766 0.10363826 -0.15192403 -0.041779287 -0.066049315 0.034218032
-0.025715575 -0.15356897 0.086359434 -0.08140225 -0.032084644 0.85091597 -0.01897125 0.044485554
0.014169723 0.11277673 0.023059934 0.58744586 0.11669591 -0.08898271 0.30668476 -0.08726071
0.02215448 0.2660865 0.1164667 0.12532607 0.2820109 -0.14966579 -0.009395331 -0.016225522
-0.073920794 -0.04667964 -0.11611277 -0.026115045 0.13079631 0.14824526 -0.08189184 -0.028319165
-0.16972427 0.15589362 -0.077118374 -0.2588289 -0.13636266 0.07321644 0.14680015 0.088292554
-0.004175663 -0.026181191 0.10948789 0.1398848 0.12809546 -0.114973985 0.11696601 -0.103569955
0.1424152 -0.055425256 -0.37736344 -0.15058571 0.116592914 0.031401645 0.048610196 -0.052930906
0.088752896 0.046012953 0.0009637922 -0.1901741 -0.054089233 -0.11268049 -0.04132523 -0.11790006
-0.08635529 -0.2571516 0.042874143 0.13779753 -0.07435447 -0.06440165 -0.07958248 -0.14915743
-0.03372535 0.1224134 -0.18573274 0.01953283 0.101111084 0.39833388 -0.11370548 0.015672624
-0.023687992 -0.065794386 0.08975451 0.9831836 0.07062107 -0.036209874 -0.12374968 0.06638913
0.08934507 -0.30759227 0.025511503 -0.15659842 0.037915733 0.08199425 0.12669235 0.21898146
0.04093188 0.15960386 0.12896219 0.013209075 -0.15421817 0.27264678 0.13650197 0.078318074
-0.12360639 0.09142387 -0.0034752786 0.09014627 0.056723237 0.054191455 -0.25114018 -0.09173307
0.021370232 -0.2079171 -0.051991984 0.06662212 0.038403433 0.084472895 0.053235278 -0.8673399
0.020170316 0.15080339 -1.0960125 -0.07732524 0.10389483 -0.04997261 -0.14447033 0.13916412
-0.37670815 -0.07302397 0.11041272 0.013451049 -0.07310801 -0.010109499 0.09156257 -0.04815805
0.120806664 -0.028321056 0.09841415 0.08188969 -0.064724244 -0.093411624 0.030532405 -0.16348432
-0.027802363 0.08863667 -0.13210368 -0.013557181 0.089461565 -0.21665198 -0.1354644 -0.044898294
0.062464084 0.081633165 0.03951089 -0.13019598 -0.1415855 -0.087438956 -1.175573 -0.031990558
-0.122050665 -1.1223931 0.046236023 -0.13755734 0.12015879 -0.06500363 0.07534611 0.08304144
0.15089467 -0.048189618 -0.15772007 0.0073596984 0.123582035 -0.11919463 0.02031596 -0.104625985
0.05697465 -0.0926064 0.02408658 0.17510876 0.017278805 0.14408281 -0.22360618 0.08674909
-0.09780173 -0.040275276 -0.052213743 0.11608556 0.22195566 -0.0577512 0.05610603 0.07205232
-0.08446535 0.11622366 0.22956815 -0.05193594 0.046546996 -1.356036 0.11518672 0.05878973
-1.0073532 0.04004924 -0.105501935 0.15838847 -0.1443259 0.009390652 0.030699903 0.15558493
0.15219054 -0.07785417 0.10887754 0.009705111 0.022949392 0.01238659 -0.04868354 -0.049461443
0.056766853 -0.14972347 0.13930278 0.086658135 0.13106 -0.17354245 -0.07635381 0.07490121
0.10450519 -0.14101191 0.1497423 0.111487746 -0.0007121265 -0.053685524 0.44614455 -0.07115021
0.10625997 0.30692482 0.120229095 -0.123738915 -0.050251152 -0.110945396 -0.12265223 -0.09287819

net.0.bias f4 [32]
00000000: 8a02 9e3f 1f1c ca3f 1b2e bf3f 5838 833f
00000010: 5a7f 973f 8c4f 843f 02fc c03f bfe3 993f
00000020: 5782 913f d7ab 873f 410b ae3f cf23 a03f
00000030: 7ab8 933f f53d b43f 090c c53f 9e5b 9f3f
00000040: 6a88 8e3f 3796 b23f 999b a73f fbdb 953f
00000050: 89ff 843f 0405 b23f bed8 973f 5d15 a83f
00000060: 64aa a23f 5247 af3f 9baa bb3f f5ef b73f
00000070: 2652 b03f 3269 963f e5ac ad3f dd8b 8a3f
1.2344525 1.5789832 1.4935945 1.025157 1.183574 1.0336776 1.5076907 1.2022628
1.1367902 1.0599316 1.3597184 1.2510928 1.1540673 1.4081408 1.5394298 1.2449834
1.113538 1.3952092 1.309436 1.1707758 1.0390483 1.3907781 1.186302 1.313152
1.2708249 1.369364 1.466144 1.4370104 1.377507 1.1750853 1.3568388 1.0823933

net.2.weight f4 [64, 32, 3]
00000000: 5cb1 1b3f 4c6c 85bd 80ce 253a 9be1 4d3f
00000010: c0e4 c93b 2c6e dfbc b5fc 233f a81a 9c3c
00000020: 8809 c6bd 33f5 3b3f 987a 98bd 80fb d1bb
00000030: 5bf5 503f b45d 273d 5868 0b3c 7ff2 443f
00000040: f87c 223c 20c7 1fbd 8879 4d3f 2040 34bb
00000050: 6096 143b a315 2d3f 45b9 7fbd 0e36 ac3d
00000060: 2317 283f 0a45 903d 6745 96bd 9781 323f
00000070: 8407 c3bd 60aa 023d 61cc 453f ca74 b1bd
00000080: a2d8 ae3d 9515 343f ac7d c5bc 80a1 a13d
00000090: cad4 273f cc75 97bd 93ac bbbd 28c8 3d3f
000000a0: 3c6c bcbd b870 513c 41b5 4a3f 3097 163d
000000b0: e07b 42bb 3b6d 0e3f 4c50 3d3d 605b f03c
000000c0: 665d 333f e5c1 ccbd 42b1 843d 8017 513f
000000d0: e037 d43b 1df1 31bd 143f 383f 507e 963d
000000e0: f065 3abd 5a9d 363f 8013 9fbd e054 953c
000000f0: 252b 0e3f c878 0cbd 3465 553d 9b6d 343f
00000100: 7eb9 d03d 204d d5bc 4731 213f 4ef1 cabd
00000110: b807 97bc 3819 383f ca98 10bd 225b 983d
00000120: ffbd 263f aaca bbbd 7028 21bd b4ec 4c3f
00000130: 3e96 02bd 4026 8d3b 96e0 293f 4073 f13c
00000140: 5176 bfbd 82e2 433f 1aa7 cdbd 615d 97bd
00000150: a9cd 273f 044f 9c3d f273 31bd 0e5b 353f
00000160: bb1e 40bd f878 12bd e328 393f e015 d0bc
00000170: c8da ad3d 23a5 293f e043 b43b 50ab 0d3c
00000180: 566e aebf f86f 093d 9c06 213d 62c0 233e
00000190: 7a17 8a3d 2672 07bd 2318 163d 3444 823d
000001a0: 784c f93c 93d4 a53e bef9 cebd faad 0ebd
000001b0: 8d7c c23e 6e73 943d 5dc3 5abd 066d a93f
000001c0: 3fbd cabd 14a2 643d f943 2b3f 78e2 263d
000001d0: b07f bcbc fa0e c33e cdb4 37bd c8cb dd3c
000001e0: 9349 b2bf ccdd a6bc dc81 bb3d fbd1 523f
000001f0: a417 233d 10fd 8bbd e3a0 7cbf 58bf ae3d
00000200: 431b 60bd 7a89 5dbf cc4e cebd 36dc c83d
00000210: 2c17 00bf c2fe b83d 2449 203d 4261 e4be
00000220: c088 caba 309d d33c d746 5fbf 2062 80bc
00000230: 7cf8 82bc 9bfc fe3e 4880 6d3d 94cb 43bd
00000240: b6ff 913f 0cd0 c4bc 902c 8bbc f117 cd3f
00000250: f210 ad3d c46e 3b3d 1969 70bf 581c 9dbd
00000260: e4fe 9abd 6e97 71bf c01c 943b d00b ee3b
00000270: 5a44 003f 6ca8 4fbd 38ee d83c 04f2 64bf
00000280: 4eff 993d 2cf1 cdbd 8a19 9ebe f88b 1bbd
00000290: a058 6c3d e51f 95be eea7 ba3d 3b7e 97bd
000002a0: d9c2 87bf d0a3 f53c fe66 bd3d 9d4d bc3f
000002b0: 70c4 ce3b ce16 803d e7fb 2fbd 20f5 4dbc
000002c0: ade1 9abd 0207 00bf f8fb bfbc d027 733c
000002d0: ab55 4d3c 203a 1e3d 00b9 f539 7f07 b9be
000002e0: 2ed1 813d ad22 a4bd d89d b2bf dd03 3cbd
000002f0: 9175 3ebd 1467 883f 0879 7dbc 80b1 3e3a
00000300: e8c9 e83e 18ab 013d 4050 ae3c 70a1 413f
00000310: 1e78 ab3d a071 cc3c c0ab 0b3f aa59 a23d
00000320: 08fe a83d 7d32 383f 4005 b03c fe59 993d
00000330: 5f51 6a3f 67bb acbd 4cb7 763d 8658 493f
00000340: d83c c43d 4ed5 cbbd 0608 393f 2627 0ebd
00000350: af2e bebd d968 3b3f f81e b8bc ee45 7ebd
00000360: 73ca 013f 3658 b03d 8836 193d e84e 4d3f
00000370: b888 febc b04e 123d 0815 553f 7075 613d
00000380: 44b0 9bbd 7e60 003f 9053 273d 70a2 c53b
00000390: d670 543f 7ca5 253d 68d9 213d d37a e63e
000003a0: 18d9 083d 1443 f8bc 4334 2d3f a09a 0e3d
000003b0: bfa8 a9bd d7a4 2e3f c418 703d abf5 a3bd
000003c0: 8908 223f 0040 54bd 089b 223c 9d18 783f
000003d0: 2871 a6bc bc3a 823d 829d f23e 04e7 e7bc
000003e0: f192 2ebd dc79 563f 2827 323d 162d 3bbd
000003f0: 3e60 f53e b072 d4bc 688d 7b3c 8273 0b3f
0.60817504 -0.065147966 0.00063250214 0.8042237 0.0061613023 -0.027274214 0.64057475 0.01905568
-0.09669787 0.7342102 -0.07445258 -0.006408155 0.8162438 0.040860847 0.008508764 0.7693252
0.00991749 -0.03900826 0.80263567 -0.0027504042 0.0022672638 0.6761114 -0.062432546 0.084087476
0.65660304 0.07044418 -0.07337456 0.6972899 -0.09522918 0.031900764 0.7726498 -0.08664854
0.08537413 0.7034543 -0.024107777 0.07892132 0.65559065 -0.07395515 -0.09163775 0.7413354
-0.092003316 0.012783222 0.7918282 0.036765277 -0.0029675886 0.5563542 0.046219155 0.029340446
0.7006439 -0.0999792 0.06479122 0.81676483 0.0064763874 -0.043442834 0.7197125 0.07348311
-0.04550737 0.7133385 -0.07767391 0.018228948 0.55534583 -0.034294873 0.052098468 0.70479745
0.1019163 -0.026037753 0.62965816 -0.099093065 -0.018436298 0.7191348 -0.03530196 0.07439257
0.6513366 -0.091695145 -0.039345205 0.8004868 -0.031881563 0.0043075383 0.66358316 0.0294739
-0.09348739 0.765175 -0.10041638 -0.073908575 0.6554819 0.076322585 -0.043323465 0.70842063
-0.046904307 -0.035759896 0.72328013 -0.025401056 0.08488995 0.66267604 0.0055012554 0.008646801
-1.3627422 0.033554047 0.039312944 0.15991357 0.06742759 -0.033067845 0.036644112 0.06360665
0.030431971 0.32388744 -0.10106228 -0.034833886 0.3798565 0.07248579 -0.05340897 1.3236396
-0.09899377 0.055818632 0.66900593 0.04074332 -0.023010105 0.38097364 -0.04485016 0.02707471
-1.3928703 -0.020369433 0.09155628 0.82351655 0.039817467 -0.06835377 -0.98682994 0.0853259
-0.0547135 -0.865379 -0.10073623 0.09807627 -0.5003536 0.09032966 0.039132252 -0.44605452
-0.0015452132 0.025831789 -0.8721747 -0.01567179 -0.015987627 0.49802098 0.057983667 -0.04780157
1.1406162 -0.024024986 -0.016989022 1.6022931 0.08450498 0.04575993 -0.93910366 -0.07671422
-0.07568148 -0.9437169 0.004520029 0.0072645918 0.50104296 -0.05069773 0.026480779 -0.89431787
0.07519399 -0.100557655 -0.3087886 -0.03797528 0.057701707 -0.29125896 0.09114061 -0.073971234
-1.0606338 0.029985338 0.0924816 1.4711186 0.0063100383 0.0625435 -0.042964842 -0.012570649
-0.075625755 -0.50010693 -0.023435578 0.014841035 0.012532632 0.03862965 0.00046867877 -0.36138532
0.06338726 -0.080144264 -1.395442 -0.04590212 -0.04649884 1.0656457 -0.015470751 0.00072743744
0.45466542 0.03165731 0.0212785 0.7563696 0.0837252 0.024956524 0.54558945 0.07927258
0.082515776 0.7195204 0.021486878 0.07487868 0.9153041 -0.08434182 0.0602334 0.786507
0.095819175 -0.09952794 0.7227787 -0.034705304 -0.09286248 0.7320686 -0.022475705 -0.06207841
0.5069954 0.08610575 0.03740552 0.80198526 -0.031071052 0.035719573 0.83235216 0.055043638
-0.076019794 0.50147235 0.040851176 0.006031327 0.82984674 0.04044102 0.039513975 0.45015582
0.03341016 -0.030305423 0.6765787 0.03481543 -0.08284139 0.68220276 0.05861737 -0.08005842
0.63294274 -0.051818848 0.009924658 0.96912557 -0.020317629 0.06358859 0.47385794 -0.028308399
-0.042620603 0.8377969 0.043494374 -0.045697294 0.4792499 -0.025933594 0.015353538 0.54473126

net.2.bias f4 [64]
00000000: 82a4 673f 4db1 89bf ebd6 583f 4c63 4d3f
00000010: 4ee4 5d3f efb6 643d 452b 443f eebb 5f3f
00000020: 675e 413f 4087 3e3f 01a3 4e3f eabe aa3c
00000030: 82e5 4c3f 4761 5e3f f19b 383f 1b1c 8d3d
00000040: e82f 633f fced 543f 6318 873d 3b50 71bf
00000050: ed1d a0bd d46c 1cbc 3ae1 c6bd 385f 753f
00000060: d0d4 533f d6ec 353c cfed dc3c bbde 373f
00000070: a848 4d3f df57 5c3f 0408 edbd 8ef0 8bbd
00000080: 2a66 483f 0973 4f3f fab3 6e3f c087 b5bd
00000090: 7bb9 8d3b d86f 583f dab8 4f3f adf2 4a3f
000000a0: fbcc 34bd 412e 073d 059a 513f 16f2 673f
000000b0: 6125 a2bc 1350 3c3d 4549 613f fe78 4b3f
000000c0: c38d 473f 28bc 6a3d 842b 493f 8b8c 743f
000000d0: 29a2 613f c0f4 553f cdac 3dbd 585e 453f
000000e0: 6c47 91bd cedc c53c 8e17 cdbd 0eb9 543d
000000f0: c570 5b3f b687 583f fa9e 523f 35d1 afbc
0.90485394 -1.0757233 0.8470294 0.8022964 0.8667649 0.05583852 0.76628524 0.8739613
0.7553467 0.74425125 0.80717474 0.020842988 0.800377 0.86867183 0.7211295 0.06890126
0.88744974 0.83175635 0.06596448 -0.94263047 -0.07818208 -0.009547431 -0.09710927 0.9584842
0.827466 0.011103829 0.026968865 0.71824235 0.8018899 0.8607158 -0.115737945 -0.068329915
0.7828089 0.81034905 0.9324337 -0.08863783 0.0043250895 0.8454566 0.81141436 0.79276544
-0.044140797 0.033003096 0.8187564 0.9060377 -0.019793214 0.045974802 0.88002425 0.79481494
0.77950686 0.057308346 0.78582025 0.9552695 0.8813806 0.83576584 -0.046307374 0.7709708
-0.07093701 0.02415314 -0.10014258 0.051934294 0.8571895 0.8458208 0.8227383 -0.021462062

fc.weight f4 [13, 64]
00000000: 87e9 903d 4de9 18be 268f 70bc 304a 423d
00000010: 5699 efbd e9a6 50bd 9c57 12bd 3c8b 9ebc
00000020: 9134 8ebb a20f 083e f7f3 753d dfdf b03d
00000030: e638 883d b48c 7a3d 28dd 11bb 6c3d b6bd
00000040: 19ef c93d 4764 9fbd b4fa 133e 821e 4dbd
00000050: 8686 803d 5187 093e 4548 433d 7a2a 9f3d
00000060: 83ab 83bd 2694 963d 189a a13d 059e c63d
00000070: 19a8 f63d 189e 08bd 8ba6 b93d 6ef6 0ebc
00000080: 93e9 d73d 41da 7c3d c5d7 e5bd f27b 27bb
00000090: 6e51 e03c 8b69 ab3b cc76 21bd 9f46 9c3d
000000a0: 670d 95b7 940e 673d 8bb6 153e 5560 37bd
000000b0: 1e20 c3bb 65ee a63c a318 69bd c06b bcbc
000000c0: aff0 8dbd 2ba2 023d e448 933c 1c4e 5d3d
000000d0: 26e7 5fbc 414c 9b3d b5f6 91bd 2e39 d6bc
000000e0: b348 84bd 6a79 073e d4d7 0e3d cdb4 ee3d
000000f0: 9ca0 083d afc0 d43d cc8a 873d 4ec6 bf3c
00000100: 19ed 3ebc d431 76be f755 5b3d 3a4b 47bd
00000110: b0bc c8bc 766c 033e 6663 a23d e578 8c3d
00000120: a9d9 053e 2685 46bd 3514 ed3c de89 20bd
00000130: c0c2 dd3c 7680 943d 0f67 993d 167a bc3d
00000140: ccf2 233d b254 a5bd afbe e139 0f25 0abd
00000150: d7ee cd3b ec89 373d 7ab8 16bd 29e7 213e
00000160: c283 79bd aaf3 023e 72c7 04bc ddea 483d
00000170: 186b 183e 589e 44bc 2438 97bd febc 903d
00000180: 817e dc3b 20ca ae3d 8037 cebd 8160 273d
00000190: e00e 303d 1fff c5bb 79da 743c 1fae 623d
000001a0: ae68 a23d e623 aebd 62ad 593d ddab 363d
000001b0: bbff 6dbd a4d3 59bd 6731 9c3c 2183 90bd
000001c0: eb6d 683d 5473 483d 099e cbbd 1f7d bbbd
000001d0: ad3e 193e ec1f 873d 97c4 7a3d a48b c3bb
000001e0: 7060 c1bd 1759 723d 35bb c83d 173b 0b3e
000001f0: b079 923d 2d7e 233d 7994 21bc 555f 9fbd
00000200: 732c 183d 8737 acbe 0ba7 88bd 13d7 313e
00000210: 82cb f53b 1fb5 97bb a53e 063e 5589 533d
00000220: 8123 b73c c13c 263e 2b8c bfbd 2935 16bd
00000230: 5b61 d13d 74ea e13d 3032 88bb f323 b03d
00000240: c027 82bd 204b 1a3d 0bf3 f23d a557 5fbe
00000250: b93c 9b3d 4d60 c4bc 6c56 af3b 5388 cc3d
00000260: 9925 2b3e 957d 5a3d 61b7 413d 41f9 0a3d
00000270: ddd4 0e3e ef8f 283e 65a5 63bc 6bcf d9bd
00000280: cec6 113d d8e1 0d3e a95b 5bbd 0e3b 96bd
00000290: 7170 7d3d dd1e 093e e04c 203e a745 1d3d
000002a0: 5bc3 bd3c 9dab 163d dc3b 343e 1e24 2c3d
000002b0: c465 a23c 6f05 afbd ee4a 263e 2429 493e
000002c0: a1e6 b13d 1f16 163e 41bc fc3c 4cb1 15be
000002d0: e4a7 97bd a5f6 97bd 0bc1 c53d 4841 063e
000002e0: 9bc8 1c3d f2ef 3a3d 00f2 553d f3e4 bdba
000002f0: 08d5 9d3d 70cc 193e c2f3 7cbd 80c0 5fbd
00000300: 26d5 273c 873d 9b3d 7949 df3d 2147 ff3d
00000310: 9174 60be c8b8 ba3d b560 f63d abd4 75be
00000320: 0bcc 71bd 96cc 503d f3c7 3f3d 0d8d 593d
00000330: 8c5f 3c3e 1d86 6fbc 3dc2 9c3d a229 053e
00000340: 15b5 7abe 94b7 bb3c 83ed 373d 0830 4c3e
00000350: fcfe dc3b cce3 023e a4db 0b3e 4737 e9bd
00000360: 0b90 07be a719 c3bd 3bdd d33d 9bfe 473e
00000370: 9782 10be 7429 9f3c 5f4f 6b3d 820c f63d
00000380: 66eb 833e 3334 643e e148 2b3c 5ce3 2fbd
00000390: 6c71 bdbd 7b1d 8e3c 83e2 013e 751d 2d3d
000003a0: dc0d c2bd d854 e23b c909 e73d 914c c23d
000003b0: fb47 58bd 806e 063e 368a 7a3d d8e4 733e
000003c0: 7b8a 69bb 34cc f63a e34e 5bbd 1af2 9bbe
000003d0: 8f1c f4bc 2ded ebbc bb98 b1bd 1e57 3d3e
000003e0: 990a 033e e637 133d 4645 af3d 612c 4a3d
000003f0: 4ada a93d da83 43be c368 39be 0563 58bd
0.07075792 -0.14932747 -0.014682567 0.047434032 -0.116991684 -0.050940428 -0.035728082 -0.019353501
-0.0043397625 0.13287213 0.060047116 0.0863645 0.066514775 0.06116934 -0.0022257064 -0.08898434
0.098600574 -0.07782798 0.14451104 -0.050077923 0.06275658 0.13430525 0.047676343 0.07771774
-0.06429198 0.07352476 0.07890719 0.096981086 0.12043781 -0.033353895 0.09064969 -0.008725746
0.105425976 0.06173158 -0.112227954 -0.0025556055 0.027382579 0.0052310876 -0.039419934 0.076306574
-1.7768425e-05 0.056410387 0.14620416 -0.044769604 -0.0059547564 0.020377347 -0.05690826 -0.023000598
-0.069306724 0.031892937 0.017979093 0.05402957 -0.01366595 0.07582904 -0.07127134 -0.026150312
-0.06459179 0.1322991 0.0348738 0.11655579 0.033356294 0.10388314 0.0661827 0.023409989
-0.011653208 -0.24042445 0.05354878 -0.048655726 -0.024504036 0.12834343 0.07929115 0.06858996
0.13071312 -0.048466824 0.0289403 -0.03919398 0.027070403 0.072510645 0.0749036 0.092029735
0.04002647 -0.08072795 0.00043057415 -0.033726748 0.0062845754 0.044809267 -0.036797024 0.15810837
-0.06091667 0.12788263 -0.008104192 0.049052108 0.14884603 -0.012000643 -0.07383755 0.070672974
0.0067289476 0.08534646 -0.100691795 0.040863518 0.042982936 -0.0060423757 0.014944666 0.055341836
0.07930122 -0.08502941 0.053143866 0.044597495 -0.05810521 -0.05318035 0.019066526 -0.07056261
0.05674545 0.04893811 -0.09942252 -0.09154724 0.14965315 0.065978855 0.06122264 -0.005967574
-0.09442222 0.059166994 0.09801332 0.1359676 0.07152116 0.039915252 -0.009862059 -0.07781855
0.037151765 -0.33636114 -0.06672486 0.173672 0.0075010667 -0.0046297456 0.13109834 0.051644642
0.022355797 0.16234113 -0.09352907 -0.03667179 0.10223647 0.110310465 -0.0041563734 0.08600607
-0.06355238 0.0376693 0.11862763 -0.21810777 0.07579941 -0.023971701 0.0053508785 0.09986939
0.16713561 0.05334242 0.047294024 0.033929113 0.13948388 0.16461156 -0.013894414 -0.10635265
0.035589986 0.13855684 -0.05355421 -0.073354825 0.06187481 0.1339068 0.15654325 0.038396504
0.023164442 0.036784757 0.1760096 0.04202663 0.019823916 -0.08545958 0.16239521 0.196446
0.08686567 0.14656876 0.030851485 -0.14618415 -0.074050695 -0.074200906 0.09655961 0.1311084
0.03827725 0.045638986 0.052232742 -0.0014487788 0.07706648 0.15019393 -0.061755903 -0.05462694
0.01024369 0.07580095 0.10902686 0.12464739 -0.21919467 0.091172755 0.12030164 -0.24006908
-0.05903248 0.05097636 0.046821546 0.053113032 0.18395823 -0.014619377 0.076542355 0.13004163
-0.2448314 0.022914685 0.044904243 0.19940197 0.0067442637 0.1278221 0.13658005 -0.113874964
-0.13238542 -0.09526377 0.10344931 0.19530718 -0.14112316 0.019428946 0.05744874 0.120141044
0.25765532 0.22285537 0.010454387 -0.042941436 -0.09250149 0.017348042 0.12684064 0.04226442
-0.094753 0.006907087 0.11281163 0.0948726 -0.05280302 0.1312809 0.061166964 0.23817766
-0.003563552 0.0018829168 -0.05354203 -0.30458146 -0.029798774 -0.028799618 -0.08671709 0.18490264
0.12797011 0.03594198 0.08558135 0.04935873 0.082935885 -0.19093266 -0.1810637 -0.052828807

fc.bias f4 [13]
00000000: e8d1 c03e f4f7 6e3e eb88 a53e 7f34 5c3e
00000010: c870 bd3e eec9 f93e 00fe 6a3e 16ca ee3e
00000020: 8296 0cbd e051 743e c1e0 883e 5a65 9e3e
00000030: 0a3a 973e
0.37660146 0.23336774 0.32331023 0.215044 0.37000108 0.48786873 0.22948456 0.46638554
-0.034323223 0.23859358 0.26733974 0.309367 0.29536468
