models/h6_ep50_bs128.pth (torch, 36125 bytes, 6 tensors)

net.0.weight f4 [32, 15, 3]
00000000: e473 b33d 58ee e2bd 2ebe cc3d d851 433b
00000010: 302b 2cbc fccc 263d 1e18 0e3d f027 5e3d
00000020: f9b3 b0bd 3291 bdbe 3474 6abd a9e7 0abe
00000030: 60a5 363e 8e26 d83d 4cee 87bd 9663 c4be
00000040: 4466 eabc 0629 a13d 6c7a 63be 5ce2 283d
00000050: 5458 4a3d b23e 2fbe 404f 793d e96d 113e
00000060: 4074 a3be 2392 13be 4004 5a3c 7ecc ddbd
00000070: bade a13d 4a70 de3d 7ebb 803e 084c e5bc
00000080: 40a7 46bb 7d1f 3ebe d8d5 b13d 8ff8 a3bd
00000090: 6e19 403e e469 e9bc 49e8 08be fe86 38be
000000a0: 4c19 a13d 0cad 9e3d 40af a8be 229f da3d
000000b0: a6fd 58bd 3a47 f7bd ceb3 b33d 56dc ef3d
000000c0: ad02 d0bd b0d9 ccbc 180c 423d e257 c43e
000000d0: 10a2 373d ca5f fa3d 96c1 703e 7088 c1bc
000000e0: e028 09bc 9e00 72bd 0039 f03a 939c aebd
000000f0: 807b 4c3e a08e 04bc 020f f13d 18b4 c9be
00000100: 24b2 4a3d 9122 acbd 2e36 5d3d ffaa 0dbe
00000110: 1637 01bd 051a 853e 90ac 3f3c b2ab fe3d
00000120: b669 10bd f2c8 b33d c073 0c3b 9751 993e
00000130: cb38 abbd 5137 0b3e f40c 963e 33b9 11be
00000140: f4c1 e5bd 42c9 7dbd c140 013e f073 bd3c
00000150: dddf a23e 9fef 0f3e c06e 8d3b 8ec5 753e
00000160: 5711 133e b13d c3bd 9e84 b63d e298 1ebd
00000170: 2c1a 973d 96fe dfbb 5240 b9bd 895a 0fbe
00000180: 6cee d7be d039 77bc 28aa ccbd f88b a13e
00000190: faee bd3d dbb6 febd 5143 3dbe 4100 0fbe
000001a0: de6e 5cbd 9a14 fb3d 2a71 e5bd df0a 14be
000001b0: c85d bc3e 40f8 fdbd 6912 fdbd 7a24 a7bd
000001c0: 001b 043a 4c2c 413d 19fa 83bc 7ced 683d
000001d0: 3669 aabd ef61 163e bb10 02be f093 7f3c
000001e0: 5b96 bfbe bc21 23bd e989 013e 8e86 623d
000001f0: ccf4 8bbd f08a 90bd c013 8cbd 804b 51bb
00000200: 9cfa 863d 5f35 64be d803 6cbd 6439 13bd
00000210: 5d61 86bd 503b 7e3c 86b8 70bd f2de 9e3d
00000220: 706b 9f3c d1f2 103e e7d9 4a3d 6ac0 c5bd
00000230: 4eff e6bd 9f1c fa3d d516 c4bd e322 173e
00000240: 921d 603e 2aa6 8e3d 0e55 dd3d 0807 cebe
00000250: 963c 0bbd 2af7 58bd b14d b13e f5c3 05be
00000260: 84c3 393d 3ed5 8e3e f4b9 d4bd c024 173d
00000270: 55c5 debe a613 18be 9201 7dbd e6dc a2be
00000280: 25d8 05be 8a26 ab3d b0ee c83c aa02 b5bd
00000290: 04d9 6cbd 50a7 acbe d54d f8bd 0475 433d
000002a0: 886e 043d ac8a 2c3d f34b 0b3e fd0a aebc
000002b0: f0b0 46bc 0826 8c3d 696f 48be beb0 e3bd
000002c0: 239b 083e 3038 c3be 1854 323d a695 efbd
000002d0: 87c1 103e 8238 893d e682 ed3d 7792 11bd
000002e0: 5043 71bd d0a7 07be dc43 683e cbc7 0b3e
000002f0: 3568 0d3e 656b 9bbc a87a afbc 0663 c13d
00000300: e603 a9be 3660 913d 4ac5 5cbd 7ac6 493d
00000310: 3850 853d 5d0a c7bd f062 12be c862 c4bc
00000320: 356c 023e 5638 af3c 3091 40bc 084f 1c3d
00000330: 95fe 9d3e b875 88bc a839 bdbc 800a a13a
00000340: aec7 e4bd 4a4f 5ebd a458 a93e fc76 953d
00000350: d08c 473d 7656 763e c5b7 9fbd 5e0b e43d
00000360: 9b98 0fbe 7286 d53d 50a7 883d 25fe 6d3e
00000370: 426e 31bd 30a7 c83c 64c3 9b3e 7629 f53d
00000380: 6205 9bbd 28b2 743d b6c3 f33d aa21 13be
00000390: 1186 f93d 303e 0f3d f2b6 03be 3f99 c23e
000003a0: 424b c73d 707f 973c 58b4 ccbe 0225 07be
000003b0: aaaa b63d 63c6 093e f654 cfbd 3d2b 03be
000003c0: 996a b0be 9ece fabd a74d 003e fa99 7bbe
000003d0: ee72 da3d 6028 e13b 8a8d afbe a89a db3c
000003e0: 129b 31bd 7dfa 84be 102b 203d b4ad 88bd
000003f0: 3804 823d 3424 4fbd 387b e9bd 4c58 863e
0.08762339 -0.11080617 0.099972114 0.0029803421 -0.010508344 0.040722832 0.03469097 0.054237306
-0.08628077 -0.37024838 -0.057239726 -0.13564934 0.17836523 0.10554229 -0.066372484 -0.38357228
-0.028613217 0.07869153 -0.22214669 0.041231498 0.049400643 -0.1711376 0.060866594 0.14202084
-0.3192463 -0.14411215 0.013306677 -0.108300194 0.0790381 0.10861261 0.25143045 -0.027990356
-0.003031209 -0.185667 0.086833656 -0.08006393 0.187597 -0.028492875 -0.1336986 -0.18020245
0.07866153 0.0774785 -0.32946205 0.106748834 -0.052976273 -0.12074132 0.087745294 0.117119476
-0.1015676 -0.025006145 0.047374815 0.383483 0.04483229 0.122253016 0.23511347 -0.023624629
-0.008371562 -0.05908262 0.0018327534 -0.08525958 0.19968987 -0.008090645 0.11770441 -0.39395213
0.049486294 -0.084050305 0.054006748 -0.13834761 -0.031546675 0.25996414 0.011698857 0.12435092
-0.035257064 0.08778562 0.0021431297 0.2994506 -0.08360442 0.1359532 0.29306757 -0.14230804
-0.11218634 -0.061959513 0.12622358 0.023126572 0.3181142 0.14056252 0.004316181 0.24001142
0.14362083 -0.09533251 0.089120135 -0.03872002 0.07378039 -0.006835769 -0.09045471 -0.1399938
-0.4217409 -0.015089467 -0.09993392 0.315521 0.09274097 -0.12437221 -0.1848271 -0.1396494
-0.05381667 0.12259789 -0.11203225 -0.14457272 0.367903 -0.124008656 -0.12357027 -0.08161254
0.00050394237 0.047161385 -0.016110467 0.056867108 -0.08320849 0.14685796 -0.12701695 0.015599236
-0.374194 -0.039827093 0.12650265 0.055304103 -0.06833801 -0.0705775 -0.068397045 -0.003193587
0.06590769 -0.22285984 -0.057620853 -0.035943404 -0.06561539 0.015517071 -0.058769725 0.07757367
0.01946041 0.14155127 0.049524214 -0.09655841 -0.11279164 0.1221249 -0.09574667 0.14759402
0.2188628 0.06965287 0.108072385 -0.4023974 -0.033993326 -0.05297009 0.34629586 -0.13063033
0.045352474 0.27897066 -0.1038703 0.036900282 -0.43509927 -0.14851245 -0.061769076 -0.31809157
-0.13070734 0.0835696 0.024527878 -0.08838399 -0.05782415 -0.337214 -0.1212422 0.047719017
0.032331973 0.042124435 0.13603191 -0.021245474 -0.012127146 0.068431914 -0.1957375 -0.11117695
0.1334043 -0.38128805 0.04353723 -0.11698465 0.14136325 0.06700231 0.115972325 -0.03554007
-0.058902085 -0.13247609 0.22682136 0.13650434 0.13809283 -0.018972108 -0.021420792 0.09442715
-0.33010787 0.07098429 -0.053899087 0.049261548 0.06509441 -0.097187735 -0.14295554 -0.023972884
0.1273659 0.021389168 -0.011753365 0.038161308 0.30858293 -0.016657695 -0.023098782 0.0012286454
-0.111708984 -0.054274835 0.3307544 0.07298085 0.048718274 0.2405642 -0.07798723 0.111349806
-0.14023058 0.10426034 0.06672537 0.2324148 -0.04331804 0.024493784 0.3042251 0.11970799
-0.07569386 0.059740216 0.11902563 -0.1436831 0.12183774 0.034971416 -0.12862757 0.38007542
0.09731151 0.018493384 -0.3998134 -0.13197711 0.0891927 0.13454585 -0.10123627 -0.12809463
-0.34456328 -0.1224644 0.12529622 -0.24570456 0.10666452 0.006871268 -0.34287673 0.026807144
-0.043360777 -0.25972357 0.039103568 -0.06673756 0.06348461 -0.050571635 -0.11400455 0.2623924

net.0.bias f4 [32]
00000000: 5de3 423e 649c 793e 8584 ca3e f3a9 b43e
00000010: 361a c03e 6437 ec3e 0409 703e 4493 8e3e
00000020: 92c0 b13e 97d2 e03e 05dc 9c3e 3074 a03e
00000030: 8400 da3e 0318 d13e 419c a03e 434e d53e
00000040: 0b19 db3e cd4c 883e 8bae d63e f02d 493e
00000050: a65c 623e ebe6 c43e cdca 723e 2357 a73e
00000060: f108 eb3e fb3b ec3e 286b 243e 7947 db3e
00000070: 28f7 843e e3e8 bc3e 37f2 be3e f4ef a93e
0.19032045 0.24376065 0.3955423 0.3528591 0.37519997 0.4613601 0.23440939 0.2784673
0.34717232 0.43910667 0.30636612 0.31338644 0.42578518 0.40838632 0.31369212 0.4166127
0.42792544 0.26621094 0.4193004 0.1964643 0.22105655 0.38457426 0.23710175 0.32683668
0.4590526 0.4613951 0.16056502 0.42827967 0.25969815 0.36896428 0.3729417 0.33190882

net.2.weight f4 [64, 32, 3]
00000000: 42a2 a83e fc81 c3bc e6de b6bd 6261 423e
00000010: c0a7 27bc 7ced aabd e70e b63e 3129 5cbd
00000020: 6489 d8bc 1b4e 493e c40c adbc 8083 66bd
00000030: a8dd 503e 086a 91bd 60ec 2b3d 94a5 b33e
00000040: b644 9e3d 5079 58bc 1b96 5d3e 5c7c a3bd
00000050: f415 f5bc b9be b23e 200b f73c 0ab6 adbd
00000060: 36d4 173e 6841 803d 80ab 97bd e542 673e
00000070: 104c 0dbd f0d7 1d3d 0061 bc3e 2286 97bd
00000080: 002a 68bd 3ad2 613e fe29 cb3d 54fc 603d
00000090: 567a 123e 9064 343d eaba 8e3d 7289 953e
000000a0: 3026 cebb 5e02 b23d 43c9 8a3e 908a e8bc
000000b0: 040f 8bbc 55b4 353e fcf0 aebd 46c6 cf3d
000000c0: f285 283e 3405 8c3d 2c98 a4bc 44dc 723e
000000d0: a0e2 19bd 9a25 983d f5c1 8c3e 86ed 45bd
000000e0: ef03 43bd 467a ae3e 2084 c23c a88d 723d
000000f0: 5a56 9e3e 1a56 b83d b1c1 75bd 3428 823e
00000100: bc48 7ebd 60be acbb bc33 993e bec6 5fbd
00000110: fcdb 113d 8357 113e bc23 903c b0de 053d
00000120: da1b bc3e 646d 043d 9c36 bb3c 3bb1 3a3e
00000130: 6a07 9cbd 9b4e 30bd b60a 493e 9867 b73c
00000140: 104e 16bd 9cba 443e 3d2b 51bd 25eb 58bd
00000150: b503 1a3e 3214 8cbd 409c 5cbb b6a3 1c3e
00000160: 0c2e c5bc 02aa 8abd 0f82 933e 9436 a43c
00000170: 9c35 5b3d 0cf0 3e3e 54db 96bd 119f c8bd
00000180: 0849 603e 1ea8 a83d 2c63 6d3d fbcc 983d
00000190: a071 babb aec2 8dbd c3c2 993e 4d03 78bd
000001a0: a083 95bb 2e6b 7f3e 7039 c6bc 48c1 403c
000001b0: 333d 013e 1007 6a3d 201b 49bc a22e 8a3e
000001c0: 8083 b6bd 3cee 9c3d 4895 b23e 005e 9c3c
000001d0: 08f5 c9bd 4efc c53e 7841 95bd dc45 d3bc
000001e0: 1757 6f3e 1894 913d 88f8 eb3c 114a 483e
000001f0: 68dc 103d 280f 8a3c ae57 453e c2bd b83d
00000200: 441e 9cbd d28d 713e aec7 83bd 709c 853d
00000210: d0c0 5d3e 6c81 c0bd 8ff7 abbd 9513 9c3e
00000220: 1ef2 99bd cc74 25bd 8143 393e 10f5 96bb
00000230: 6059 4bbd 0c8a 9a3e c050 1e3c 0fbd 32bd
00000240: f6ee 433e b0ef 9f3c 0cdb 083d a99a ba3e
00000250: f053 ed3c ca88 9a3d e159 2d3e 9ae5 c2bd
00000260: 5253 ce3d 6e49 2b3e d841 6c3c 2c44 8abc
00000270: 4b6e 083e d6be 89bd 500f 823b 5ee5 a23e
00000280: 30ec c6bb 00de f43b bb86 7d3e 1a84 abbd
00000290: debd 883d de26 463e 10db 60bd 8c97 c3bc
000002a0: 82a7 913e d877 93bd 4b73 92bd daa5 3c3e
000002b0: ee1a 4abd aa1f aa3d 8957 a43e c028 a13a
000002c0: 7c6d b7bd 4b72 a53d 48ad cebd 840f 17bd
000002d0: 2b73 673e 6412 a73c f4bd 3fbd 4476 c63d
000002e0: 7851 a13d 406b 0e3b 682a 773e 5086 9bbb
000002f0: bc34 b43d 722a 8e3e 848a b83c 100f 6fbc
00000300: f0f0 1bbd 78d2 03bc 1448 84bd f1df 28bd
00000310: 2096 533d 0c56 0bbd b7d5 0ebd f041 80bc
00000320: 583c cf3d 432a a6bd e48b 15bd 29a6 35bd
00000330: 3993 02bd cae8 69bd 4efe c5bd b93a 5b3c
00000340: 847f 473d 1ebd 09bd de4b 00be 8ca1 0ebd
00000350: 8af2 b0bd d186 45bd ca03 c2bd 00d0 de3c
00000360: 1cce 6f3c 8b5e b1bd bcbe 203d 9335 97bd
00000370: 322c 16bd 40e4 083b 00cb 79bc d051 a33d
00000380: 408d f33c ff78 adbd 9445 863d 60cd 083d
00000390: ff98 2c3d 0085 bbbd a016 ccbd 256d dabd
000003a0: 6030 4abd 8cf9 733d 85b8 5c3d e51f cdbd
000003b0: 9010 d53c 2a3f dfbd e825 5f3d e0f1 aabb
000003c0: f17d 81bc e8a3 6e3c 50e3 afbd d6cb 803d
000003d0: 9863 3d3d 2081 b8bd b353 4ebd 7f94 c6bd
000003e0: 9801 49bc fafa e3bc 3c8a 5e3d 1847 c23c
000003f0: f240 453d 441b a83c c352 bcbd 61bb bd3c
0.32936293 -0.023865692 -0.08929233 0.18982461 -0.010232866 -0.08346078 0.35558245 -0.05375022
-0.0264327 0.19658701 -0.021124251 -0.056277752 0.20397055 -0.07100302 0.04197347 0.35087264
0.07727949 -0.013212517 0.21639292 -0.07982704 -0.029917695 0.34911135 0.030156672 -0.08481987
0.14827046 0.06262475 -0.07405758 0.22584112 -0.034496367 0.038536012 0.36792755 -0.07398631
-0.05668068 0.22052851 0.09920119 0.05492814 0.1430448 0.044041216 0.06969245 0.29206425
-0.0062911734 0.08691858 0.27106676 -0.028386384 -0.016974933 0.17744572 -0.08542058 0.101452395
0.16457346 0.0683693 -0.020092092 0.23716837 -0.037569642 0.07429047 0.27491727 -0.048322223
-0.047611173 0.34077662 0.023744643 0.059217125 0.30925256 0.090007976 -0.05999917 0.25421298
-0.062081084 -0.005271718 0.29922283 -0.054632895 0.035610184 0.1419354 0.017595164 0.032683074
0.3674 0.032330886 0.022853188 0.1823167 -0.076186016 -0.043043714 0.19632992 0.022388265
-0.03669554 0.19211811 -0.051066626 -0.052958626 0.15040477 -0.068397895 -0.0033662468 0.15296826
-0.024069808 -0.06770708 0.28810164 0.020045556 0.053517923 0.18646258 -0.07366052 -0.097959645
0.21902859 0.08235191 0.057955906 0.07460972 -0.0056898147 -0.06921898 0.30031404 -0.060550023
-0.00456281 0.2494323 -0.02419731 0.011764832 0.12621002 0.05713564 -0.0122745335 0.26988703
-0.089118004 0.07662627 0.34879518 0.019087791 -0.09861189 0.38669056 -0.07287878 -0.025790147
0.23373066 0.07108325 0.028805032 0.19559504 0.035366446 0.01685293 0.19271728 0.090205684
-0.0762296 0.23589256 -0.0643457 0.06523979 0.21655583 -0.09399685 -0.083968274 0.3048369
-0.07516883 -0.04039459 0.18092157 -0.0046068504 -0.04964578 0.30183446 0.009662807 -0.04363733
0.19134125 0.019523472 0.033412024 0.3644612 0.028970689 0.07545622 0.16928817 -0.09516449
0.10074486 0.1672723 0.014419995 -0.01687821 0.13323323 -0.06725852 0.0039691105 0.31815618
-0.006070636 0.0074727535 0.24758427 -0.08374806 0.06676839 0.19350764 -0.054896414 -0.023875974
0.2844811 -0.07200593 -0.07150897 0.18422642 -0.04934209 0.08306821 0.32098034 0.001229547
-0.08956429 0.0807844 -0.100916445 -0.03688003 0.22602527 0.020394512 -0.046812013 0.09690526
0.07876867 0.0021731406 0.2413727 -0.004746236 0.08799121 0.27766758 0.022526987 -0.0145909935
-0.038071573 -0.008045785 -0.0645906 -0.041229192 0.051656842 -0.034017608 -0.034871783 -0.015656441
0.101189315 -0.081135295 -0.036510363 -0.044347916 -0.031878684 -0.05710677 -0.096676454 0.0133807
0.048705593 -0.03362762 -0.12528941 -0.03482203 -0.08640011 -0.048224274 -0.09473379 0.027198792
0.014636543 -0.08660611 0.0392444 -0.07383265 -0.03666324 0.0020888 -0.015246153 0.07974589
0.02973044 -0.08470344 0.0655624 0.033398986 0.042138096 -0.09156227 -0.09965253 -0.10665349
-0.04936254 0.05956416 0.05388691 -0.10015849 0.026008874 -0.109007195 0.05447951 -0.005216822
-0.015807124 0.0145654455 -0.08588278 0.062888786 0.046237558 -0.09009004 -0.05037279 -0.09696292
-0.012268446 -0.027829636 0.05433105 0.02371554 0.04815764 0.020520814 -0.09195473 0.023160638

net.2.bias f4 [64]
00000000: 2ea4 ae3e 09f0 733e b12a 753c 60b6 f63b
00000010: 9571 923e 6f04 a13e ef35 7e3e 0d1c 113e
00000020: e868 7c3e f40e 6c3c 56c1 b83e 1fd8 8f3d
00000030: 9fb4 833e cdda 13bd 9adc 503e c177 eebc
00000040: 1410 9fbc f69d 79bd aec4 863e 826b 10bb
00000050: 2354 533e 4a8a 823d 663e 193e e3f4 05bd
00000060: be5d 63bd 25af 343e 97fd 293d ff74 123d
00000070: 178a 9a3c 3e13 803e 3cb1 90bd 4806 403e
00000080: b2fc 703e 210a 883e aa12 823e 3eb1 233e
00000090: 2d0c c9bd cde3 a33e 0c72 33bd 69fa 9c3e
000000a0: 6788 633d 6251 8b3e 6e19 1a3e 713c 3d3e
000000b0: 4788 a13e beb6 ab3e 82fe a43c d316 11bd
000000c0: 3364 063e 6883 6c3e 3a77 7d3e 0691 debb
000000d0: 9274 103e d60d 7ebd 8a55 373d 9d56 8fbd
000000e0: f385 fabc f024 233e 000e 6c3e f067 e93c
000000f0: 6267 72bd 2db3 f2bc 275c 833e 6d5d a53e
0.34109634 0.23822035 0.014963792 0.007529065 0.2860228 0.31448695 0.24825262 0.14170857
0.24649394 0.014407862 0.36085004 0.07023644 0.2572374 -0.036097337 0.20396653 -0.029109837
-0.019416846 -0.06094166 0.2632193 -0.0022036736 0.20637564 0.06374033 0.1496521 -0.032704245
-0.05550932 0.17644937 0.041501608 0.035756107 0.018864674 0.2501468 -0.07065055 0.18752396
0.23533896 0.26570228 0.25404865 0.15985581 -0.098167755 0.32009736 -0.043809935 0.30659798
0.055550005 0.27210528 0.15048763 0.18480088 0.31549284 0.3353786 0.02014089 -0.035422157
0.1312416 0.23097003 0.24752513 -0.0067921905 0.14106968 -0.062024914 0.04475931 -0.06998942
-0.03058145 0.1593206 0.23052216 0.028491944 -0.059180625 -0.029626453 0.25656244 0.3229784

fc.weight f4 [2, 64]
00000000: d958 b23c 34fa 2f3e 0771 6cbd 7ec0 293d
00000010: 3b58 213e e6ab d13d 5e37 343d ed2c 033e
00000020: d5bb 3d3e 9b24 8fbc 0f7f bc3d 545f 033c
00000030: 984e 13bd ee4e 4cbd 0858 003e d491 cabd
00000040: f197 de3d bde9 033e b547 a83d 06ee 933d
00000050: 97db e73d 9826 adbd 7edb 413e 0638 0cbe
00000060: 2536 98bc 3efa fa3d 9abf 5bbd 8b6b 9dbd
00000070: 5871 00bd 73d0 203e 8027 bc3d aa3c 1e3e
00000080: 24c5 f6bc 0925 3d3e e8cf ae3d c3c1 e9bc
00000090: 5572 7dbd 01d1 4a3e 8b66 663c c515 b63d
000000a0: 0631 023e 3b79 193e 2355 3c3e 0328 113e
000000b0: b5d0 243e 5363 cc3d 6f67 5cbd 4d11 083e
000000c0: 2bf6 f23d d09e df3d 2ad4 ff3d 9632 263d
000000d0: f69e a33d 0cba 67bd 90a4 c03c a94a 763c
000000e0: f4cc 033e 5f80 203e 5ec8 3e3e 11fb 8fbd
000000f0: daa0 fd3d e523 cebd 758d f03b 3897 8c3d
00000100: c90a 9f3e 8377 6d3e 2e39 1ebc e6fd a6bd
00000110: 554d d03e 26db af3e ebb0 b63e f87b 903e
00000120: 5e3b cb3e 0a8d ffbb ba82 953e 6286 b9bd
00000130: 63b4 bb3e 924a afbc 7633 d33e 6b36 53bd
00000140: 31d2 aabd 2198 99bd 5eb3 b43e 6c96 a3bd
00000150: e528 c23e 7e5b 3dbd 21ce af3e 78f1 42be
00000160: 4552 4bbd e762 af3e 1a63 cb3c eead 85bb
00000170: 58a5 97bd b1f5 a23e c026 a93b bdd6 b83e
00000180: ed00 b53e cea3 ad3e d1a2 ce3e f1f2 c03e
00000190: 70fd d6bd 4557 873e 07fe 5dbd 3431 963e
000001a0: 567d b5bd 5c80 b93e 2b3f d53e ddb3 b93e
000001b0: 6338 a73e c942 aa3e 54e7 35bd 9557 9ebd
000001c0: ef7f cf3e 463b bf3e 0b2b bc3e 95b9 7cbd
000001d0: 5a09 913e 4d6a 3ebe a15d c7bd f731 a0bd
000001e0: c731 9bbd 51f5 bd3e 804c ab3e 7984 d2bd
000001f0: 01a7 9ebd 0ea3 c9bd db6b c23e 8986 c23e
0.021770881 0.17185289 -0.05772498 0.04144334 0.15756314 0.10237865 0.043998115 0.12810107
0.18528683 -0.01747351 0.09203922 0.008018333 -0.035963625 -0.04987996 0.12533581 -0.09891096
0.10868824 0.12882133 0.08216802 0.07223134 0.1132118 -0.08454627 0.18931386 -0.13693246
-0.018580506 0.12254761 -0.053649522 -0.07686528 -0.031358093 0.15704517 0.091872215 0.15452829
-0.0301233 0.18471159 0.08535749 -0.028534776 -0.061876614 0.19806291 0.014062534 0.08890871
0.12714013 0.14987652 0.18391852 0.1417542 0.1609524 0.09979882 -0.05380958 0.1328785
0.11863359 0.10918963 0.12491639 0.040575586 0.07989304 -0.056573913 0.02351597 0.015032449
0.12871152 0.1567397 0.18631122 -0.07030309 0.123841956 -0.1006544 0.0073410817 0.0686478
0.31062916 0.23190121 -0.009657187 -0.08153896 0.40684 0.34346884 0.35681853 0.2821958
0.3969373 -0.0077987956 0.292013 -0.090588346 0.36661062 -0.021397863 0.412502 -0.05156557
-0.08340872 -0.074997194 0.35293096 -0.07987675 0.37921825 -0.046229832 0.3433695 -0.19037426
-0.049639005 0.34255144 0.024827529 -0.004079572 -0.07404584 0.31828073 0.00516209 0.36101332
0.3535227 0.33914036 0.40358594 0.3768535 -0.10497558 0.2643377 -0.054197337 0.29334414
-0.088617966 0.36230743 0.41649756 0.36270037 0.32660207 0.33254078 -0.044410065 -0.07731549
0.40527293 0.3734991 0.3675159 -0.061700422 0.28327447 -0.18595238 -0.09734655 -0.0782203
-0.07577854 0.37101224 0.33456802 -0.102791734 -0.07746697 -0.09845553 0.37972912 0.37993267

fc.bias f4 [2]
00000000: d0a7 da3d 0aa9 b33d
0.10676539 0.08772476
