models/h6_ep50_bs128.pth (torch, 38493 bytes, 6 tensors)

net.0.weight f4 [32, 13, 3]
00000000: 60ab be3e f09c adbd 21a6 bebd eae5 c43c
00000010: e6c5 173e 60cf 9d3b a856 e93c 2e48 86bd
00000020: 3ac5 1abe bf19 a1bd 3050 1dbe 8c50 663d
00000030: be85 72be b3a0 b1bd cd25 afbd eb7d a63d
00000040: c872 ff3d 8630 9d3d e2f7 c2bc 3081 07bc
00000050: f2ec a03d 7c85 493f f066 9d3c 78b2 843d
00000060: bccf 1b3e 76e2 d3bd 4141 9abd 1cad 42bf
00000070: 58a5 543d 0c47 6c3d c06f 363e 40e2 12bc
00000080: c649 1c3e e6dd 85be b81c ba3d f612 4abd
00000090: b300 933d 44af 8a3d a706 0fbe c353 953d
000000a0: 6fcc 1bbe 3075 90bc 2d4e b2bd a149 1ebe
000000b0: b3ee 22be 32c5 293e 00e0 73bd 6c96 67bd
000000c0: 25e6 fa3c 3690 79bd 1009 063e e90f 773e
000000d0: 2a6c 223e ed3b 93bd ce29 4e3e 02d2 14bd
000000e0: 00fa 28bb 880f 45bf 2e28 04be acf4 cdbd
000000f0: 2656 47bf 8e26 113e 4d99 1ebe 74bd f03d
00000100: 9cc5 08be 4047 9f3d 3078 69bf f060 0a3e
00000110: 1bbe f3bd 5a51 be3e 2055 8dbb 583e fa3d
00000120: 8384 123e 0c18 15bd b006 fc3d 7b88 813e
00000130: 5020 ca3d f0c4 fdbc ab42 63be 18d0 e1bc
00000140: e051 123c c331 66be 209a 41bd a06b acbb
00000150: aa26 a53e 6d9c 20be e8ee b2bc b03b 233f
00000160: d4de 0d3e 1033 00be f154 163f b876 f03d
00000170: 7cb9 03bd 6add 833e 7885 ba3d 9022 a13d
00000180: 1b37 87bf c240 ad3d ef5c 23be f346 43bf
00000190: 6484 023e 14e3 223d f8d5 203d 0071 1d3a
000001a0: 2cea 2e3d d905 fbbe 20a4 0e3d d0a0 53bd
000001b0: ffcc efbd 449c 113e 4c35 c23d 45e5 913e
000001c0: 6e0b a2bd 80af f53c 7d1c febe 60fb cebc
000001d0: 0483 71bd 1455 da3d c7fc 21be acb5 eb3d
000001e0: 89d8 c0bd c03b 653b 8c20 5e3d 99b3 90be
000001f0: 2422 d53d 2ef7 093e 03a6 3f3e df26 a2bd
00000200: 1c7b ea3d beaf 413e c2d1 2fbd ee69 42bd
00000210: 1da7 35be 3a68 883d 204c 5dbc ae53 2cbe
00000220: 2896 ca3d d4b3 e43d 4532 813f faa8 1c3e
00000230: f2e9 c3bd abb5 f5bd b0df 58bc d098 17be
00000240: aab5 ec3e c4e3 52bd f66b 27bd da58 f83d
00000250: 00c9 f73d 8040 313c 2cae 3c3e 06e1 a3bd
00000260: ccc2 203e 16a3 413e ba3b 853d 58e5 823d
00000270: cde1 b6be 4000 f0bc 9027 873d affa 38bf
00000280: b00d 85bc f83a e63c 81a8 59be 6867 fa3c
00000290: 608a a83b 01dc 25be d807 cc3c cc9f ba3d
000002a0: 0c05 823c faf4 0ebe 2064 dc3c a1bf 9b3d
000002b0: 8e32 183e fead 9b3d 9845 a5bd 58c9 14be
000002c0: 8c14 d73d cc61 8c3f 1036 ab3d b81f dabd
000002d0: 3446 623d 7430 713d 0c22 15be ef14 963f
000002e0: a058 d43c 0663 a9bd eaad 5fbd a065 8e3c
000002f0: 2ca2 cf3d 892e ec3e ac77 4a3d 88e7 ec3d
00000300: cd37 ab3e 34b5 c03d 8aaf 143e 1e25 9bbd
00000310: 6eb0 b73d 8c95 1d3e 4603 38be 40c5 783d
00000320: 0cd1 253d 449d 813e e3c7 b8bd 3e05 aabd
00000330: 44e1 8ebe aca9 643d 5821 61bd 63e0 54be
00000340: 54d7 69bd a24d 96bd 7b1f 213f 587f aa3c
00000350: 90d3 e53d 8713 d93c dffd 81bd a499 103e
00000360: 6fc9 853e 58b0 993d 6834 a93d 2cb1 75bd
00000370: 902f d63d 8891 d4bd e4ec 49bf 804a 71bc
00000380: 8fd8 c4bd 7865 ae3d aa94 70bd 0033 5d3d
00000390: 234a eabd f864 cc3c bcfe e93d fa26 1c3f
000003a0: c27d 993d 7847 963d 8402 663e d0b7 693c
000003b0: 3495 c2bd 2fdf b7be 74ec 82bd d696 e5bd
000003c0: 2225 c4be 4515 08be 0aa9 03be d363 9dbe
000003d0: 8238 933d 706b 083c 1c08 4fbe e382 02be
000003e0: 953d b1bd c1ed a73e cead ebbd a193 e0bd
000003f0: 5f98 0dbf 0028 f6b9 b8de f5bd 7738 8ebe
0.37240124 -0.08477199 -0.0930903 0.024035413 0.14821586 0.004815981 0.028483704 -0.06556736
-0.15114298 -0.07866239 -0.1536262 0.05622916 -0.23683831 -0.08673229 -0.08552132 0.08129486
0.12473065 0.07675271 -0.02379984 -0.008270547 0.07857694 0.78719306 0.019214123 0.06479353
0.15215963 -0.10345928 -0.075319774 -0.76045394 0.051915497 0.057684943 0.17816067 -0.008965075
0.15262517 -0.26145858 0.09087509 -0.04933449 0.07177868 0.067717105 -0.13967381 0.07291367
-0.15214704 -0.017634004 -0.08706317 -0.15457775 -0.15911369 0.1657913 -0.059539795 -0.056539938
0.03062732 -0.060928546 0.13089395 0.24127163 0.15861574 -0.07189164 0.20133135 -0.03633309
-0.0025783777 -0.76976824 -0.12905952 -0.10056433 -0.7786583 0.14174864 -0.15488167 0.11754885
-0.13356632 0.07777262 -0.91199017 0.13513541 -0.11901494 0.3717144 -0.004313126 0.122189224
0.14308362 -0.036399886 0.12305963 0.2529944 0.09869444 -0.030977696 -0.221934 -0.027565047
0.008930653 -0.2247992 -0.047266126 -0.0052618533 0.3225606 -0.15684672 -0.021842435 0.6376295
0.13854533 -0.12519479 0.5872336 0.11741394 -0.032159314 0.25754863 0.091074884 0.078679204
-1.0563692 0.08459617 -0.1595342 -0.76280135 0.12745816 0.03976734 0.039266557 0.0006005913
0.042703792 -0.490279 0.03482449 -0.051667035 -0.11709022 0.14219767 0.09482822 0.2849523
-0.07912336 0.029990911 -0.4963111 -0.02526635 -0.058962837 0.106607586 -0.15819083 0.115092605
-0.09416301 0.003497824 0.054230258 -0.28262022 0.104069024 0.13473198 0.18715672 -0.0791757
0.114492625 0.18914697 -0.04292465 -0.047464304 -0.1773953 0.06660505 -0.013506919 -0.16828796
0.09891921 0.11167112 1.0093466 0.15298834 -0.09566106 -0.11997541 -0.013236925 -0.14804387
0.4623235 -0.051486745 -0.040874444 0.12126322 0.120988846 0.010818601 0.18425816 -0.08001904
0.15699309 0.18909869 0.065055326 0.063914 -0.35719147 -0.029296994 0.06599343 -0.7225751
-0.016241878 0.02810429 -0.21255685 0.030566886 0.0051434487 -0.16197206 0.024906084 0.0911251
0.015871547 -0.13960639 0.026903212 0.0760491 0.14863035 0.07601546 -0.080699146 -0.14529932
0.10501966 1.0967345 0.08359921 -0.10650581 0.055242732 0.0588841 -0.14563769 1.1725138
0.025921166 -0.0827084 -0.054609217 0.017382443 0.10138354 0.46129254 0.049430534 0.115675986
0.3344101 0.09409562 0.14520088 -0.07575439 0.08969198 0.15389079 -0.17969999 0.060734987
0.040482566 0.25315297 -0.090225 -0.08301781 -0.2790624 0.055825874 -0.05496344 -0.20788722
-0.05709012 -0.07339026 0.6293866 0.020812675 0.11221993 0.02649857 -0.0634725 0.14121109
0.26130244 0.07504338 0.08261949 -0.059983417 0.104582906 -0.103793204 -0.7887709 -0.014727235
-0.09611618 0.085154474 -0.058735527 0.054003716 -0.11439922 0.02495049 0.1142554 0.60996974
0.074946895 0.0733785 0.22461897 0.014265016 -0.095011145 -0.35912463 -0.06392756 -0.1121041
-0.3830958 -0.13289364 -0.12857452 -0.30740222 0.071885124 0.008326396 -0.20217937 -0.12745242
-0.08654324 0.3279858 -0.1150776 -0.10965658 -0.55310625 -0.0004695058 -0.12005371 -0.27777454

net.0.bias f4 [32]
00000000: c8f3 a33f f72c a73f 7f08 8d3f e8c2 be3f
00000010: 9ff5 ad3f 2869 883f a28d 9b3f f4c4 883f
00000020: 98fc b23f 302a a23f d5ea 893f b1ac 893f
00000030: 512a 933f 1652 813f 4c62 9f3f 8e5e 9c3f
00000040: 5c99 a33f f7d5 973f 8723 a53f 9333 9e3f
00000050: 7e58 8a3f 5544 813f c71b 8d3f 5637 ae3f
00000060: d9bc 813f 55c0 7a3f c922 9d3f ec89 963f
00000070: 26de 8a3f a11c 853f de97 913f 6931 863f
1.2808771 1.3060597 1.1018218 1.4903231 1.3590583 1.0657091 1.2152598 1.0685105
1.3983335 1.2669125 1.077479 1.0755826 1.1497289 1.0103176 1.2451873 1.2216356
1.2781177 1.1862172 1.2901467 1.2359489 1.0808256 1.0098978 1.1024102 1.3610637
1.0135757 0.97949725 1.227624 1.176084 1.0849044 1.0399362 1.1374471 1.0483829

net.2.weight f4 [64, 32, 3]
00000000: 9d53 253f c2ec a13d cbf1 8dbd e35e 353f
00000010: dc45 b5bc 0a1a c53d 584c 023f ea93 c33d
00000020: 68b7 8d3d cecb 213f a45f 3cbd c07f e6bc
00000030: ed77 533f ec97 8e3d f4cb 9dbd d256 023f
00000040: 5026 463d 34ac 01bd 0986 2a3f 102f 37bd
00000050: 5ceb 253d 78cd 463f 806d 7b3c ca84 b8bd
00000060: 9f2a 333f d355 8abd 37a9 6ebd a10c 363f
00000070: b650 02bd b225 73bd 9437 4a3f e80e 3f3d
00000080: 0499 943d cc05 133f 2894 95bc 9064 87bd
00000090: bd00 003f 88f1 243d 13fc 34bd ebe6 0c3f
000000a0: 40b7 80bd 0559 33bd f9d7 263f 382e 14bc
000000b0: 14fa 463d 0242 ff3e 3011 1b3d 2a92 49bd
000000c0: 7dd2 023f bc58 843d 2895 26bc e879 3a3f
000000d0: a039 013d cc4c 563d 27f8 2c3f 9d2c 3bbd
000000e0: dc27 85bc df24 293f 00ea a4bb f8b8 01bc
000000f0: ab72 173f b0ce ca3c f80e 033d b287 153f
00000100: b027 86bc 4004 c33a 8594 253f da64 933d
00000110: 50f9 cbbb a3de 273f 0936 a9bd 2478 ac3d
00000120: 483f 373f c851 1ebd 48a4 033d 6f1a 433f
00000130: ccb4 80bd 006c 093d 51d4 203f 500b ad3d
00000140: 20eb d93b 6a81 0d3f 5413 603d 7817 a93d
00000150: daf1 293f fa89 afbd a4c9 793d 6898 f83e
00000160: f01e cfbd 7edb c33d 36ae 0d3f f0d2 4f3d
00000170: 600e a83c bd05 373f cebe ae3d 9840 bc3c
00000180: 25c0 573e ee32 a43d 40fb b13b 8aed 713e
00000190: 8027 bb3a 9abf c83d 5b8f e1be 5844 d4bc
000001a0: 2855 5c3c e194 d3bd 70af 84bd 345d 293d
000001b0: 6c2d 583f f8c6 313d 2cd1 a63d 74f8 6e3d
000001c0: 6732 2ebd 8c3d a43d 5a77 863e e3a8 82bd
000001d0: 7046 86bd 3599 15bf b093 e5bc 9a48 823d
000001e0: b0cc c33e 30e4 a23b fb32 76bd fafb 333f
000001f0: 0c9c adbc 7c01 373d f035 2f3f fc8b 14bd
00000200: 9690 c93d 9dd1 2e3f cd46 61bd 0397 8cbd
00000210: 4b47 ca3e a272 9d3d 20b8 343c e4ab f63e
00000220: 2c2a 2d3d 8470 2a3d 59cb 993e 5882 90bd
00000230: 8e23 af3d 2a1b e93d 0f2a 5cbd dc6a a1bd
00000240: 57fc f23b d80e d6bc 40e3 483c 63db adbe
00000250: 0026 b5b9 7434 c73d 8409 403d 6a3b b03d
00000260: bc66 743d bfcc 723e a099 25bc 1c7d 723d
00000270: 2abf 1e3e cabe 923d ec17 5a3d cd7c 3a3e
00000280: 32f2 ac3d 90f6 ca3d d6f7 013f d4a2 133d
00000290: a8f0 ddbc 814a 3f3f 9747 50bd c8fb 46bd
000002a0: f5d5 c7be 0010 ecb7 7453 233d 77ea 5d3f
000002b0: 2211 cd3d 2835 a63d 5860 5f3f e06a 223d
000002c0: 4333 a4bd 8f22 8c3e 60ba 03bc f3f7 6cbd
000002d0: fa6d 613f e6a7 aa3d 4068 01bd 04ca 6d3d
000002e0: 9444 3f3d 506d 38bc f3a9 a6bd 8c37 af3c
000002f0: 047d 82bd b6d3 d1be 70bb 8abb ac10 f1bc
00000300: 2ee2 06be 2faf 34bd 04a3 6c3d fd23 1b3d
00000310: 2a21 a73d 3895 44bc 9ae3 993c 5cba 403d
00000320: 3420 aabc e48b bebb 3856 eabc c7ff 61bd
00000330: 3b52 2dbd d8a3 ef3c f047 f1bb 52f2 ccbd
00000340: 0015 5b3b 4fb8 c3bd ab2e 84bd 60ef d7bc
00000350: 321f bdbd f3bd c4bd ce06 babd 6871 363d
00000360: 446c 853c 88e4 8b3d f837 263d 6ca4 03be
00000370: 00a9 ff39 20ec 243c fb89 d8bd 7863 a7bd
00000380: 847c 073d 9afb 963c 98f1 e1bc d424 573d
00000390: 8ae8 5c3d a639 b5bd e4e9 293d d08a 4ebd
000003a0: 149c 57bd 0817 61bc 061d 86bd 9ce8 683d
000003b0: c222 8dbd 02f2 eebc 749c efbc ba0a 823d
000003c0: 4baa 8cbd b8f0 073c 2634 9abd ea56 61bd
000003d0: 0c0a 8f3d d096 923d 746a d13c 5859 79bc
000003e0: 2e1d cc3d 51fc 4a3d e833 0d3d 19d5 c2bd
000003f0: 3f5a c9bd e6e5 99bd 600b ab3b 1fa1 123d
0.6458071 0.07906486 -0.06930884 0.7084791 -0.022128038 0.09624107 0.5089774 0.09549697
0.069197476 0.63201606 -0.045989648 -0.028137088 0.8260487 0.069625705 -0.077049166 0.5091373
0.04837638 -0.031658366 0.6661077 -0.044722617 0.04050766 0.7765727 0.015345931 -0.090097025
0.6998691 -0.06754651 -0.058266845 0.7111302 -0.031815253 -0.05936212 0.78991055 0.046645075
0.07255748 0.5743072 -0.018259123 -0.06610978 0.50001127 0.040269405 -0.04418571 0.5503985
-0.06284952 -0.043786068 0.651733 -0.0090442225 0.048578337 0.49855047 0.03785819 -0.04921166
0.5110243 0.06462237 -0.010167398 0.72842264 0.031549096 0.052319333 0.6756615 -0.045696843
-0.016254358 0.66071886 -0.005032778 -0.007917635 0.59159344 0.02475676 0.031996697 0.5841018
-0.016376346 0.0014878586 0.6467975 0.0719697 -0.0062247887 0.6557409 -0.082622595 0.084213525
0.71580935 -0.03865221 0.032139093 0.7621221 -0.06284484 0.033550262 0.6282397 0.08449423
0.0066503435 0.55275595 0.054705933 0.082564294 0.6638466 -0.08571239 0.060983315 0.48553777
-0.10113323 0.09563349 0.5534395 0.050738275 0.020514667 0.7149313 0.08532487 0.02298002
0.21069391 0.080175266 0.0054315627 0.2362577 0.001427874 0.0980217 -0.44054684 -0.025911495
0.013448037 -0.10331131 -0.064787745 0.04134865 0.8444431 0.043402642 0.08145365 0.058342412
-0.042528536 0.08019552 0.26262933 -0.06379869 -0.06556404 -0.584369 -0.028024524 0.06361504
0.38242102 0.0049710497 -0.060107213 0.7030636 -0.021192573 0.04467915 0.6844168 -0.036266312
0.09842031 0.68288594 -0.05499916 -0.06864741 0.39507517 0.0768788 0.011030227 0.48178017
0.042276546 0.04161121 0.30037954 -0.07056111 0.085517034 0.11382134 -0.053751048 -0.0788171
0.007415335 -0.026130125 0.012261212 -0.3395644 -0.00034551322 0.097268015 0.046884075 0.08605082
0.059668288 0.23710917 -0.010107428 0.059201345 0.15502611 0.071652964 0.05324547 0.1821167
0.084446326 0.09910309 0.5076879 0.036043957 -0.027092293 0.7472306 -0.050849523 -0.04857996
-0.39030424 -2.8140843e-05 0.03987451 0.8668589 0.100130334 0.081156075 0.87256384 0.039652705
-0.0801759 0.27370116 -0.008040041 -0.05785365 0.88058436 0.08332805 -0.03159356 0.058053985
0.04669626 -0.011256531 -0.08137884 0.021388792 -0.06371501 -0.40981835 -0.00423377 -0.029426895
-0.13172218 -0.04411238 0.05777265 0.037876118 0.081606224 -0.011998467 0.018785287 0.047052726
-0.020767309 -0.005815016 -0.028605565 -0.05517557 -0.04231475 0.029252931 -0.007363312 -0.100071564
0.0033429265 -0.095566384 -0.06454214 -0.02635926 -0.09234466 -0.096065424 -0.09083329 0.044541746
0.016286977 0.06830698 0.04058072 -0.1285569 0.00048763305 0.010066062 -0.10573193 -0.08173269
0.03307773 0.01843052 -0.027581021 0.052525356 0.053932704 -0.08848886 0.04148282 -0.05042535
-0.052639082 -0.013738401 -0.065485045 0.05686246 -0.06891395 -0.029168133 -0.029249407 0.06349702
-0.06868418 0.008297138 -0.07529478 -0.05501453 0.06984338 0.071576715 0.025563456 -0.015219055
0.09966503 0.049557034 0.03447333 -0.095133014 -0.09831666 -0.07514553 0.005219862 0.03579819

net.2.bias f4 [64]
00000000: 24ce 3b3f 2c58 183f b1af 9a3c 2f7e 523f
00000010: 1736 413f 088f 3f3f 86aa 553f b3b0 3b3f
00000020: 657f 5d3f 7cbd 503f 887e 473f 176f 3e3f
00000030: a8f9 513f e2ec c5bf 637c acbd 1f39 2d3f
00000040: 73d2 6c3d fe0c 3c3f d65e 2a3f 389d 703d
00000050: 1afc 203f f02b 4e3f b9fb ddbf a310 81bd
00000060: d1c3 5f3f 1155 543f 70d7 4d3f 4f4d 583f
00000070: ee97 853f f934 443f 5046 e7bc ed87 463f
00000080: 5e14 4a3f 8fa6 3c3f 99ed 503f 61d8 54bf
00000090: 88f5 5d3f b65c 333f 0c0f 513f e6fa 493f
000000a0: 9e5a 493f 3e40 4abb 0566 413f ddf6 243f
000000b0: 7fc9 513f adad 2e3f 9dbf efbd a47b 013d
000000c0: 88e2 443f 8f6f 653f 25e5 cfbd 4f18 513f
000000d0: 6a9b d4bd 436d 453f 0d81 433f 018d 4e3f
000000e0: 541f 94bf 4ddd 883f 1bfb 4a3f 76fb 413f
000000f0: f8e1 ca3c a47d 2a3f 6735 3b3c a055 113d
0.7336142 0.5950954 0.018882604 0.8222379 0.7547316 0.74827623 0.83463323 0.73316497
0.86522514 0.8153913 0.77927446 0.7438826 0.8202157 -1.5462916 -0.084221624 0.67665285
0.057817888 0.73457325 0.6655096 0.058743685 0.62884676 0.80535793 -1.7342445 -0.06302001
0.8740817 0.829423 0.80406857 0.84492964 1.043699 0.7664333 -0.02823177 0.77551156
0.7893733 0.7369165 0.81612545 -0.8314267 0.86702776 0.7006334 0.81663585 0.78898466
0.78653896 -0.0030861045 0.75546294 0.64439183 0.81948084 0.6823376 -0.11706469 0.031612054
0.7690816 0.8962335 -0.10151128 0.81677717 -0.103812054 0.77119845 0.7636879 0.80683905
-1.157206 1.0692536 0.79289407 0.75774324 0.024765953 0.6659796 0.011426306 0.03548205

fc.weight f4 [13, 64]
00000000: e7d0 e43d 9b6a bbbd e8e6 153c 680c 36bd
00000010: 28f2 23bd 7472 813b 27cc 053e 6998 303d
00000020: 4b18 163e 105d fd3d 0ad7 aa3d afa2 5e3d
00000030: 844a 643b 0e47 bcbe ca16 83ba ec5e b83d
00000040: 2530 403d 5038 8939 23e5 f53d dc73 633d
00000050: ba0a 94bd b36f babd 99f1 42be 300e 6dbb
00000060: 64b0 3abc 254e 163c d860 1c3d e23b 4b3b
00000070: 4ff0 cf3d 8840 af3d fcb1 debc 9535 4bbd
00000080: 7504 2fbd 0abc 8c3d 7b90 49bd 95b2 6abe
00000090: 8709 a23d 956b 82bd 03b5 3cbd b3ee cfbd
000000a0: 5673 923d db47 c93c 1be1 51bd a286 c03d
000000b0: 850e fbbc cfc6 c53d 9710 cb3d 40ca 80bd
000000c0: a46d b93d 3394 c13d 18c5 303b 97f0 46be
000000d0: 82ec 8ebc 0ee1 e93d 2000 b7bd 420f ec3c
000000e0: 55e7 b43d 6365 853c 6081 21bc cc7e 053a
000000f0: b5af 2d3d b7d0 6c3d 64bc 04bd 16ab 943d
00000100: 610a 073e 8780 e4bd 12a9 243d e419 72bd
00000110: 52ba 9b3d b6e7 acbd d809 103e dc2b 1d3d
00000120: 7b7a 0b3e 2bba d7bb 5e0d 733a eb67 74bd
00000130: 5c89 7dbd db74 b0be 5b50 b0bd 0edc 453d
00000140: e686 43bd f144 df3d ce32 a93d 4d96 8f3d
00000150: 38cc 0b3d 6f9a 82bd 631c 4abe d168 073d
00000160: 9870 c73d 42b4 5ebd 2d66 793d 7998 893d
00000170: 77fd d33d ff70 0d3e 622f 723d fdc6 e03d
00000180: aa75 b03d 9a1a acbd c2ec a03d 0a00 92be
00000190: 4797 8a3d 0da6 fa3d 38d7 f23d 182d e5bd
000001a0: 989e eabc 9c1b 49bd ee29 083e 7aab 80bd
000001b0: 4196 65bb 37ff d1bd 4e5c 7bbd b8a6 113e
000001c0: 8639 9d3d 8f04 063d 342b a7bb fc45 1abe
000001d0: d7c3 f73d f31c 06bd 1a82 f7bd e7f2 5c3d
000001e0: 7743 3dbd 6bda 02be 3d1b 67bc 113f 3d3d
000001f0: ee6a 173e f887 a83d 983f c1bd 8d7f 0e3e
00000200: 43bc e03c ee3f 01bf c856 0d3e 5c96 293e
00000210: 2b9c 1c3c 7661 e03d ef8d 07bd 770f 893d
00000220: 18cd 263d 019e 36bd 235f 0e3e 04af 073d
00000230: ca48 6fbb 4855 c6be 02da 57bc 180f cb3d
00000240: 2b0b e33b 025b f53d 89ea 9c3c 70a8 e23d
00000250: 3403 bf3e af6e 2d3d aa08 c7bc 2c03 943d
00000260: 6471 a83d dd71 bc3d 6655 c13d ba3a af3b
00000270: c5da a73e e23b f33d 5571 f6bc 374e c03d
00000280: 6fc4 b83c 3f45 263e f866 803d 37ce 67bf
00000290: a92e fa3d eeea 723c 0d41 7d3d 126c 5dbb
000002a0: 5b72 ab3d d820 dbbc 4b4a 293e 8a8c 25bc
000002b0: a494 e7bc ffc0 e43d 6425 7c3d 6b55 29bd
000002c0: df85 7fbd 7ff3 723d 7e9a cb3d b334 8ebd
000002d0: 48fd b6bd 71a4 183e edf2 983d 35bf 9a3c
000002e0: 7fd6 57be 4264 653e b97c 303e b832 953d
000002f0: a7f3 b4bd cd32 053c 31ae f43c abec 823d
00000300: 7932 983d caeb 54bf 1eea cc3d 35c6 c93d
00000310: 77ed 11bd 5c24 bcbc a7af 9b3d f277 b5bd
00000320: 3c05 283e 58e5 9e3d 9062 6f3d 23c7 4f3d
00000330: cb01 f13d 70b3 dabd 1ee3 66bd d523 c73d
00000340: 7184 973d e330 edbc 81a1 45bc af94 94bd
00000350: 5e83 8c3d 1e39 89bd 9270 043e 0810 ec3d
00000360: 749b fb3c c676 d33c 8d48 0e3d fb7f 333d
00000370: ae80 53be 4224 c23d 38e8 64bd c998 fc3d
00000380: 7e56 f33d 2c1d cbbc 9e2a 0fbc 54b8 0abe
00000390: 40cc 0dbe 22af 293c be4d fcbd 2033 d53d
000003a0: f46f 873d 71ec ea3d 0f9c a73d 211a 99bd
000003b0: 9f04 eebd d799 5bbd 857a 103e a626 aabd
000003c0: 4377 88bd 387e 823d 7c8a e03d dfc7 723a
000003d0: ac9e fdbc 614d db3d 9f10 bd3d 9bc8 67bc
000003e0: 29ec 99be 6824 fa3e ce53 053e 8d5b 67bb
000003f0: 4b37 063e 09d1 d0bd 6f7d 063e dea4 93bc
0.111726575 -0.09151193 0.009149291 -0.044445425 -0.04002586 0.0039504115 0.13066159 0.0431141
0.14657705 0.12371266 0.08341797 0.054354366 0.0034834454 -0.3677296 -0.0010001299 0.0900248
0.046920914 0.00026172632 0.12006595 0.055530414 -0.072286084 -0.09103336 -0.19037475 -0.0036171786
-0.011394594 0.009173905 0.038178295 0.0031011035 0.10153257 0.0855723 -0.027184479 -0.049611647
-0.04272886 0.06871803 -0.049210053 -0.22919686 0.079119734 -0.06368176 -0.046071064 -0.1015295
0.07150905 0.024570396 -0.051240068 0.09400679 -0.030646572 0.0965706 0.09915274 -0.06288576
0.090541154 0.09452095 0.0026972946 -0.19427715 -0.01744676 0.11419879 -0.08935571 0.02881587
0.088331856 0.016283697 -0.009857506 0.00050924416 0.042403895 0.057816233 -0.032406226 0.072591946
0.13187553 -0.11157327 0.0402003 -0.059106722 0.07603897 -0.08442633 0.14066255 0.038371906
0.13620941 -0.0065834722 0.0009271706 -0.059669416 -0.061898574 -0.34464154 -0.086090766 0.048305564
-0.04773607 0.109018214 0.08261643 0.070110895 0.034130305 -0.06377112 -0.19737391 0.033058945
0.097382724 -0.054371126 0.060888458 0.06718535 0.10351079 0.13812636 0.05912722 0.10975454
0.08616193 -0.08403511 0.07857658 -0.28515655 0.06767135 0.12238703 0.11857456 -0.111902416
-0.028640077 -0.049098596 0.13297245 -0.062827066 -0.0035032185 -0.102537565 -0.061367325 0.14223754
0.07676987 0.03271919 -0.0051015858 -0.1506576 0.120979 -0.032742452 -0.12085362 0.053942587
-0.046206918 -0.12778632 -0.014105615 0.046202723 0.14786884 0.08229059 -0.09435958 0.13915844
0.02743352 -0.50488174 0.13802636 0.16561264 0.009558718 0.10956089 -0.033094343 0.06692403
0.040722936 -0.044584278 0.1390348 0.033125892 -0.0036511892 -0.3873694 -0.013174536 0.09914988
0.0069288216 0.11980249 0.019154804 0.11067283 0.3730713 0.042341884 -0.024296124 0.072271675
0.082247525 0.09201405 0.094401166 0.005347577 0.32784095 0.11876656 -0.030083338 0.09389918
0.022554604 0.16237353 0.0626964 -0.90549034 0.12215931 0.014826519 0.061829615 -0.0033786339
0.08371421 -0.02674906 0.16532247 -0.010104308 -0.02826912 0.111696236 0.061559096 -0.041341227
-0.06238353 0.059314247 0.099415764 -0.06943645 -0.08935028 0.1490648 0.074682094 0.018890003
-0.21077918 0.22401527 0.17235078 0.072850645 -0.088355355 0.008129788 0.029868217 0.06392797
0.07431502 -0.83172286 0.10005592 0.09852258 -0.035626855 -0.022966556 0.076018624 -0.088607684
0.16408247 0.077585876 0.058443606 0.05072702 0.1176792 -0.10678756 -0.05636894 0.09723631
0.07398308 -0.028953975 -0.012062431 -0.07254922 0.06860994 -0.06700347 0.12933567 0.11526495
0.030713774 0.025813472 0.03473716 0.043823224 -0.20654556 0.09479572 -0.055885524 0.12333829
0.118817315 -0.024794184 -0.008738188 -0.13546878 -0.13847446 0.010356696 -0.12319516 0.10410142
0.0661315 0.11470879 0.08184063 -0.07475687 -0.11621975 -0.05361351 0.14109237 -0.08308153
-0.06663372 0.063717306 0.10963914 0.00092613505 -0.03095945 0.10708118 0.09231686 -0.014146949
-0.30062988 0.488559 0.1302025 -0.0035302371 0.1310703 -0.1019612 0.13133787 -0.01802295

fc.bias f4 [13]
00000000: 5c2e 6a3e e659 b63e d20b c73e 39cd 5c3e
00000010: ad34 ad3e 23bc c13e aa15 1d3e b5d7 d83e
00000020: 95e1 393b 9e00 073e 486f 8a3e e7a2 9e3e
00000030: 1118 5f3e
0.22869247 0.35615462 0.38876206 0.21562661 0.3382925 0.3783885 0.15340295 0.4235207
0.0028363217 0.13183829 0.27038026 0.3098366 0.21786524
