models/h6_ep30_bs64.pth (torch, 36113 bytes, 6 tensors)

net.0.weight f4 [32, 15, 3]
-0.100829676 -0.13901162 0.0059449226 -0.04722243 -0.07711315 -0.10899188 -0.4885888 0.043343216
-0.122338936 0.25797454 -0.03352069 0.1430385 -0.14498946 0.045755073 -0.052399673 0.02997166
0.08388844 -0.0019233525 0.31023118 0.13457774 0.090305895 -0.12563191 -0.07894742 -0.08718098
0.12990202 0.1100512 0.13645874 0.12314482 0.1269222 0.0005557537 -0.44588166 0.10161166
0.06391159 0.14085768 -0.12059462 0.13398634 -0.060019985 -0.14208156 0.04881005 0.25647983
0.09707263 0.0982949 0.19311325 0.07281475 -0.057588384 -0.023933902 -0.045958355 -0.064646065
-0.09448913 -0.12227616 -0.1415659 0.37454742 -0.040963955 -0.14205992 0.04887533 0.018049195
0.060347497 -0.25363523 -0.06141667 0.056366637 0.171339 0.011980891 0.048611566 -0.27715746
-0.063006826 0.111670926 0.15331542 0.13205163 0.10463409 0.35307133 0.093579784 0.045927882
-0.09411749 -0.14764875 -0.10694818 -0.02709886 -0.061443113 -0.08560468 0.38384026 -0.10056399
0.028912619 0.01875174 0.003912255 0.0830611 0.2236464 -0.078508146 0.09838946 0.1976311
-0.07636541 -0.05092977 -0.100527875 0.12505232 0.10421462 -0.07782929 0.075816676 0.06702243
-0.21639037 0.10813548 -0.00030472875 0.1654202 0.14498495 0.097310394 -0.3499046 0.006604582
-0.01034826 0.030451171 -0.12802549 0.02280578 0.41972268 0.07627526 0.032854885 -0.04390514
-0.05302971 0.06793629 0.36213252 -0.008166835 0.1264423 0.005003795 0.13535373 -0.11911923
-0.3625784 -0.037501432 0.08916645 0.21057697 -0.011522025 -0.027231865 -0.079679795 0.0047459453
-0.06605773 0.42341942 0.11613472 -0.032389805 0.14250061 0.0045544207 0.113585666 -0.10904203
0.1268567 -0.060219087 -0.11693485 0.0020655394 0.109902486 0.32012206 -0.048283346 0.048355237
0.16117595 0.13693915 0.12895851 -0.48200548 0.079864725 0.029375881 0.124171704 0.034577638
0.0764423 0.24241018 -0.061400287 -0.06449114 -0.48935562 0.01347059 -0.096601546 0.15303794
-0.14786552 0.077788964 0.044115067 -0.13940744 -0.07546238 -0.09262704 0.1432301 -0.12022876
0.17387041 -0.14435741 -0.06500133 -0.041682895 0.085526496 -0.019002184 -0.11656797 -0.018619046
-0.1301551 0.04146051 0.046134144 -0.11101954 -0.07326987 -0.08483975 -0.043362074 0.03761261
0.062045783 0.037969157 0.35587072 -0.12344889 -0.06715135 -0.344658 0.1074961 0.010197446
0.31461468 -0.14684081 0.1275572 -0.26893404 0.0025204122 -0.0767432 -0.029544462 -0.054003775
-0.13846967 -0.41720447 -0.080024004 0.12498586 -0.084727414 0.04579006 -0.060250163 -0.03788103
0.11769672 -0.10207242 0.46695322 0.1444724 -0.023402855 -0.037872758 -0.112857416 -0.11628971
0.36463133 -0.13912018 0.033645794 -0.015631966 0.028138265 0.08096804 -0.0892142 0.100601226
0.063442156 0.07485123 -0.05765012 0.03829509 -0.04185581 -0.06798835 0.058818787 -0.023366675
-0.029559486 0.01000683 -0.41455022 -0.021886453 -0.096034005 -0.044048518 -0.1282318 0.059162512
-0.37491474 -0.009708911 -0.13918312 -0.06331917 -0.13712275 0.00908263 -0.47484362 0.052484974
-0.10681148 -0.20484348 0.13866876 0.09327328 -0.09100807 0.05430019 0.0022306591 0.1115917
00000000: ca7f cebd 1059 0ebe a0cd c23b 4f6c 41bd
00000010: 80ed 9dbd 2337 dfbd 5028 fabe a888 313d
00000020: d68c fabd 3d15 843e fe4c 09bd af78 123e
00000030: 1e78 14be ac69 3b3d 0aa1 56bd 2087 f53c
00000040: b4cd ab3d 0019 fcba 9fd6 9e3e bfce 093e
00000050: 4cf2 b83d a7a5 00be 2faf a1bd f18b b2bd
00000060: 0905 053e 8662 e13d d7bb 0b3e 5a33 fc3d
00000070: e5f7 013e 00b0 113a 9a4a e4be c619 d03d
00000080: 14e4 823d ff3c 103e 50fa f6bd b733 093e
00000090: 84d7 75bd d47d 11be 0ced 473d 5351 833e
000000a0: 04ce c63d d64e c93d 7bbf 453e e61f 953d
000000b0: cce1 6bbd 0811 c4bc d43e 3cbd 2865 84bd
000000c0: 8483 c1bd ec6b fabd a7f6 10be aec4 bf3e
000000d0: d2c9 27bd 2878 11be 7f31 483d e8db 933c
000000e0: f02e 773d 7adc 81be 0c90 7bbd b4e0 663d
000000f0: 7e73 2f3e 804b 443c ec1c 473d 95e7 8dbe
00000100: b909 81bd bab3 e43d b8fe 1c3e 8b38 073e
00000110: 664a d63d c4c5 b43e c2a6 bf3d e01e 3c3d
00000120: acc0 c0bd 3c31 17be a607 dbbd 6efe ddbc
00000130: c6ab 7bbd 8251 afbd b686 c43e 7ef4 cdbd
00000140: 28da ec3c 409d 993c 6032 803b f01b aa3d
00000150: 9003 653e e1c8 a0bd 6a80 c93d cf5f 4a3e
00000160: 7865 9cbd bc9b 50bd 8fe1 cdbd b70d 003e
00000170: 7a6e d53d f664 9fbd c645 9b3d 0e43 893d
00000180: 7095 5dbe 2276 dd3d 00c4 9fb9 ea63 293e
00000190: ef76 143e ac4a c73d b226 b3be 406b d83b
000001a0: c08b 29bc bc74 f93c 1d19 03be 30d3 ba3c
000001b0: e4e5 d63e 3436 9c3d d892 063d e0d5 33bd
000001c0: ae35 59bd 2e22 8b3d 6f69 b93e 30ce 05bc
000001d0: 177a 013e e0f6 a33b 2b9a 0a3e c8f4 f3bd
000001e0: e0a3 b9be 1a9b 19bd e69c b63d 7da1 573e
000001f0: e0c6 3cbc 5c15 dfbc 292f a3bd e083 9b3b
00000200: 4649 87bd 6eca d83e 0ad8 ed3d 2cab 04bd
00000210: aeeb 113e 403d 953b 9a9f e83d 6e51 dfbd
00000220: b9e6 013e 4aa8 76bd 8a7b efbd 005e 073b
00000230: 8e14 e13d 0ae7 a33e c2c4 45bd 2410 463d
00000240: 4f0b 253e c739 0c3e b30d 043e 6cc9 f6be
00000250: 1e90 a33d b0a5 f03c bc4d fe3d 48a1 0d3d
00000260: c88d 9c3d 603a 783e de7e 7bbd ee13 84bd
00000270: d28c fabe c0b3 5c3c 08d7 c5bd fab5 1c3e
00000280: 0f6a 17be d24f 9f3d 00b2 343d d3c0 0ebe
00000290: 058c 9abd 3fb3 bdbd e9aa 123e 7f3a f6bd
000002a0: 160b 323e 6ed2 13be 6b1f 85bd afbb 2abd
000002b0: 8428 af3d 78aa 9bbc 30bb eebd f886 98bc
000002c0: 6147 05be 7fd2 293d 28f7 3c3d 365e e3bd
000002d0: 830e 96bd 76c0 adbd 6e9c 31bd ae0f 1a3d
000002e0: b823 7e3d 8c85 1b3d b034 b63e c6d2 fcbd
000002f0: a686 89bd 0377 b0be ea26 dc3d 3013 273c
00000300: 2d15 a13e 705d 16be 5b9e 023e b9b1 89be
00000310: 802d 253b 8a2b 9dbd 3a07 f2bc 1033 5dbd
00000320: feca 0dbe d39b d5be a0e3 a3bd 96f8 ff3d
00000330: 9185 adbd 5c8e 3b3d e0c8 76bd 2429 1bbd
00000340: fa0a f13d 580b d1bd 7e14 ef3e 93f0 133e
00000350: 58b7 bfbc 7720 1bbd ca21 e7bd 4d29 eebd
00000360: f5b0 ba3e 8575 0ebe 2cd0 093d 9c0e 80bc
00000370: 3882 e63c 92d2 a53d efb5 b6bd 0408 ce3d
00000380: f6ed 813d 9a4b 993d 8822 6cbd 50db 1c3d
00000390: ff70 2bbd 7a3d 8bbd f8eb 703d 786b bfbc
000003a0: bc26 f2bc b0f3 233c ed3f d4be 384b b3bc
000003b0: 7aad c4bd 386c 34bd 324f 03be 6454 723d
000003c0: d3f4 bfbe 2012 1fbc 0586 0ebe 7bad 81bd
000003d0: e869 0cbe 50cf 143c b41e f3be 7cfa 563d
000003e0: fabf dabd 7dc2 51be 2fff 0d3e 1006 bf3d
000003f0: 7062 babd e069 5e3d 4030 123b 308a e43d

net.0.bias f4 [32]
0.48308063 0.3235967 0.34623984 0.4316243 0.3982649 0.35909158 0.27246246 0.21413217
0.41916466 0.29767048 0.40301085 0.4822463 0.23232205 0.39182836 0.47933248 0.3418309
0.41222683 0.24687348 0.42166284 0.30079058 0.23216161 0.38421252 0.46493283 0.41495267
0.25622106 0.39461783 0.24481376 0.30259514 0.37492472 0.43551797 0.25578108 0.32027462
00000000: 5856 f73e 77ae a53e 5946 b13e dcfd dc3e
00000010: 61e9 cb3e dada b73e 3380 8b3e 7745 5b3e
00000020: c09c d63e 4468 983e 7057 ce3e fde8 f63e
00000030: d5e5 6d3e ba9d c83e 116b f53e 7604 af3e
00000040: 650f d33e 67cc 7c3e 31e4 d73e 3901 9a3e
00000050: c6bb 6d3e 81b7 c43e ad0b ee3e ad74 d43e
00000060: 682f 833e 590b ca3e 75b0 7a3e c0ed 9a3e
00000070: 22f6 bf3e 36fc de3e bdf5 823e 09fb a33e

net.2.weight f4 [64, 32, 3]
0.35562167 -0.068065524 -0.018599644 0.3296944 -0.03602484 -0.033133328 0.37072107 -0.100720316
0.04405245 0.20499706 -0.016723536 -0.010457233 0.3384267 -0.038689017 -0.09018778 0.18642709
0.05148618 0.032430947 0.2005846 -0.088933386 -0.013586 0.34907067 -0.06289835 0.057219222
0.2503665 -0.072935574 0.030041784 0.19109714 -0.07368713 -0.005781539 0.34401515 0.027807757
-0.05136813 0.16732188 0.0058828667 0.0052103475 0.17405136 -0.010421805 0.056524456 0.277204
0.0780305 -0.06826919 0.3607982 0.10112512 -0.033139676 0.28608847 -0.012385868 -0.07700911
0.17967625 0.06033796 0.032115072 0.30634546 -0.0072496086 -0.040678646 0.3414178 0.09267819
-0.07315969 0.25751242 0.07082376 -0.04552641 0.1817207 0.014883168 0.021050788 0.30810913
-0.006824836 0.079699844 0.26216617 0.065881684 0.100169346 0.36000067 -0.0019973516 -0.038934313
0.23704824 -0.028825946 -0.03828901 0.17387938 -0.07489003 -0.059880983 0.31428656 -0.049080953
-0.03765086 0.24106601 -0.09009494 0.0022648051 0.37712637 -0.085450366 -0.051215827 0.18764126
-0.0058702976 -0.05240891 0.17541629 0.03202668 -0.042146698 0.28996694 0.06587289 0.013720974
0.014799503 0.061960325 -0.018008903 0.06623244 -0.017027907 -0.03663051 -0.123554796 -0.023452826
-0.020775609 0.0137803955 0.0652477 -0.043569513 0.016391534 0.068812296 -0.06268543 0.0061919214
0.029452175 0.03169626 -0.010046768 -0.097632915 -0.04298704 -0.049341355 -0.028301984 0.079991564
-0.04697861 -0.069524445 -0.044925205 0.018454798 0.045018494 0.041352957 -0.11540899 -0.06731272
0.09038815 -0.069713965 -0.031783976 0.0038210526 -0.054955386 0.080034554 0.072449565 -0.020328445
0.017324038 -0.05058123 -0.11864076 0.09560643 -0.0075677037 -0.053732496 0.054766014 0.09428993
0.009808596 0.06813116 0.057049677 -0.05946596 -0.0020363256 -0.071255 -0.006850074 0.08244209
-0.086252496 -0.0133058475 0.01620046 -0.074156836 -0.05915753 0.00029744208 0.00058072805 0.0036284414
-0.02941113 0.015729874 -0.06567578 0.07184321 0.059498265 -0.01382801 0.0666579 -0.07516463
-0.055932205 0.036887392 0.099873155 0.0111544 -0.050158426 0.050924525 -0.11620489 -0.040600084
0.038091853 -0.001723447 0.013823576 -0.028318882 0.051652167 0.032725096 -0.030164264 -0.027216978
-0.015162483 -0.031742074 -0.10438742 0.059272602 -0.023574166 -0.006966823 -0.076885425 0.09448677
-0.0654185 0.065040454 0.059207767 0.0771958 0.07921846 0.018339708 -0.08254989 0.011799909
-0.08649941 -0.0982774 -0.028798595 0.010891452 0.029407691 0.066789165 0.101545975 -0.033760283
0.018716775 -0.058789786 0.06879108 0.08936937 0.08823635 -0.08767862 -0.099498436 -0.01672344
-0.11806401 -0.09345562 -0.0037457496 0.024850098 0.090730086 -0.09114174 -0.07980777 -0.006892234
0.089024365 -0.106611654 0.04696074 0.085582405 0.079559766 0.03479795 -0.033961333 0.06644496
-0.0072728693 0.05623451 -0.06421156 0.07180071 0.009926006 -0.060710013 -0.09464234 -0.08474248
-0.008080883 -0.033099458 0.02132073 0.034951434 -0.018690556 0.023392752 0.01579637 -0.023109898
0.08553508 0.07673073 0.045755073 0.066656694 0.057679832 -0.093821965 -0.042960458 -0.022060797
00000000: 0b14 b63e f065 8bbd 485e 98bc b4cd a83e
00000010: c88e 13bd d0b6 07bd 27cf bd3e 7446 cebd
00000020: 5870 343d c0ea 513e ccff 88bc d054 2bbc
00000030: 4446 ad3e 6078 1ebd 5fb4 b8bd bee6 3e3e
00000040: 2ce3 523d 50d6 043d 0d66 4d3e b522 b6bd
00000050: d097 5ebc 64b9 b23e dad0 80bd b45e 6a3d
00000060: 0a30 803e 3f5f 95bd 301a f63c f8ae 433e
00000070: 47e9 96bd 1073 bdbb c122 b03e 18cd e33c
00000080: 6367 52bd 6d56 2b3e 10c5 c03b 90bb aa3b
00000090: 853a 323e 38c0 2abc 3086 673d afed 8d3e
000000a0: 74ce 9f3d b8d0 8bbd 8bba b83e b01a cf3d
000000b0: 78bd 07bd 307a 923e 18ee 4abc f4b6 9dbd
000000c0: 0dfd 373e f024 773d 188b 033d 50d9 9c3e
000000d0: 208e edbb a79e 26bd 50ce ae3e 10ce bd3d
000000e0: bfd4 95bd abd8 833e 0c0c 913d e779 3abd
000000f0: fe14 3a3e 88d8 733c b472 ac3c 7bc0 9d3e
00000100: e0a2 dfbb ac39 a33d a53a 863e faec 863d
00000110: 9625 cd3d 0252 b83e 00e6 02bb 9679 1fbd
00000120: c6bc 723e 6424 ecbc f0d4 1cbd 700d 323e
00000130: f25f 99bd c345 75bd 2bea a03e 1c09 49bd
00000140: ca37 1abd 02da 763e b283 b8bd 206d 143b
00000150: b516 c13e 9a00 afbd b0c7 51bd 0825 403e
00000160: a05b c0bb baaa 56bd 54a0 333e 682e 033d
00000170: 04a2 2cbd 8c76 943e 5ee8 863d f0cd 603c
00000180: 9d79 723c 1cca 7d3d 6887 93bc e0a4 873d
00000190: 1c7e 8bbc e009 16bd 4c0a fdbd 2420 c0bc
000001a0: 9c31 aabc 2bc7 613c 96a0 853d f275 32bd
000001b0: 8a47 863c 76ed 8c3d 3861 80bd 9ae5 ca3b
000001c0: b045 f13c f0d3 013d 339b 24bc c4f3 c7bd
000001d0: 2e13 30bd 291a 4abd 90d9 e7bc 9ed2 a33d
000001e0: a56c 40bd d562 8ebd 7e03 38bd 842e 973c
000001f0: 5065 383d b861 293d 8c5b ecbd 40db 89bd
00000200: 6c1d b93d 32c6 8ebd ea2f 02bd a06a 7a3b
00000210: e618 61bd 28e9 a33d 7060 943d d787 a6bc
00000220: 24eb 8d3c 442e 4fbd edf9 f2bd 4ecd c33d
00000230: 80fa f7bb 9b16 5cbd 5452 603d 141b c13d
00000240: 3cb4 203c 5a88 8b3d ecac 693d 9492 73bd
00000250: e073 05bb 24ee 91bd 9676 e0bb 66d7 a83d
00000260: 26a5 b0bd c500 5abc d4b6 843c 8adf 97bd
00000270: 2b4f 72bd 00f2 9b39 003c 183a 25cb 6d3b
00000280: 9cef f0bc f0db 803c 0681 86bd 8822 933d
00000290: 74b4 733d e18e 62bc f083 883d eaef 99bd
000002a0: 2b19 65bd 3c17 173d 4c8a cc3d f2c0 363c
000002b0: ec72 4dbd 3c96 503d d4fc edbd 464c 26bd
000002c0: 3406 1c3d 49e5 e1ba 487c 623c 00fd e7bc
000002d0: 3991 533d c00a 063d 0c1b f7bc 24f6 debc
000002e0: 106c 78bc fa03 02bd 12c9 d5bd d4c7 723d
000002f0: 9c1e c1bc f249 e4bb 1b76 9dbd 4882 c13d
00000300: 22fa 85bd ee33 853d d883 723d d518 9e3d
00000310: 4a3d a23d 283d 963c eb0f a9bd 6854 413c
00000320: 9a26 b1bd a945 c9bd 08eb ebbc 1072 323c
00000330: 66e8 f03c c2c8 883d 56f7 cf3d 3948 0abd
00000340: ec53 993c 8fcd 70bd 56e2 8c3d 4a07 b73d
00000350: 42b5 b43d d990 b3bd d6c5 cbbd 98ff 88bc
00000360: 8bcb f1bd a965 bfbd 407b 75bb 6f92 cb3c
00000370: b2d0 b93d 85a8 babd 4272 a3bd 40d8 e1bb
00000380: 6852 b63d 3657 dabd e859 403d d445 af3d
00000390: 3bf0 a23d 4c88 0e3d 0a1b 0bbd 4c14 883d
000003a0: 4051 eebb 2856 663d 5a81 83bd 400c 933d
000003b0: b0a0 223c 10ab 78bd d8d3 c1bd 778d adbd
000003c0: ae65 04bc 4c93 07bd d0a8 ae3c 3c29 0f3d
000003d0: f01c 99bc 28a2 bf3c 6467 813c f850 bdbc
000003e0: 042d af3d 0025 9d3d ac69 3b3d 4e83 883d
000003f0: b041 6c3d bb25 c0bd 4ef7 2fbd d8b8 b4bc

net.2.bias f4 [64]
0.31036443 0.06262545 -0.117945194 0.28779364 0.31979522 0.045240838 0.25717995 -0.11690394
0.19918585 0.19946386 -0.0889614 0.29963973 0.25521666 0.22841477 0.24879786 0.2291747
-0.009790152 -0.013554447 -0.037853 0.014527001 -0.0011067291 0.33631372 0.24412851 -0.077285655
0.29067189 0.32514283 0.2331126 -0.088285565 0.30678767 0.23830952 0.046939325 -0.00022056393
-0.10943349 0.01728879 0.21860439 0.0026884556 -0.06773225 0.37767196 0.31982562 0.27559796
0.031569198 -0.07116691 0.2869509 0.05257614 0.24831589 0.23027195 -0.084489435 0.36415833
0.3168901 0.34833837 0.32870132 -0.06537022 0.25442272 -0.028393602 0.18876708 0.37742916
0.22533643 -0.034294426 -0.052803423 0.041549448 -0.005462385 -0.04316734 -0.027110614 -0.034804154
00000000: 16e8 9e3e c641 803d 408d f1bd b059 933e
00000010: 33bc a33e 754e 393d 17ad 833e 556b efbd
00000020: 60f7 4b3e 4140 4c3e 6531 b6bd 616a 993e
00000030: c2ab 823e 90e5 693e dec4 7e3e c6ac 6a3e
00000040: e066 20bc 7913 5ebc bf0b 1bbd a902 6e3c
00000050: ab0f 91ba 5031 ac3e d3fc 793e f147 9ebd
00000060: f2d2 943e 1f79 a63e 12b5 6e3e 10cf b4bd
00000070: 4613 9d3e 6907 743e 7343 403d 2e47 67b9
00000080: aa1e e0bd 38a1 8d3c d4d9 5f3e cd30 303b
00000090: 35b7 8abd 385e c13e 2fc0 a33e 2d1b 8d3e
000000a0: b44e 013d f5bf 91bd 3aeb 923e 145a 573d
000000b0: 8546 7e3e 69cc 6b3e cc08 adbd f672 ba3e
000000c0: 6b3f a23e 6859 b23e 8a4b a83e d2e0 85bd
000000d0: b243 823e b399 e8bc 284c 413e 653e c13e
000000e0: 98be 663e 5078 0cbd 6748 58bd c12f 2a3d
000000f0: cefd b2bb 3dd0 30bd 1417 debc cd8e 0ebd

fc.weight f4 [2, 64]
0.1947198 0.12543607 0.03647554 -0.041017186 0.15947013 0.012738119 0.20825042 0.045794815
0.16676565 0.18680488 -0.026394188 0.07840511 0.11971385 0.17329021 0.1325434 0.133629
-0.08253397 -0.049033076 0.1038369 0.065410376 0.021035895 -0.030590814 0.07441236 -0.086917736
0.12216455 -0.0039174487 0.12581995 0.053616185 0.054166302 0.22929361 0.11231968 0.045332745
0.10576756 0.027361415 0.047641855 -0.06553831 -0.07971338 -0.00946953 0.1993266 0.14960603
-0.041425362 -0.0037681644 0.22866136 0.12862796 0.07695909 0.08449017 0.015674628 0.007194273
0.030740045 0.081777036 -0.012014041 -0.041943543 0.20800708 -0.011621227 0.21613921 0.05464867
0.19609971 0.042898193 -0.08278536 0.119724095 -0.044606775 -0.09658286 0.05433668 0.0071451436
0.3517964 -0.07605952 -0.10339527 0.27862245 0.28466573 -0.08013298 0.25756893 -0.110347874
0.29687926 0.29533836 0.11782226 0.31880838 0.42953843 0.32354724 0.414607 0.41666037
-0.076597236 -0.06226843 -0.09629804 -0.04059297 -0.026884984 0.32797393 0.32543764 -0.006227918
0.39381933 0.4241739 0.3647764 -0.09484359 0.41528943 0.39809147 -0.075961314 -0.089190006
-0.056845393 -0.01610496 0.29571515 -0.09009094 -0.10747302 0.37984437 0.2666722 0.39309174
-0.018204967 -0.04471888 0.38526562 -0.090129025 0.37570763 0.38793734 -0.018145258 0.39711392
0.32930085 0.30026296 0.3698754 -0.046266384 0.32796812 -0.039643563 0.40027854 0.34702346
0.3315603 -0.09046316 -0.031016618 -0.10318733 -0.045221265 -0.07919053 -0.07288726 -0.086982965
00000000: a164 473e 5072 003e 6067 153d a301 28bd
00000010: 234c 233e 8bb3 503c 993f 553e 5893 3b3d
00000020: 9dc4 2a3e c749 3f3e a038 d8bc dc92 a03d
00000030: 892c f53d fd72 313e 75b9 073e 0ad6 083e
00000040: 9207 a9bd e8d6 48bd 71a8 d43d e0f5 853d
00000050: 7853 ac3c 9699 fabc 8265 983d ed01 b2bd
00000060: 6831 fa3d f15d 80bb f2d6 003e a59c 5b3d
00000070: 7cdd 5d3d f2cb 6a3e dc07 e63d d4ae 393d
00000080: aa9c d83d 0c25 e03c 1b24 433d f338 86bd
00000090: c540 a3bd 1626 1bbc 461c 4c3e 5332 193e
000000a0: a4ad 29bd 4ff3 76bb 3426 6a3e 0cb7 033e
000000b0: ba9c 9d3d 2f09 ad3d 1468 803c f0bd eb3b
000000c0: 8cd2 fb3c b87a a73d 8ad6 44bc fecc 2bbd
000000d0: cfff 543e f566 3ebc 9953 5d3e 49d7 5f3d
000000e0: 5dce 483e 04b6 2f3d 5f8b a9bd e831 f53d
000000f0: 98b5 36bd 3ccd c5bd 2390 5e3d cf21 ea3b
00000100: a81e b43e 18c5 9bbd e6c0 d3bd 9aa7 8e3e
00000110: b5bf 913e c31c a4bd 13e0 833e 11fe e1bd
00000120: 8f00 983e 9736 973e cc4c f13d da3a a33e
00000130: 76ec db3e fca7 a53e 5e47 d43e 8254 d53e
00000140: 03df 9cbd 2e0d 7fbd e837 c5bd d044 26bd
00000150: e63d dcbc 33ec a73e c39f a63e 9013 ccbb
00000160: b0a2 c93e 522d d93e f9c3 ba3e 5b3d c2bd
00000170: d1a0 d43e a5d2 cb3e 9b91 9bbd 40a9 b6bd
00000180: b7d6 68bd 8dee 83bc fa67 973e 9981 b8bd
00000190: d11a dcbd f67a c23e 4289 883e 5243 c93e
000001a0: 9522 95bc 252b 37bd 8941 c53e 9195 b8bd
000001b0: c05c c03e b99f c63e 5da5 94bc 8452 cb3e
000001c0: 1f9a a83e 11bc 993e 4f60 bd3e d281 3dbd
000001d0: 70eb a73e 4a61 22bd 4ff1 cc3e 0fad b13e
000001e0: 46c2 a93e c044 b9bd 9016 febc e153 d3bd
000001f0: ef39 39bd a52e a2bd ea45 95bd 2024 b2bd

fc.bias f4 [2]
0.111450754 0.2898418
00000000: 4b40 e43d 2566 943e
