models/h6_ep50_bs128.pth (torch, 38237 bytes, 6 tensors)

net.0.weight f4 [32, 13, 3]
00000000: 6182 a43a ed20 12be d2ac 013e d2ac 73bd
00000010: c0fc 55bb fcd5 e53d e792 e63d 7018 bb3d
00000020: fbf2 0bbe cba6 e43c 30bc e13d 249b 2cbd
00000030: 65c7 89be 403e ad3b 9669 b7bd af48 4dbe
00000040: 66e4 febd 9897 923c 03da 23be e65d d6bd
00000050: 6e52 f1bd 5587 653f a0e6 293d 48e5 34bd
00000060: f091 843d 9e3f 63bd 2a43 803d 1756 6a3f
00000070: 786d d8bc 8aaa 053e afcd c03d 3a67 14bd
00000080: 1eb1 0d3e 5cc8 b73e ec27 d5bd 988a 82bc
00000090: 2764 bd3e 8ae8 f3bd 9bba b0bd fe98 22bd
000000a0: 2400 c83d 94e9 1bbd 2399 bc3c 8ce8 0cbe
000000b0: 409f 4c3b e854 d9be 5cf4 7a3d c918 9fbd
000000c0: d3b3 77be 00fa d13d 84e6 1b3e c329 f7bd
000000d0: 809b f9ba b61e 1ebd 884a 7abe 52d7 0a3e
000000e0: 52c8 eabd 5772 8c3d 648d 463d 90d7 073e
000000f0: 7329 453f 04af f83d 8e50 b73d 8080 d93d
00000100: 3420 1b3d 8eec 11be 3d10 a13e 0ccb efbd
00000110: c0b5 6abc a29c bdbd 8099 9d3c 0068 ab38
00000120: b69b ebbd bccb 133d 90ca ff3c 4735 183e
00000130: d888 053e b555 cbbd 713f e3bd e826 27bd
00000140: 78d9 a5bd 4a9d 7abe e415 afbd d10a f6bd
00000150: d140 d6bd a0c2 093c 001c 20b9 931c 213e
00000160: cb8c 1bbe e876 cd3d 2ea6 b23d a845 df3d
00000170: 1c4a 473d 9d14 6dbe 8649 80bd 450c a4bd
00000180: 6910 fe3d c063 0abd 68cc 0d3e ede1 753f
00000190: 4e38 17be 305f 41bc c218 20be 20db d53d
000001a0: 8e21 85bd 4fb0 4b3f 80be 073e 21e1 c7bd
000001b0: c204 0b3e 70e1 e53d 7216 06be b38d 6e3e
000001c0: 4c8c 0bbd 00aa 733b c1c8 763e 92c5 223e
000001d0: 8c53 c43d 8764 47be b0a2 8cbc 347d 153e
000001e0: 387c fdbe 980a c83d e058 403c 496b d1be
000001f0: 44c8 223e 27f6 b0bd 8faf f8be d0dc c73c
00000200: d35d a0bd d024 9bbe dcb1 7f3d ae09 92bd
00000210: 8230 583d 0e8e 1e3e 7cef e93d c833 1cbf
00000220: 40db 373c 0e65 893d 99e1 31bf 888a bbbd
00000230: 925b 1f3e 1196 87bd 4ce6 f1bd 8059 4a3d
00000240: b031 f93e c413 e13d 0910 20be d998 c9be
00000250: 188d c63d d8c8 de3c 51fa f23e 509c 153d
00000260: 801e 85bc feea 19be 4c51 2c3d dc3d 22be
00000270: b25c 063e 34cd 07be d450 153e f7b3 a03d
00000280: 5cc4 f43d f4eb 933d 70d6 e83c e8c8 1abe
00000290: dc76 843d 6075 0b3d 29e6 babd cec8 4ebd
000002a0: 7564 923e 3969 eebd 30b1 f53c f81f 423e
000002b0: 00a6 1aba 01c9 21be 3c0d f43d cc76 ed3d
000002c0: 98ab 3d3d 3f97 103f 6c81 f83d 6e95 823d
000002d0: 7a11 9e3d b82a 083e 14a1 0abd 73ce fc3e
000002e0: d4ea d43d e464 2ebd 580d 4b3e 3038 223d
000002f0: fcac 203e c6cf 47be 38a5 8a3c f8b2 393d
00000300: 65a6 c43e dc9e 03bd 1c8e 433d 0a3b 253e
00000310: 9721 00be 8103 96bd a108 3bbc e080 bdbb
00000320: 0ee4 9d3d c3fa ec3e a08d 41bc 432c a8bd
00000330: afe5 95be 12f3 10be 9a03 193e 4216 e2be
00000340: 24f7 d73d aa4b 35bd fb13 6bbe 928a 173e
00000350: 8142 b9bd c4ba fabd 1faf 8cbd c7a3 aebd
00000360: 443e fa3e 6a16 053e 8072 1d3b 6c04 c23d
00000370: 80f7 1abb 5cb6 0a3e c0cb ffbe f6d2 b13d
00000380: 4650 f4bd 047e 6a3e e439 0c3e 4993 04be
00000390: cca4 d03a f40e cc3d 78f7 123e 47ea 293e
000003a0: d894 4e3d bb1b 1ebe f231 0abd 507d 82bd
000003b0: 1655 b4bd 1898 b1be 2bdc 94bd bab3 0f3e
000003c0: d72c 273e d8fe bebc bd3c 19be 00ee 8bbe
000003d0: 923a 6bbd ec31 be3d 514a 4cbd c868 143e
000003e0: 9bf2 88bd 280d 3b3f d42f 7a3d 7814 e2bc
000003f0: b676 dfbd a416 5d3d 98a3 99bc 0ccc bb3f
0.0012551063 -0.14270373 0.12663582 -0.059490986 -0.0032651871 0.11222455 0.11258488 0.091355205
-0.13666908 0.027911564 0.11022222 -0.04214014 -0.26909938 0.005286962 -0.08955686 -0.20047258
-0.12445907 0.017894551 -0.16001134 -0.104671285 -0.117833 0.89659625 0.041479707 -0.044163972
0.06473148 -0.055480592 0.062628105 0.9153761 -0.026419386 0.13053337 0.09414231 -0.036231257
0.13837096 0.3589505 -0.10408005 -0.015935227 0.36990473 -0.11909588 -0.08629342 -0.039696686
0.09765652 -0.038064554 0.02302224 -0.13760585 0.003122285 -0.4244759 0.061268196 -0.07768399
-0.24189691 0.10252762 0.15224653 -0.12068512 -0.0019043535 -0.038603507 -0.24442494 0.135587
-0.11463989 0.06857746 0.048474684 0.13265824 0.7701637 0.121427566 0.089509115 0.106202126
0.03787251 -0.14250395 0.314577 -0.1170865 -0.014325559 -0.09258391 0.019238234 8.173287e-05
-0.11504309 0.036082968 0.031224519 0.14864074 0.13040483 -0.09928457 -0.11096085 -0.04080859
-0.080981195 -0.24474064 -0.08549097 -0.12013782 -0.104615815 0.008408219 -0.0001526922 0.15733556
-0.15190427 0.10032445 0.087231025 0.10901958 0.04865466 -0.23152395 -0.062640235 -0.08010153
0.12405474 -0.033786535 0.13847506 0.9604786 -0.14767572 -0.01180248 -0.15634444 0.104421854
-0.06500541 0.795659 0.13256264 -0.09759737 0.13576034 0.112246394 -0.130945 0.23296241
-0.034069344 0.0037180185 0.24100019 0.1589568 0.09586248 -0.19471942 -0.01716742 0.14598542
-0.49508834 0.097676456 0.011739939 -0.40902165 0.15896708 -0.086407 -0.4857144 0.024397284
-0.078303955 -0.30301523 0.06242548 -0.071307525 0.052780636 0.15483877 0.11422631 -0.6101651
0.011221707 0.06708728 -0.6948486 -0.09157282 0.15562275 -0.0662042 -0.11811504 0.04940176
0.4867072 0.10990098 -0.15631117 -0.39374426 0.0969488 0.02719538 0.474566 0.036526024
-0.016249895 -0.15031049 0.04206972 -0.1584391 0.13121298 -0.13261873 0.14581615 0.078468256
0.11951515 0.07222739 0.028422564 -0.15115702 0.06467983 0.034047484 -0.09125931 -0.05048447
0.28592268 -0.116411634 0.029991716 0.18957508 -0.000589937 -0.15799333 0.11916587 0.11594924
0.046306223 0.56480783 0.1213406 0.06376158 0.07718177 0.13297546 -0.033845022 0.49376258
0.103963524 -0.042576686 0.19829309 0.039604366 0.15690988 -0.19512853 0.016924486 0.045336694
0.384082 -0.032133922 0.047742948 0.16135803 -0.12512814 -0.07324887 -0.0114156315 -0.0057831854
0.077095136 0.46285066 -0.011813551 -0.08211567 -0.29276797 -0.14155224 0.1494278 -0.44157606
0.10545185 -0.044261612 -0.2295684 0.14798954 -0.09045888 -0.12242654 -0.06869339 -0.08527332
0.4887563 0.12996832 0.0024024546 0.094735 -0.0023646057 0.13546127 -0.49960136 0.08682816
-0.119293734 0.22899634 0.13693959 -0.1294681 0.0015918254 0.099637896 0.14352214 0.16593276
0.050434917 -0.15440266 -0.033739038 -0.06371558 -0.08805291 -0.3468635 -0.07268556 0.14033404
0.16325699 -0.023314878 -0.14964576 -0.27330017 -0.057428904 0.092868656 -0.04987556 0.14493096
-0.06686898 0.7306695 0.06108077 -0.02759765 -0.10911314 0.05397667 -0.018754765 1.4671645

net.0.bias f4 [32]
00000000: 9e1e 8f3f 3148 bb3f 37a8 c33f 1971 a23f
00000010: 7954 ad3f 339e 9f3f 37f3 a83f 8968 a33f
00000020: d8a6 b23f 47d6 a63f e51d 8e3f 9553 a83f
00000030: 9baf 9e3f 4d1a a33f 30d9 a33f 221d 9c3f
00000040: bfa8 983f 5ac8 8f3f 2029 9f3f 3083 963f
00000050: 2528 873f f93a ad3f e189 903f eeca b63f
00000060: 70e9 933f 09c0 963f 1119 a33f a107 893f
00000070: ec85 b13f c0d9 963f b134 b43f 85cd a53f
1.1181219 1.4631406 1.528571 1.2690765 1.3541404 1.2470154 1.3199223 1.2766277
1.3957167 1.3034142 1.1102873 1.3150507 1.239734 1.2742401 1.2800655 1.2196391
1.1926497 1.1233017 1.2434425 1.1758785 1.0559126 1.3533622 1.1292077 1.4280679
1.1555614 1.1777354 1.2742025 1.0705453 1.3868995 1.1785202 1.407858 1.2953345

net.2.weight f4 [64, 32, 3]
00000000: 0a41 a53c 1c00 673d 2086 e33c 6d2e 0bbd
00000010: 4e92 893d 3c95 97bd 530c 01bd 4078 33bc
00000020: 4481 e0bc 6f3c 9fbd 40ac 68bb 775d b8bd
00000030: adf3 4ebd 708e 13bd 900c 023c 8b39 57bd
00000040: cf92 acbd 5466 17bd a6e4 81bd cfda 3bbd
00000050: f010 f1bb 3f54 b1bb 04b8 80bd c3d3 65bd
00000060: f31f 20bd e017 e8bc 6a9c 98bd b935 093d
00000070: 7026 8a3d fa2f 4abd 87d0 0f3d b96d 46bd
00000080: 9488 2b3d 4fdb febd 2a11 983d 0085 5abc
00000090: 9284 f5bd 4041 8c3d 01ad 2abd 2de2 aabd
000000a0: 506a 84bd 4c27 673d 6f34 713d ba68 a53d
000000b0: 1450 a9bd 7631 d2bd deea b83d b01e 653d
000000c0: 9c7f fe3c 4402 c8bc 64b2 993c 5a4c 8ebd
000000d0: 780b 9dbd c104 38bd ac21 c33c 66eb b43d
000000e0: d0b3 ee3b 6edf 84bc 862f 9a3d c2d4 cebd
000000f0: 24e6 cb3c 342f 12bd c6e3 903d ccae 05be
00000100: b0cb 2c3d 8cc5 8cbd 2b7d f53a a59f d0bd
00000110: 313f b3bd 17b8 743d fce7 5a3d 109f ae3b
00000120: 8234 40bd 1453 32bd 764e bdbd f0c1 d2bd
00000130: 63fe 83bd fcab d6bc 680f 553d 30f8 82bd
00000140: d26d 8f3d d8af f3bb 7f13 afbd 94b0 a5bd
00000150: 8e34 e2bb 80ab 67bb 412c 8abd c1c0 f1bd
00000160: c277 29bd 2cf8 7c3d d2bb 04be 3498 a13d
00000170: 2842 82bd b282 89bd c49b ba3d 2852 bebd
00000180: 10d0 373f 94ad 963d 00ab 6f3b d920 373f
00000190: 1c51 acbd 30b0 f8bc 4d27 263f 39d6 a8bd
000001a0: a0ac 6e3b 6e3c 293f 6843 fa3c 5689 a03d
000001b0: bf0e 1a3f f4a4 4c3d 6836 9b3d a0a5 f53e
000001c0: d0e5 363d ac64 6a3d bce8 4b3f 6db4 aebd
000001d0: 3c60 8fbc 39c8 293f d4b2 cb3d c0d7 5e3b
000001e0: 071f 1f3f 0016 7a3d f254 95bd 91d0 453f
000001f0: 6c50 0b3d edad 4dbd ab3b 053f cea1 aebd
00000200: a0bd 79bc f298 613f 2cc0 99bd ac4f 9a3d
00000210: b7c6 293f 0175 5ebd adf0 5fbd ff61 233f
00000220: a09c c5bb 0453 033d 66a7 383f 9938 93bd
00000230: 8edd c23d 3a16 383f 30b8 76bc 70f0 8a3d
00000240: 0d92 163f 2418 863c cc25 463d 15e1 c03e
00000250: 3462 b6bd 80df 873a 87de 343f 1cce c3bc
00000260: 6c59 91bd c301 423f cad5 19bd 002e 4fba
00000270: d937 1b3f 405d 32bc d0fc e03c 1dbd 3c3f
00000280: c176 2cbd dc0d 693d 0ea9 473f b068 7a3d
00000290: 6a1c cd3d 18da 553f e8ad db3c e052 6f3d
000002a0: eaad ff3e b3b2 bbbd 883b 263d d0fd f23e
000002b0: 16b8 8d3d 2cd8 293d b1c0 2b3f 60aa 31bc
000002c0: 889a 2bbc 9e1e 3d3f d8db 7bbc 9b18 c5bd
000002d0: 49f7 343f c0a2 793d a089 c2bd 354e 2d3f
000002e0: d8a8 993c 1446 bdbd 8291 263f 00e8 d43c
000002f0: 1612 cf3d e57a 643f dc89 c1bc 28db 893c
00000300: a00f 273d 187b 1c3d 6044 f5bb 4bd5 a23c
00000310: 743d 833c 3e3a 0bbd 9f6f 00be 0c79 a53d
00000320: 806c 97bb 9543 f8bd fc00 8a3c c024 cc3c
00000330: f250 21bc 77b1 70bd c0d9 0f3d f8b1 f8ba
00000340: 9c6d 083d 10a8 9cbc 90d2 483c 005e b6ba
00000350: 0263 973d 7ad3 9f3b 2314 22bd ae93 aabd
00000360: 26f7 1dbd 006d 61bc 7328 9dbd 7ac5 f4bd
00000370: a86c 2e3c 0c4d fbbc 5e31 e43c a848 23bc
00000380: e80c 92bd 0336 5f3c 8438 2d3d 5469 49bd
00000390: e616 1b3d 0082 123d a891 853c 5d90 0fbd
000003a0: 68fc 403d 1f9d c5bd 44f2 503d 50ac 01bd
000003b0: 0029 d73c 9086 b4bd e96b 3ebd 34da cbbd
000003c0: a270 213a 20f5 ae3c f45d 283d 4e7a f5bd
000003d0: 1c98 9e3d e112 a7bd 3a1b 033d 30ed 2e3d
000003e0: ceea b23d b8c4 60bd b4be 143d a775 b2bd
000003f0: dbd4 cfbd 6466 a33c d07b 40bd b52f 4cbd
0.020172615 0.05639659 0.027773917 -0.033979822 0.067173585 -0.07401511 -0.031505894 -0.010953963
-0.027405389 -0.07775199 -0.003550306 -0.09002202 -0.050525356 -0.03602451 0.007937565 -0.05254511
-0.08426439 -0.036962822 -0.06342439 -0.04586297 -0.0073567554 -0.0054116542 -0.06285098 -0.056110155
-0.03909297 -0.028331697 -0.074517086 0.0334985 0.067456126 -0.04936216 0.035110977 -0.048444483
0.041878298 -0.124441735 0.07425149 -0.013337374 -0.119881764 0.06848383 -0.041668896 -0.08343921
-0.0646559 0.05643396 0.058887895 0.08076616 -0.08267227 -0.1026334 0.09029172 0.05593747
0.031066708 -0.024415143 0.018761821 -0.06948157 -0.07668203 -0.04492641 0.023819767 0.08833961
0.007284619 -0.01621982 0.075285956 -0.10099174 0.024890013 -0.035689548 0.07074694 -0.13054961
0.04218644 -0.068736166 0.001872932 -0.101867 -0.08752287 0.059745874 0.053443894 0.0053290203
-0.046925075 -0.04353626 -0.09243481 -0.10290897 -0.06445005 -0.026205055 0.052016646 -0.06394994
0.070033684 -0.0074367337 -0.085486405 -0.0809032 -0.0069032377 -0.0035350025 -0.06746722 -0.11804343
-0.041373976 0.061760113 -0.12962273 0.078903586 -0.063602746 -0.06714381 0.09111741 -0.09293014
0.71801853 0.07357326 0.003657043 0.71534497 -0.08413908 -0.03035745 0.6490372 -0.08243985
0.003641881 0.66107833 0.03054972 0.07838695 0.6017875 0.049962 0.075787365 0.47977924
0.04465276 0.057224914 0.79652 -0.08530507 -0.017501943 0.6632114 0.09946218 0.0034003109
0.6215672 0.061056137 -0.07291593 0.7727137 0.034012243 -0.050214697 0.5204417 -0.085269555
-0.015242964 0.88124 -0.07507357 0.075347275 0.6631884 -0.054310802 -0.054672886 0.63821405
-0.006030634 0.03206159 0.7213043 -0.071885295 0.095149145 0.71908915 -0.015058562 0.06784141
0.58816606 0.016368933 0.04837589 0.37671724 -0.089054495 0.0010366291 0.7065205 -0.023901992
-0.07097134 0.7578394 -0.0375574 -0.0007903278 0.6063209 -0.01088649 0.0274643 0.73726064
-0.04210544 0.056897983 0.7799233 0.061134994 0.10015185 0.8353591 0.026816323 0.058428645
0.49937373 -0.091649435 0.040584117 0.4745927 0.06919877 0.041465923 0.670909 -0.010843843
-0.010473855 0.73874843 -0.015372239 -0.09623834 0.7068983 0.060946226 -0.09498906 0.6769746
0.018757269 -0.09241882 0.6506578 0.025989532 0.101108715 0.8925002 -0.023625307 0.016828135
0.040786386 0.03820333 -0.0074849576 0.019877097 0.016020514 -0.03399109 -0.1254258 0.080797285
-0.0046210885 -0.12122265 0.016846173 0.024919868 -0.009845959 -0.058762994 0.035119772 -0.0018973937
0.033307657 -0.019123107 0.012257233 -0.0013913512 0.07391931 0.004877505 -0.039569985 -0.08328949
-0.038565777 -0.013758898 -0.07673731 -0.11951728 0.010646023 -0.030676387 0.027855571 -0.009966053
-0.07131368 0.013623717 0.042290226 -0.049172714 0.037863635 0.03576851 0.016304806 -0.035049785
0.047115713 -0.09649109 0.051012293 -0.03165847 0.026264668 -0.08814728 -0.04648963 -0.09953728
0.0006158446 0.02135712 0.041105226 -0.119862184 0.07743856 -0.08157898 0.032008387 0.04270667
0.08736192 -0.054875106 0.03631468 -0.08713847 -0.10148021 0.019946285 -0.046993077 -0.049850184

net.2.bias f4 [64]
00000000: 3326 833d 9432 433f 8aa5 4ebd 47d5 503f
00000010: f877 f6bc be26 553f fd26 dd3c 9379 8e3d
00000020: 0738 3b3f a055 5a3f 0666 6f3f 6ef4 4d3f
00000030: 236b 3b3f e0d2 4a3f 9109 e9bd 790c 4b3f
00000040: 272f 893d 1f4f 7dbc 5c32 babd 00a4 623f
00000050: f3e0 92bb b4ab 4b3f 0452 ebbd 505e 813d
00000060: 934f 32bd cab6 5a3f 0598 a03a d82c 443f
00000070: 1e05 74bd 9d58 5b3f 6325 5c3f 2b37 85bd
00000080: 6256 633f 1896 333f 0ecd 543f 449d 3c3f
00000090: 30d1 593f eefc 473f f6f7 443f 5721 373f
000000a0: 629b 523f bce0 eabd a6ec 4c3f f0d7 8d3d
000000b0: 0259 61bc c175 bebd e6fc 41bf 4dc9 3b3f
000000c0: 2ec8 2c3f 79be 433f e3ff b63f 3fb6 553f
000000d0: 3549 efbd 7da5 533f df04 4c3d 94ee f23f
000000e0: 94fb 5f3f 4afb 373f ddb7 bd3c b1fb 3b3f
000000f0: 3f62 4b3f 2cc7 3e3f 1417 3a3f b931 653f
0.0640377 0.7624905 -0.05045084 0.81575435 -0.030086502 0.8326224 0.02699613 0.06956782
0.73132366 0.85286903 0.9351505 0.80451095 0.7321035 0.7922802 -0.11378778 0.79315907
0.06698447 -0.0154607585 -0.090916365 0.88531494 -0.0044823824 0.79558873 -0.114902526 0.06316817
-0.04353292 0.85435164 0.0012252337 0.76630926 -0.059575193 0.8568209 0.8599455 -0.06504663
0.88803685 0.701509 0.8312539 0.7367747 0.8508482 0.78120315 0.7694086 0.7153525
0.82268345 -0.11468646 0.80048597 0.069259524 -0.013754131 -0.092998035 -0.7577652 0.73354036
0.6749295 0.76462513 1.429684 0.8348121 -0.11683885 0.8267439 0.049809333 1.8979058
0.8749325 0.7186781 0.023158962 0.73430926 0.79446787 0.7452266 0.72691464 0.89528996

fc.weight f4 [13, 64]
00000000: 7cb3 c1bc 48e4 babd 24c8 3b3c 571d ed3d
00000010: 1661 933d 5ba9 ca3d 6904 3f3d 9dde 813d
00000020: 659a ea3d a8b0 0f3e f006 f4b9 c206 b4bd
00000030: f3e8 81bd 5cde b93c e7b4 443d 66e1 ddbd
00000040: 63c1 653d b438 383d 0098 643c cb92 5abc
00000050: 08b9 adbc 4dad 4fbd 0787 0b3d 46fa 36bd
00000060: 8335 b43b 3d6d 963c ef30 83bd bb06 dfbd
00000070: 85e9 6cbd 930b fd3d 391e b63d e38c 0bbc
00000080: efe9 9abe b0c7 7b3d e68e d73c a72e 513d
00000090: 5fde dd3d bed1 09bd 2529 d73d bdee 2a3d
000000a0: 9675 f6bd 094c 2bbd ec4d d93d f45e 09bd
000000b0: b2a7 5f3d ce17 9a3c 60d7 21bd 2f40 763b
000000c0: 021b ba3d dc8c ddbb 0e5e f2bb 74a8 373d
000000d0: 06f6 b2bd bce0 243e c037 9abc ac84 5c3d
000000e0: c157 b23d c4aa e93d 51a5 b83d 3503 c5bd
000000f0: 3214 52bd 10bf d93d 6113 debc 7392 073e
00000100: 8772 cf3c c0ef ea3d 77e6 b2ba 4019 b83d
00000110: 9209 f33c 2b9c 70bd 4298 b53d cf61 fe3d
00000120: a12d a1bd 8d41 09bd 9043 293e 9166 aabb
00000130: ea1d a33d f807 ac3d 5190 f1bd 39fe bc3d
00000140: 33ae b0bb 18b8 0b3e 6f7d 263c 391e 5bbd
00000150: 19cf 413d af9b f93d 33f6 613d c4f6 80bd
00000160: 0c38 cbbc 73a9 a83d d4ea f13c 554b 743d
00000170: 7524 bb3d 72f1 c53d 59e2 f13d ff00 2dbc
00000180: 201b 7dbe fab8 3c3d 75e4 0e3d 4fe3 9c3c
00000190: e668 8fbc 24ee 6abd 06cf 4f3b e155 a3bd
000001a0: ba21 30bd 92e2 c53d 07d1 ef3c d5a0 7fbd
000001b0: 40f8 0f3e 5b2d f03d 1350 343d 082c 9f3d
000001c0: 9051 493e 7af7 35bb 7689 01bd 37ae 213c
000001d0: 780b fb3d 218d 653d 0480 a8bc e71c ebbc
000001e0: d734 603d 8e98 603c fbf2 2ebd b8c6 c3bd
000001f0: 74a6 83bd 0d05 7ebc 5d21 383d 5d3b 113e
00000200: 9e3d cc3d 9c97 743d 9444 a4bd 8b31 2b3e
00000210: 378e 0c3e f562 943b b6e5 c13c cd86 18bc
00000220: 4ab1 343e 5089 833d c02a f738 fb73 0a3e
00000230: 4c9d 043e 3059 003e d48a 8b3d 632e 043d
00000240: 7d57 4c3d 818b 26bd 9031 f0bb e006 75bc
00000250: eb61 103e 9066 793c 24d1 6e3d dadb 8cbd
00000260: 9a57 d2bd 8b80 2abd 0507 a1bd a6a1 8e3b
00000270: a66b a6bd acf1 523c 4a0e 2f3e 551f 3b3b
00000280: 2b61 6fbe 3856 ba3d 885b c83d 603e 8b3d
00000290: d042 4fbd 30cb 5439 2d4c e93b 2f1a 373e
000002a0: 0cb1 71bd 159f ad3d 1339 943d 8d36 cc3d
000002b0: dab5 c9bd 7d36 58bd e0bd 02be cf96 903d
000002c0: 248e c3bd 5a53 76bc 878c d23e 0e05 923d
000002d0: afdc d53c a896 273e 592c 0a3e ac35 7b3d
000002e0: ed5c 9c3d 18cf 323e 7895 6c3d f650 a6bb
000002f0: f02b f93d 04f5 7d3c 7dea c8bc bf9b 3d3e
00000300: 0153 a33d b969 41bd f289 cebd 5bd4 40bd
00000310: 0978 583d 4f91 583d bf94 103e f4e2 d93d
00000320: c67e 803d 0435 ae3d b11b 8bbd dbc2 cdbd
00000330: ae01 8d3d 06de 883d c056 ed3d 1f35 2b3b
00000340: df97 9cbc 97d8 73bc b8df 573d ec14 d93d
00000350: 71c8 e43d 5e18 db3d 50cf 55bd 7535 e6bc
00000360: f73e af3d 9b8c 9cbc 8439 d8bc 6c91 013e
00000370: 43fc 633d 16f9 35bd d8d7 0d3e 18ab a53d
00000380: a353 87be 75f7 c9bd a4af 14be 437a 8b3d
00000390: 4ba4 f3bd 8e8d c43d 22d8 a63d c8e0 0e3c
000003a0: 57e7 a8bd bab3 cbbd e10d 933d 625c cb3d
000003b0: cc80 103e cf2e 92bb 3017 833e fb66 1c3d
000003c0: 0b8d 03bf a68a a53c 175c 2cbe 449c 213e
000003d0: 7317 063e 0fc9 00bc 1569 b4bb c480 013f
000003e0: d566 cc3d 0a6a c53c 091f 843d 0cd4 1b3e
000003f0: 9cc4 833d e0be c13d 82be a8bd b962 673c
-0.023645155 -0.091255724 0.011461291 0.11577862 0.07196252 0.09895583 0.046635065 0.06341288
0.1145523 0.14032233 -0.00046544475 -0.087903515 -0.0634326 0.022689037 0.048024084 -0.10834007
0.05609263 0.04497595 0.013952255 -0.013340662 -0.021206394 -0.050702382 0.03406432 -0.044672273
0.005499543 0.018362636 -0.06405818 -0.108899556 -0.05783989 0.12355723 0.08892483 -0.008517477
-0.30256602 0.061469734 0.026313256 0.05106988 0.108334295 -0.03364729 0.105058946 0.041731585
-0.120341465 -0.04182056 0.106105655 -0.03353782 0.054603286 0.01881018 -0.03951204 0.0037574877
0.090871826 -0.0067611765 -0.007396466 0.044838384 -0.087383315 0.16101354 -0.018825412 0.053837463
0.08708144 0.11409524 0.090159066 -0.09619752 -0.05128879 0.106321454 -0.02710885 0.1323946
0.025323166 0.1147151 -0.0013649006 0.08989191 0.02966765 -0.058742683 0.088669315 0.12420999
-0.07870031 -0.03350978 0.1652968 -0.005200215 0.0796469 0.083999574 -0.11795104 0.092281766
-0.00539186 0.13644445 0.010161742 -0.05349562 0.047316644 0.121878974 0.055166434 -0.06297067
-0.024806999 0.08235445 0.02953092 0.059642155 0.09137813 0.09665193 0.118107505 -0.0105593195
-0.24717379 0.046074845 0.034885842 0.019151358 -0.017506074 -0.057356015 0.003170909 -0.079753645
-0.043000914 0.096623555 0.029274477 -0.06240924 0.14059544 0.11727401 0.044021677 0.0777207
0.1966002 -0.0027765916 -0.031625234 0.009868196 0.12258047 0.056042794 -0.020568855 -0.028700305
0.054737892 0.013708247 -0.042712193 -0.09559387 -0.06428233 -0.015504134 0.044953693 0.14182802
0.0997269 0.0597149 -0.08020893 0.16718118 0.13726126 0.004528398 0.023669105 -0.009309483
0.17645755 0.06422675 0.000117858406 0.13520806 0.12950629 0.12534022 0.06813589 0.0322708
0.049888123 -0.040660385 -0.007330127 -0.014955252 0.14099853 0.015222207 0.05830492 -0.06877871
-0.10270615 -0.041626494 -0.07862667 0.004352766 -0.08126001 0.012875002 0.17095295 0.002855261
-0.2337691 0.09098476 0.09783083 0.067990065 -0.050600827 0.00020293589 0.0071196766 0.17881082
-0.059006736 0.08477608 0.072374485 0.09971342 -0.098491386 -0.05278634 -0.12767744 0.070600145
-0.095485955 -0.015034521 0.4112284 0.0712987 0.026106207 0.16366065 0.1349348 0.061330482
0.07634912 0.17461812 0.057759732 -0.0050755693 0.121665835 0.015500311 -0.024525875 0.18516444
0.07974816 -0.047219966 -0.10084905 -0.047077518 0.05284885 0.052872952 0.14119242 0.10638991
0.0627418 0.08506206 -0.06792391 -0.10046931 0.06885086 0.066829726 0.11588812 0.0026124192
-0.019115387 -0.014883182 0.05270359 0.10599694 0.11171044 0.10698007 -0.05219966 -0.028101662
0.085569315 -0.019110015 -0.026394613 0.1265313 0.055660497 -0.044427 0.13851869 0.08089274
-0.26430997 -0.09861652 -0.14520127 0.06810429 -0.11896571 0.09597312 0.08146693 0.008720584
-0.082472496 -0.099463895 0.071803816 0.0992973 0.14111632 -0.0044611464 0.25603628 0.038184147
-0.5138709 0.020207714 -0.16832004 0.15782267 0.13094883 -0.007860436 -0.005505691 0.50587106
0.09980551 0.024098415 0.06451232 0.15217608 0.06433985 0.09460235 -0.082394615 0.014122658

fc.bias f4 [13]
00000000: 9254 6f3e 8b9e 923e 5766 c13e 12df 803e
00000010: 1075 643e eaed 043f 1bf3 5c3e 7fd5 033f
00000020: 2a39 9dbd bd08 393e 41fc ae3e deeb cb3e
00000030: 4005 ff3e
0.23372105 0.28636584 0.37773392 0.2517019 0.22310281 0.5192553 0.21577112 0.51497644
-0.07676919 0.1806974 0.3417683 0.3982839 0.49808693
