models/h6_ep30_bs128.pth (torch, 36125 bytes, 6 tensors)

net.0.weight f4 [32, 15, 3]
00000000: d645 d93d 304a 97bd d014 4dbc aee5 a2bd
00000010: 20d6 c0bb c8a3 353d 465a f0bd 4625 3abd
00000020: f2f6 16be 1373 b0be 00cf ffbb 3521 a9bd
00000030: 84b3 253d 5041 cc3d 88a8 f33c 06c4 aabe
00000040: a848 2a3d 1f87 fcbd 3b66 233e 4003 c13c
00000050: 5c63 ae3d 1daa c8be be2f 71bd 2e86 f33d
00000060: 8c23 bebe 00d2 4b3c 5061 3d3c c658 a93d
00000070: 6cb9 693d 635b 02be 4222 833e 52ff b6bd
00000080: c01c cc3b 840d babe d8d2 0fbe 702b aa3d
00000090: eb77 c83e 5b2d 003e 56a2 f73d 3581 7abd
000000a0: 830c 113e a5ad 86bd 6342 63be cc27 95bd
000000b0: d814 12bd bc37 453d 00b0 d5b8 7bf6 0b3e
000000c0: 09ff 0a3e 86f9 b5bd 60bf e1bb 14d2 ab3e
000000d0: c810 a6bc 7ee7 b73d cd22 923e f0b8 03be
000000e0: 5730 12be 2429 70bd cecc 27bd 74a3 c93d
000000f0: 8c13 3abb 60b2 8b3c be78 c13d 4689 bfbe
00000100: 202f b0bc bc18 f7bd b657 4e3e a2f5 e73d
00000110: 20cc cbbb 9372 5f3e 58e6 b63c d55b bebd
00000120: 82e2 8b3d 6077 c83d 8cc9 24bd 4df6 b23e
00000130: 326c f93d 9f16 a2bd 60d5 9c3e fa39 933d
00000140: 904d c73c 44af 06bb 3865 dcbc 805a 84ba
00000150: 1e5c 8d3e 69f3 14be fe13 e4bd bd43 963e
00000160: 31e1 d0bd 4c79 b5bd 3af8 76bd 04bd 2c3d
00000170: 149a 0f3d 23f5 093d 201f bb3c 6686 3ebd
00000180: e48f 82be f0a1 babd d3de 94bd bd48 b73e
00000190: 6035 0dbc 9ec6 a7bd 4232 11be 8075 003c
000001a0: a23f 873d 3bee 9f3e 1cc7 133d e414 a53d
000001b0: 545d 8f3e ad0a 143e c255 df3d cd65 873d
000001c0: 4a23 d13d e99a 0e3e 4317 48be 5458 b03d
000001d0: 7b6d 0b3e ff38 003e a401 ebbd 2616 d13d
000001e0: 6523 b5be 888f c03c 4069 49bb a37d eb3d
000001f0: 46a4 ba3d 4089 00bc 32c8 0fbe e837 c3bc
00000200: 7fcf f7bd 6cee a2be 46da ebbd 34d6 62bd
00000210: 953c a73d 50d6 a3bc 6651 3dbd e860 863c
00000220: 651d 0c3e c8fc 883c f0ed c23d 422f fd3d
00000230: b03c 94bc 62ed bc3e cc14 94bd 20a4 993b
00000240: 7f84 2a3d 087a b03c 1829 833d 21a0 02be
00000250: 7d54 0abe e206 bbbd 10f5 453e 7e53 b23d
00000260: d979 8abd 06d1 62be c05c a63b 3040 4c3c
00000270: 5af8 293e 3470 7fbd 4a93 5fbd 0933 a43e
00000280: 8089 133d 8ccb 8ebd d067 c4bc f207 ad3d
00000290: 1ef1 ee3d 1336 043e 6472 af3d c1af 0bbe
000002a0: bf0a a43e a3ab 0f3e 1c57 743d afb6 3dbe
000002b0: 6673 e33d e4e5 383d a947 c53e b33f 9cbd
000002c0: 1ebe de3d 0950 703e f80c 45bd 0acc 9f3d
000002d0: 689c d63c d6e9 a83d b0ff 9c3c 616e 6d3a
000002e0: 5c14 08be 821f a7bd 44ff bb3e dede fbbd
000002f0: 80d2 e4ba 8899 883d 3262 10be 8ef8 e13d
00000300: 6c4a 92be 1044 4f3d b42f f9bd f9b4 253e
00000310: 0024 e5b9 398c 183e 6c41 8abd 1875 63bd
00000320: ccf3 5fbd d61a af3d d6b4 d63d 1036 a23c
00000330: ed19 103e 0a5f 8c3d 75eb 003e 3a3b b43d
00000340: 4038 3cbd 5cac 6dbd ec63 663e 404c 53bc
00000350: 9991 113e dcb8 ad3e 5822 fbbc 9d7d 0d3e
00000360: 6c86 dcbd 4069 02bc 8052 3f3d da48 b73e
00000370: 607e 4d3d 54c8 9fbd 0894 b33d 806a 93ba
00000380: be9c f33d d620 c13d 0006 80bc d6c0 07bd
00000390: 7056 cd3d 343a 5dbd 8a5e a33d e8e7 573e
000003a0: 1052 5a3c 51ae 90bd b615 7ebe 20d3 973b
000003b0: 906c be3d 2551 863e 00bc b3bd e258 fa3d
000003c0: 0242 59be 9444 753d 60a7 c73c 14f9 e13c
000003d0: b4f6 2bbd ec7a 403d 30bb 88bd c0bd 883b
000003e0: 581d 613d 3e19 a1be 60a1 8f3d 5f6c 013e
000003f0: d460 8dbd 52be fb3d 019d 9fbd 914f f53c
0.10609023 -0.07387197 -0.012517169 -0.07953964 -0.0058849007 0.044345647 -0.11735968 -0.045445703
-0.1474264 -0.34462795 -0.0078066587 -0.08258287 0.040454403 0.09973395 0.029743448 -0.3335268
0.041573197 -0.1233046 0.15956967 0.02356112 0.08515045 -0.39192286 -0.05888342 0.11890827
-0.37136495 0.012440205 0.011558846 0.08268885 0.057061598 -0.12730174 0.25612074 -0.08935417
0.006229013 -0.36338437 -0.14045274 0.08309066 0.3915399 0.12517302 0.1209151 -0.061158378
0.14164929 -0.06576089 -0.22193293 -0.07282981 -0.03566441 0.048148856 -0.00010189414 0.13668244
0.1357385 -0.088854834 -0.0068892688 0.33558714 -0.020271674 0.089797005 0.28542176 -0.12863517
-0.14276253 -0.058632985 -0.0409668 0.09845629 -0.0028392999 0.01705283 0.09446858 -0.3740942
-0.021506846 -0.120652646 0.20150647 0.113261476 -0.006219402 0.2182105 0.022326633 -0.09294859
0.06830312 0.09788394 -0.040231273 0.34953538 0.1217884 -0.07914471 0.30631542 0.071887925
0.024328977 -0.0020551244 -0.026903734 -0.0010097772 0.27609342 -0.14545979 -0.11136626 0.29348555
-0.10199202 -0.08861026 -0.06029532 0.042172447 0.03505905 0.033681046 0.02284199 -0.04651489
-0.25500405 -0.091129184 -0.07269063 0.35797682 -0.008618683 -0.0819218 -0.14179328 0.007840514
0.06603934 0.31236443 0.036078557 0.08060625 0.2800089 0.14457197 0.10905029 0.06611214
0.10211809 0.13926281 -0.19540124 0.08610597 0.13615982 0.12521742 -0.11474922 0.102093026
-0.35378566 0.023505941 -0.00307329 0.11498573 0.09113364 -0.007845223 -0.14041212 -0.02383037
-0.121001236 -0.31822526 -0.11516242 -0.05538006 0.08165852 -0.019999653 -0.046220206 0.01640363
0.13683088 0.016722098 0.09518039 0.12362529 -0.018095344 0.3689986 -0.07230529 0.0046887547
0.041630264 0.021542564 0.064043224 -0.12756397 -0.13508792 -0.09132172 0.19331765 0.08707331
-0.06761522 -0.22150049 0.0050769746 0.012466475 0.16598645 -0.062362865 -0.054583825 0.32070187
0.036019802 -0.06972417 -0.023975283 0.08448781 0.11667083 0.12911253 0.0856674 -0.13641264
0.3203945 0.14030318 0.059653386 -0.1852672 0.11105995 0.045141116 0.38531235 -0.07629337
0.10876106 0.23468031 -0.04810807 0.07802589 0.026197627 0.08247726 0.01916489 0.000905728
-0.13289016 -0.081603065 0.3671819 -0.12298368 -0.0017457753 0.06669909 -0.14099959 0.11033736
-0.28572404 0.05060202 -0.12167302 0.16182317 -0.00043705106 0.1489724 -0.067507595 -0.05553159
-0.054675862 0.085500404 0.104837105 0.01980117 0.1407239 0.06854065 0.1258982 0.08800359
-0.04595208 -0.058025703 0.22499055 -0.012896597 0.14215697 0.339301 -0.030656025 0.13817449
-0.107678264 -0.007959664 0.046709538 0.3579777 0.05016935 -0.078018814 0.08768469 -0.001124695
0.118951306 0.09430091 -0.015627861 -0.033142887 0.10026252 -0.054010585 0.07977016 0.21084559
0.013325229 -0.07064498 -0.2481297 0.0046333224 0.092980504 0.26233783 -0.087760925 0.12223984
-0.21216586 0.059879854 0.024371803 0.02758459 -0.04198332 0.046992227 -0.06676328 0.0041730106
0.054959625 -0.3146457 0.07013202 0.12638997 -0.06903234 0.1229216 -0.07793618 0.029945167

net.0.bias f4 [32]
00000000: 88fb 0b3e 6427 ee3d 803e 513e 2f7e e63d
00000010: f488 8c3e a215 c03e 8e67 963e 69c5 9b3e
00000020: bc37 633e fb70 af3e 3403 5b3e b083 573e
00000030: 28f4 063e c3db 2b3e 1a87 c33e 07d8 a83e
00000040: b2d7 6f3e d5ef b23e 928a 423e a3e2 863e
00000050: 48eb 9f3e 1400 833e d637 5f3e 9acc 643e
00000060: 84ba 853e 9f6e e63d 3807 aa3e 8cf0 3a3e
00000070: c155 743e cc2a eb3d 39cc 8f3e d442 e33d
0.1367017 0.11628607 0.20433998 0.11254536 0.27448237 0.37516505 0.2937588 0.3042405
0.2218923 0.34265885 0.2138794 0.21046329 0.13179076 0.16783051 0.38189012 0.32977316
0.23422125 0.34948602 0.18998173 0.26344785 0.31234193 0.25585997 0.21798643 0.22343674
0.26118863 0.11251568 0.33208632 0.18255824 0.23860838 0.11482772 0.28085497 0.11096731

net.2.weight f4 [64, 32, 3]
00000000: d34c 5c3d 28e0 ecbc 3e8a 21bd 1346 09be
00000010: 386a bfbc b068 efbb 4caf 123d e0d0 22bd
00000020: 808e 3a3d 13f8 b13c 823a ab3d 9b60 59bd
00000030: 6ecd d0bd 18c5 fcbc 68d5 893c ef9f 283d
00000040: dccf 5f3d 1899 413d 8a5e 3c3d 6008 053d
00000050: ec5a 483d e49e 29bc 5398 4fbd 3e75 b03d
00000060: 861d 59bd cc4e 353d 34aa 553d 94a0 1e3d
00000070: 7a25 babd 526e aebd e738 123c 3a8b bb3d
00000080: c0c3 ad3c 760b 263c 3ee6 36bd 12ea a3bd
00000090: bc03 843d 6866 ce3c 186c cb3c 4c9c bcbd
000000a0: f63b 963d d49b aabc b664 1b3d 74be 833d
000000b0: 40ca 53bb 88ba 833c 4c14 7d3d fc92 93bc
000000c0: 2cea dabd 00de 6db9 d207 8bbd e705 97bb
000000d0: 0028 833d d360 2bbd bac1 203d 66ae 60bd
000000e0: c8e6 9cbc e4df 13bc c4bb 393d 6c4e 363d
000000f0: 92da d7bc f0c0 b3bd c4f4 c9bc 7a4e 02be
00000100: 048b 34bd 8080 f63c 84dc 9ebd 842d acbd
00000110: 506e 21bd 7c61 13bd 7f40 34bd 3096 2bbc
00000120: cbb6 0b3d c284 d03d 32cb b93d 39c3 803d
00000130: 3577 2ebd a626 15bd 89aa c2bd 9f5a 93bd
00000140: efe2 90bd d1c3 63bd 9090 793d e429 b8bd
00000150: a491 fdbd f603 c13d cc0d 10bd 9b7d 40bd
00000160: f0a3 92bb 2892 04bc e807 473d 46d4 c43d
00000170: fbf0 4ebd 9806 403d 9884 63bc 8894 453d
00000180: 2241 8cbd 8016 dfbc 94f0 94bd d92a 95bc
00000190: 6d4f 61bd 30bf df3b d520 753d 0095 a63c
000001a0: 582f a7bc 08a4 adbd 6202 bd3d 703c 6e3d
000001b0: 9f19 82bd 1443 823d 4c70 923d 0a58 13bd
000001c0: 7e17 863d 1ddb 7bbd d884 653c f8c1 803c
000001d0: 1082 7dbc 11c8 cbbd 80d8 7fbd 221e cdbd
000001e0: 7117 003d 89ba cebd a573 4fbd 28c2 2dbd
000001f0: 54c3 883d d74f bdbd a6fb 4fbd 486b d03d
00000200: 655f c2bd bab4 e3bd acc5 d2bc 60f9 8b3d
00000210: fa43 933d b6ce 8f3d 50d1 da3c 237f 1abd
00000220: 0c4c 7a3d 0c3b c63d ddf1 df3c cc11 3bbd
00000230: 70ee d4bc 2349 1bbd 8095 463d e250 8e3d
00000240: 1a1e 1abd c432 b13c 10b0 c53b ead9 4dbd
00000250: 7490 cfbd 84d5 c73d 0371 17bd 38e0 26bc
00000260: 8a9d 8f3d c403 07bc 7f73 6dbd e053 9a3c
00000270: 2753 a2bd 0d2f 40bd 3483 cd3d abc1 253d
00000280: f8eb 36bd c772 73bd cb0a 703d b276 cb3d
00000290: 883a 56bc d485 8bbd fce6 053d fb83 c1bd
000002a0: 9501 a4bc f004 133d 88c1 b93d db5b 983c
000002b0: c0b7 543d b2cd 9d3d e10f 8cbc 14c8 c7bc
000002c0: 4082 113c 0bbc 89bd ad26 66bd e897 e9bc
000002d0: d5f9 173d c86c b03d a6d6 aa3d 450c e9bd
000002e0: db45 89bd aae3 51bd 5b5f 78bb 801c f4bb
000002f0: daeb b7bd 92d6 7bbc 0e0a c23d 18aa 78bc
00000300: 2102 813e 63d1 7dbd 0495 b53c 3a1e 543e
00000310: 74bb 2a3d b0eb 54bc b67f 403e 202f 4fbc
00000320: 30b8 71bd 4f21 843e 1f16 44bd 0838 a83d
00000330: f710 923e 5cf1 26bd 089c 30bd 1729 863e
00000340: 789a 063d 6470 b0bc 7419 6f3e d05d 3a3d
00000350: 54de c6bc 971b 8e3e 6a88 c43d b025 a63c
00000360: 3b28 7c3e 0495 713d 285e c73c c0e6 853e
00000370: 2859 253d 0aa5 63bd 5051 893e 3428 c23d
00000380: 058e 84bd ec7f 8f3e 7fb0 b5bd 529b c73d
00000390: fd79 593e c680 a23d 809c 123d f09a 323e
000003a0: 6071 d73c 0065 c73d 396b 3e3e 2c54 203d
000003b0: 8b38 7abd 8912 933e c094 58bd 88a7 51bc
000003c0: 921b a13e 40dc 8d3b 1806 d6bc 1c5d 953e
000003d0: 76aa 913d 3000 3f3d 2df3 853e 64ce 33bd
000003e0: 5092 63bc 0299 333e 94a9 683d f792 cfbd
000003f0: 41b7 113e 0044 8739 e8a6 50bc 9a4b 653e
0.053784203 -0.02891548 -0.03943848 -0.13405637 -0.023366079 -0.007306181 0.035811707 -0.03974998
0.045546055 0.021724736 0.08360769 -0.053070646 -0.101954326 -0.0308557 0.016825393 0.04116815
0.05464159 0.047265142 0.045988597 0.03247869 0.048914835 -0.010352824 -0.050682377 0.08616112
-0.05300667 0.0442646 0.05216427 0.038727358 -0.09089179 -0.08517136 0.008924699 0.09157415
0.021211505 0.010134568 -0.04465317 -0.0800363 0.06446025 0.025195315 0.024831817 -0.09209499
0.073356554 -0.020826258 0.037937842 0.064328104 -0.0032316595 0.016080156 0.061786935 -0.018014424
-0.10689196 -0.00022684783 -0.06788601 -0.004608858 0.06404114 -0.041840386 0.039247252 -0.05485382
-0.019153014 -0.009025548 0.045345083 0.044508383 -0.02634934 -0.08777034 -0.024652846 -0.12725249
-0.044077888 0.03009057 -0.07756904 -0.08407119 -0.039411843 -0.03598164 -0.04400682 -0.010472819
0.03410987 0.101815715 0.090719596 0.06287236 -0.042594153 -0.03641381 -0.09505183 -0.07195019
-0.07074534 -0.055606667 0.06092888 -0.08992365 -0.12381294 0.094245836 -0.035169408 -0.046994787
-0.0044751093 -0.008091487 0.048591524 0.096108004 -0.050522786 0.04688129 -0.013886593 0.048237354
-0.068483606 -0.027232409 -0.07272449 -0.018208908 -0.055007387 0.0068282112 0.059845764 0.02033472
-0.020408317 -0.08478552 0.0922897 0.058163106 -0.06352543 0.063604504 0.07150325 -0.035972632
0.065474495 -0.06148826 0.014008723 0.015717492 -0.015472904 -0.09950269 -0.06246233 -0.10015513
0.031272355 -0.100941725 -0.050647397 -0.04242149 0.06677881 -0.09243744 -0.0507771 0.10176712
-0.09490851 -0.11118455 -0.025729023 0.06834674 0.071907 0.07021849 0.026711136 -0.037718903
0.06110768 0.09679231 0.02733701 -0.04567127 -0.025992602 -0.037911545 0.048482418 0.06949021
-0.037626363 0.021630652 0.006032951 -0.050256647 -0.10134974 0.09757522 -0.03697301 -0.010185294
0.0701247 -0.008240644 -0.057971474 0.018838823 -0.07926016 -0.04691987 0.10034791 0.0404679
-0.04465863 -0.059435632 0.058604043 0.09934749 -0.013075478 -0.06812635 0.032690987 -0.094490014
-0.020020286 0.03589338 0.09070116 0.018598488 0.05193305 0.07705249 -0.017097415 -0.024387397
0.008881152 -0.067253195 -0.056189228 -0.028514817 0.037103493 0.086144984 0.08341722 -0.11379293
-0.06702777 -0.051242508 -0.0037898633 -0.0074496865 -0.08980532 -0.015370982 0.09474574 -0.015177272
0.25196937 -0.061967265 0.022165783 0.20714656 0.041682675 -0.012995645 0.18798718 -0.012645513
-0.059013546 0.25806662 -0.04787266 0.08213812 0.28528568 -0.040757522 -0.043117553 0.26203224
0.032862157 -0.021537967 0.23349553 0.045499623 -0.024275936 0.27755424 0.095963314 0.020281643
0.24624722 0.058980003 0.02433689 0.2615261 0.04036823 -0.055577315 0.2681985 0.094803244
-0.064724006 0.28027284 -0.088715546 0.09746422 0.21237941 0.07934718 0.03579378 0.17441916
0.026299179 0.09736061 0.1859559 0.039142773 -0.06108908 0.2872508 -0.052876234 -0.01279629
0.31466347 0.0043292344 -0.026125953 0.291726 0.07112591 0.04663104 0.2616209 -0.043898
-0.013889864 0.17538837 0.056802347 -0.10135453 0.14230062 0.0002579987 -0.012735106 0.22392121

net.2.bias f4 [64]
00000000: 1d32 c0bc 28bc d0bd 24e5 033e 6d20 f93d
00000010: f5fd 6a3e 8229 f0ba e363 753e d0bb 8e3e
00000020: 8502 063e 4f5c eabb 551d 7e3e 37be 4f3e
00000030: 8120 f0bc 49f0 863e a707 6a3e b6c7 843d
00000040: bb2b 003e 169a 893e c0b3 78bd 6281 3d3d
00000050: 22a7 873e f1b9 063e cd1f b1bd 59d5 013d
00000060: 05fb 493e 28bc 893e 9885 763e a0dc 5b3e
00000070: eb5b 313e a2a5 603e 62ad 5c3e 84af 11bd
00000080: 4181 263e f98b 653e f8dd a3bc 24d8 75bd
00000090: 627a 4d3e d3d1 423e 66a5 f93d 5fb4 f4bd
000000a0: d433 173e fd80 053e 0b9a e33c 5a7c b9bd
000000b0: 6444 5a3e 4297 7d3e 90c4 023e 277b 753e
000000c0: 1aab 1a3e c221 513e 9442 2fbd ae4a 653e
000000d0: 4f98 e8bd 6594 183e b2aa 473e a94c 423e
000000e0: 61c5 6a3e 9009 8c3e 9080 d7bd 7d38 a93c
000000f0: 7979 ccbd e87e f13d 686b 833e f515 393e
-0.023461396 -0.10192138 0.12880379 0.12164388 0.2294844 -0.0018322917 0.23963885 0.27877665
0.13086899 -0.0071521173 0.24815877 0.20287405 -0.029312374 0.26355198 0.22854482 0.06483404
0.12516682 0.2687537 -0.060718298 0.046265967 0.264947 0.13156869 -0.08648644 0.031697605
0.19724663 0.26901364 0.240744 0.2147088 0.1732022 0.21938184 0.21550515 -0.035567775
0.16260244 0.22416677 -0.020003304 -0.06002058 0.20066217 0.19025354 0.121897504 -0.119484656
0.14765865 0.13037486 0.027783414 -0.09056921 0.21315151 0.24764732 0.12770295 0.2397276
0.15104333 0.20423034 -0.042788103 0.2239177 -0.113571756 0.14900358 0.19498709 0.18974556
0.22926857 0.27351046 -0.10522568 0.020656819 -0.099841066 0.117917836 0.25667882 0.18074782

fc.weight f4 [2, 64]
00000000: b2f2 2abd 3627 853d add3 cb3d 305a 463e
00000010: 0c2a 1b3d 29d2 6abd 07b8 493e 32ff a0bb
00000020: b036 7a3c ead7 863b 5447 423e ee69 9f3c
00000030: 7890 8bbd 0d9b 0e3d 2453 3ebc 9520 113d
00000040: 9a55 423e e1ce 673e 921d a9bd a3c7 be3d
00000050: f597 413e e708 283e 7849 80bd 5c4e 1d3e
00000060: deb6 3e3e 9e93 433e 69ed 3e3e ed4c d53d
00000070: b2fd 533d 3cbb b03d f5b2 0c3e daa9 fabc
00000080: 8bfa c23d 63e7 3a3e 1a06 2a3c 8ec9 afbd
00000090: de46 3e3e 73ae 603e 2016 283b 2424 dc3d
000000a0: ca39 2a3e add6 2f3e e5e4 dd3d 51f4 9b3d
000000b0: cb38 2f3e 8a07 3c3e a4cd 01be 182c 063d
000000c0: 6ff2 a93d 2cc1 023e 4993 14bd 8a9a 123d
000000d0: 02bb 153e 1e76 573e 948f 2e3b 5d3c a93d
000000e0: 7d28 573d dcfd 0f3e 3259 c33c 3167 05bd
000000f0: 4e67 54bd faaa e13c 8e12 443e 034a b63d
00000100: 776b 4b3c d2c9 c8bd 135e b03e d27d 763e
00000110: 2268 793e f651 0abd b646 623e 155e 9a3e
00000120: f45b b03e a25b 8abc d944 a83e de9a 993e
00000130: 3742 22bd 4377 8d3e e1a6 9a3e 805d aabd
00000140: bfe6 b13e 3207 8c3e 9305 b13c 2dea a5bd
00000150: 5169 ac3e 2d55 b33e 728a 95bc a658 77bd
00000160: d28b 953e bb1c 8c3e 3ebe 983e 3423 7f3e
00000170: 3167 bc3e f71d af3e 7376 5d3e 8c75 4abb
00000180: 2dd6 8b3e 66d1 a93e e2de ccbd 414b aabd
00000190: e2f0 ba3e a44a b83e 190d b63e e126 9abd
000001a0: c24b 473e 458a 913e 9821 a0bd 9d5f 3cbd
000001b0: a522 773e 2829 923e ac0b 433e 17a0 a63e
000001c0: 8467 a13e 9181 833e 27ee b0bd 40e5 a33e
000001d0: 0867 89bd cda0 ba3e 729e 873e 1db1 803e
000001e0: f474 bb3e 67d8 b03e 0251 7fbd d814 d2bc
000001f0: 888b 8dbc 9567 bf3e 2efa 753e 1e4a ab3e
-0.04173536 0.065016195 0.09952483 0.19370341 0.037881896 -0.05732933 0.19699107 -0.004913234
0.015271828 0.0041150944 0.18972522 0.01945969 -0.068146646 0.034815837 -0.011616502 0.035431463
0.18977967 0.22637512 -0.08257593 0.093154214 0.18905623 0.16409646 -0.06264013 0.15361923
0.18624446 0.1909928 0.18645252 0.10415063 0.051755615 0.08629462 0.13740142 -0.03059857
0.095204435 0.1825233 0.010377431 -0.085833654 0.18581721 0.21941547 0.0025647953 0.10749081
0.16623607 0.17171736 0.10834674 0.07614959 0.17111509 0.18362251 -0.12676102 0.032756895
0.08298194 0.12769002 -0.036273275 0.03579191 0.14622119 0.21041152 0.0026635872 0.082634665
0.052528847 0.14061683 0.023846243 -0.032569114 -0.05185633 0.027547348 0.19147703 0.08900835
0.012415758 -0.09804119 0.34446773 0.24071434 0.2435613 -0.03376957 0.22097287 0.30149904
0.34445155 -0.016889397 0.32865027 0.30000967 -0.03961393 0.27630052 0.30205444 -0.08318615
0.34746358 0.2734924 0.021609103 -0.08101306 0.336741 0.3502592 -0.018254492 -0.060387276
0.29208237 0.2736567 0.29832643 0.24915773 0.3679748 0.3420255 0.21627216 -0.0030892817
0.2731184 0.3316757 -0.10003449 -0.08315135 0.36511904 0.35994446 0.35556868 -0.07526947
0.19462493 0.28425804 -0.078189075 -0.04598962 0.2413431 0.28547025 0.19047421 0.32544014
0.3152429 0.2568479 -0.08639174 0.3201084 -0.06709105 0.36450806 0.26488072 0.25135127
0.36612666 0.34540102 -0.062333114 -0.025644705 -0.017278448 0.37383714 0.24021217 0.33454984

fc.bias f4 [2]
00000000: 7edf 0b3d 6695 853e
0.034148686 0.26090544
