models/h6_ep30_bs128.pth (torch, 38237 bytes, 6 tensors)

net.0.weight f4 [32, 13, 3]
0	0xbdf0c459	-0.117562
1	0xbdf149ce	-0.11781655
2	0x3de7de70	0.113217235
3	0xbe92a6ab	-0.28642783
4	0xbcb2a568	-0.021807387
5	0xbd733f1e	-0.059386365
6	0x3ea5ca74	0.32381022
7	0x3e11c5d0	0.14235616
8	0xbd942c70	-0.07235038
9	0x3e7ccdf1	0.24687935
10	0x3d031804	0.032005325
11	0x3e21337e	0.15742299
12	0x3e4fc847	0.20291243
13	0x3d8b9596	0.06815641
14	0xbd2997aa	-0.041404404
15	0x3e23b317	0.15986286
16	0xbdb697ba	-0.08915658
17	0x3e1925de	0.14955851
18	0x3e128ea3	0.14312224
19	0xbd255288	-0.04036191
20	0xbd6b121a	-0.05739031
21	0x3f127820	0.57214546
22	0xbd0e2704	-0.034705177
23	0xbd04b778	-0.032401532
24	0xbe09094f	-0.13382457
25	0x3d8729e6	0.06599788
26	0xbbb70280	-0.005585015
27	0xbe512725	-0.20425089
28	0xbe10f0ca	-0.14154354
29	0xbc83d050	-0.016090542
30	0x3e4e3c1c	0.20140117
31	0x3d598824	0.05310835
32	0x3d9c76da	0.07639857
33	0x3f275490	0.6536341
34	0xbcfa6d18	-0.030569598
35	0xbd9f0752	-0.07765068
36	0xbe2ee7f0	-0.17080665
37	0xbd95e338	-0.07318729
38	0xbd3af0c8	-0.045639783
39	0x3e1e2261	0.15442802
40	0x3d41b054	0.0472873
41	0xbe081ecb	-0.13292997
42	0xbeacd433	-0.33755645
43	0x3e0cbd3a	0.13744059
44	0xbe06ba2e	-0.1315696
45	0x3e6fa9a8	0.23404562
46	0x3de6ffc0	0.11279249
47	0xbca77150	-0.020439774
48	0x3ed64524	0.41849625
49	0x3dc06ee0	0.09396148
50	0xbd942054	-0.072327286
51	0x3efcff4a	0.4941352
52	0xbda36504	-0.079782516
53	0xbcfb07a0	-0.030643284
54	0xbea9dd66	-0.33176726
55	0x3c1b7530	0.009488389
56	0xbe1bf9ea	-0.15232053
57	0xbf9173cb	-1.1363462
58	0xbde981c5	-0.11401705
59	0xbdfc068e	-0.12305938
60	0xbf332316	-0.6997541
61	0x3da3fe82	0.08007528
62	0xbdcfbe8a	-0.10143764
63	0xbd8ab5eb	-0.06772979
64	0x3dfde884	0.123978645
65	0xbddf8092	-0.10913195
66	0xbe013371	-0.1261728
67	0x3dad8926	0.084734246
68	0x3de9f4c0	0.114236355
69	0xbd777790	-0.060416758
70	0x3d1ff2a0	0.039049745
71	0xbce6dd40	-0.028181672
72	0x3e9a829d	0.30177775
73	0xbda0f675	-0.07859508
74	0x3d68c860	0.056831717
75	0x3d96587a	0.07341094
76	0x3b4bb300	0.0031082034
77	0xbd146166	-0.0362257
78	0x3e4356c1	0.19076063
79	0xbdd6f666	-0.104962155
80	0xbe0453e9	-0.12922634
81	0x3cbb2d52	0.022848759
82	0x3e12832e	0.14307854
83	0x3d94bd16	0.07262628
84	0x3ed94ab0	0.42439795
85	0xbd88246e	-0.066475734
86	0xbe1f3126	-0.15546092
87	0xbdb76d6e	-0.08956419
88	0xbd6ba724	-0.057532445
89	0xbdadd1cd	-0.08487282
90	0xbda47266	-0.08029632
91	0xbe083035	-0.1329964
92	0xbdc1fc8b	-0.09471997
93	0x3bdf521d	0.0068152086
94	0xbddf0063	-0.10888746
95	0x3dbc8d68	0.092066586
96	0x3db8e7a7	0.09028559
97	0xbde34364	-0.11096838
98	0x3d56b60c	0.052419707
99	0x3f6f112c	0.9338558
100	0xbe1dd6ae	-0.15413925
101	0x3d9ea73e	0.07746743
102	0xbddba967	-0.1072567
103	0xbd569b96	-0.052394472
104	0xbd1d1744	-0.038352266
105	0xbf8eeb8a	-1.1165631
106	0xbe1a1152	-0.1504567
107	0x3c42cbd0	0.011889413
108	0x3edef56d	0.4354662
109	0x3d2d53c0	0.0423162
110	0xbd981b95	-0.07427136
111	0xbe58019c	-0.21094364
112	0xbe1678af	-0.14694475
113	0x3c101a10	0.008795276
114	0x3f1f08ae	0.6212262
115	0xbd55458e	-0.052068286
116	0xbccd1568	-0.025034621
117	0x3d7cd474	0.06172605
118	0x3d5d05c4	0.053960577
119	0xbe007894	-0.12545997
120	0xbdfe46e8	-0.12415868
121	0xbe191737	-0.14950262
122	0x3ca19550	0.019724518
123	0x3e9a656c	0.30155504
124	0xbe096eb1	-0.13421132
125	0xbda84853	-0.0821692
126	0x3db05fbd	0.08612011
127	0xbc898348	-0.016786233
128	0xbdbe2d7b	-0.092860185
129	0x3e820068	0.25390935
130	0x3dfa5ae4	0.12224367
131	0x3e188a58	0.14896524
132	0xbd0eb995	-0.034844954
133	0xbceaa370	-0.028642386
134	0xbd7a6e30	-0.06114024
135	0xbf917b67	-1.1365784
136	0x3dbe3470	0.092873454
137	0xbdef3897	-0.116807155
138	0xbf9dd0e2	-1.2329371
139	0xbe23e2ec	-0.16004533
140	0xbdb20624	-0.086925775
141	0x3d0d190c	0.034447715
142	0x3ca50460	0.020143688
143	0xbdd7edd6	-0.105434105
144	0xbf17a73a	-0.5923954
145	0xbdcfd5e9	-0.10148222
146	0x3d9b3780	0.07578945
147	0x3f50387e	0.813362
148	0x3d955516	0.072916195
149	0xbe0a4665	-0.13503416
150	0xbe4cbeac	-0.1999461
151	0x3db5938a	0.088660315
152	0xbe0ec6de	-0.1394305
153	0xbec00bf5	-0.37509122
154	0xbe1f9455	-0.15583928
155	0xbd55aaf4	-0.052164987
156	0x3e934bee	0.28768867
157	0xbd692b4a	-0.05692605
158	0xbc786c40	-0.015162528
159	0x3d96f5bf	0.07371091
160	0x3dbd4560	0.09241748
161	0xbe1bbfc0	-0.15209866
162	0xbed7d594	-0.42155135
163	0xbcae34f8	-0.021265492
164	0xbe1f6a18	-0.15567815
165	0x3ef883e5	0.48538128
166	0xbdb97611	-0.090557225
167	0x3d91fa38	0.071278036
168	0x3ecbd9d4	0.39814627
169	0x3d74ba3c	0.05974792
170	0x3e1d0dea	0.15337339
171	0xbd33b16a	-0.043870367
172	0x3db13b5a	0.086538985
173	0xbdb5072b	-0.08839258
174	0x3de13db3	0.10998096
175	0x3e0416e0	0.12899351
176	0xbdac357e	-0.0840864
177	0x3f4a3d5a	0.78999865
178	0x3d986c4e	0.074425325
179	0xbd670496	-0.056400858
180	0xbb2469c0	-0.0025087446
181	0x3d60ccec	0.05488293
182	0xbddc69de	-0.1076238
183	0x3f74dd44	0.95650125
184	0x3dbf05e4	0.093272954
185	0x3d9652a2	0.0733998
186	0x3e16587f	0.14682196
187	0x3d90d4d0	0.07071841
188	0xbda5b7b1	-0.08091677
189	0xbdc42a94	-0.09578434
190	0xbe0f5c93	-0.14000158
191	0xbbf91500	-0.0076013803
192	0x3eb3cc22	0.35116678
193	0xbdd1f87a	-0.10252471
194	0xbc104460	-0.008805364
195	0x3e5eff98	0.21777189
196	0x3df52030	0.1196903
197	0xbd6f8a8e	-0.058481745
198	0x3de067bb	0.10957285
199	0x3dad9596	0.08475797
200	0x3da1b978	0.078967035
201	0x3efcf029	0.49401978
202	0x3c30ff00	0.010802984
203	0xbcb3f710	-0.021968395
204	0x3e7c80e2	0.2465854
205	0x3da20194	0.07910457
206	0xbd3fdab0	-0.046839416
207	0x3eb43ff4	0.35205042
208	0x3d392488	0.045200855
209	0xbd0438d0	-0.032280743
210	0xbe713556	-0.23555502
211	0x3d6fcbac	0.058543846
212	0xbd481f76	-0.04885813
213	0x3d533a42	0.05156923
214	0x3da75b3a	0.08171697
215	0xbe02366e	-0.12716076
216	0x3f69a402	0.9126588
217	0x3a7fcd00	0.00097580254
218	0xbddf1644	-0.10892919
219	0xbddb6cdd	-0.107141234
220	0x3dccb728	0.09995872
221	0x3dc3c3d8	0.095588386
222	0xbf88fc5e	-1.0702016
223	0xbe14a200	-0.14514923
224	0x3e03be26	0.12865505
225	0x3f10b390	0.5652399
226	0x3c75eed0	0.015010551
227	0xbd3394c6	-0.043843053
228	0xbec45866	-0.38348693
229	0x3df9d540	0.12198877
230	0xbd056fd8	-0.032577366
231	0x3f13c8ea	0.57728446
232	0x3d7b23d8	0.06131348
233	0x3d1f3ca8	0.038876206
234	0x3ecbee8f	0.39830443
235	0xbd72446e	-0.05914729
236	0x3db549f8	0.08851999
237	0xbd3c71b2	-0.046006866
238	0xbe1a1980	-0.1504879
239	0xbc963f80	-0.018340826
240	0x3ba08a58	0.0048993044
241	0x3d44034c	0.047854707
242	0xbdda46fa	-0.10658069
243	0xbe4815c0	-0.19539547
244	0x3e0b65cc	0.13613051
245	0xbd93d730	-0.07218778
246	0xbea82ecb	-0.328482
247	0x3d6d8754	0.057990387
248	0x3e0a3688	0.13497365
249	0x3e89c9b3	0.26911697
250	0xbcce28a0	-0.025165856
251	0x3e0e76f2	0.13912562
252	0xbf91ad97	-1.13811
253	0xbe22a1ab	-0.15881984
254	0xbdd5bbb2	-0.10436191
255	0xbfa9d3e9	-1.3267795

net.0.bias f4 [32]
0	0x3f73993d	0.951557
1	0x3f8677ac	1.0505271
2	0x3f88b866	1.0681274
3	0x3f59d416	0.8508924
4	0x3f983ffb	1.1894525
5	0x3f864fd4	1.0493112
6	0x3f8555c2	1.0416796
7	0x3f6e0ac7	0.92985195
8	0x3f6f210d	0.93409806
9	0x3f835d46	1.026284
10	0x3f7ea103	0.99464434
11	0x3f5efbaa	0.8710276
12	0x3fa0ce54	1.2562966
13	0x3f753fc3	0.9580042
14	0x3f739e2a	0.95163214
15	0x3f95ad9e	1.1693609
16	0x3f53e93f	0.8277778
17	0x3f8d53a5	1.1041151
18	0x3f93a643	1.1535114
19	0x3f80f7de	1.0075643
20	0x3f964bce	1.1741884
21	0x3f97aa82	1.184891
22	0x3f8085bb	1.0040811
23	0x3f955239	1.1665717
24	0x3f7d7ba2	0.99016774
25	0x3f6bdb56	0.92131555
26	0x3f8342e1	1.0254785
27	0x3f68c74b	0.90929097
28	0x3fa00351	1.2501012
29	0x3f6c416d	0.9228733
30	0x3f76e0a4	0.96436524
31	0x3f8aed08	1.0853586

net.2.weight f4 [64, 32, 3]
0	0x3f293869	0.661017
1	0xbd4ff6c8	-0.05077246
2	0x3c263278	0.010143869
3	0x3f0e0ced	0.55488473
4	0xbd91558d	-0.07096396
5	0xbd388346	-0.045047067
6	0x3f4afa4a	0.7928816
7	0x3db2b7bc	0.08726451
8	0x3bd16a70	0.006390862
9	0x3f3b9bd1	0.7328463
10	0xbd0dd4a6	-0.034626625
11	0x3da87382	0.08225156
12	0x3f2704ab	0.652415
13	0xbd2b4082	-0.041809566
14	0xbd687fdf	-0.056762572
15	0x3f4871c2	0.7829858
16	0xbda59c89	-0.08086497
17	0xbd142358	-0.03616652
18	0x3f2370d7	0.63844055
19	0x3d8463f6	0.064643785
20	0xbcccad38	-0.02498494
21	0x3f2f76a2	0.68540394
22	0x3d96bf3a	0.07360692
23	0xbdb0d8c2	-0.08635093
24	0x3eb7e288	0.35915017
25	0xbcede8a8	-0.029041603
26	0x3b4f2040	0.0031604916
27	0x3f241d1f	0.64106935
28	0xbd8a196a	-0.067431286
29	0x3dcb019a	0.09912415
30	0x3f1642a1	0.5869542
31	0x3cfa6e08	0.030570045
32	0xbcf0d0e4	-0.029396482
33	0x3ee64556	0.44974774
34	0x3d91b25c	0.071140975
35	0xbcd7da30	-0.026349157
36	0x3f0ec1e4	0.55764604
37	0x3cd73950	0.026272446
38	0xbd3118de	-0.043236606
39	0x3f072a7c	0.527992
40	0x3dd0f1d6	0.102023765
41	0x3cfd57a0	0.030925572
42	0x3f187157	0.5954794
43	0xbd8d925a	-0.0691268
44	0x3d9f569e	0.07780193
45	0x3f162e0f	0.5866403
46	0xbd9135fb	-0.07090374
47	0xbd00be10	-0.031431258
48	0x3f09a9fb	0.53774995
49	0xbdaf5fac	-0.0856317
50	0x3c840bec	0.016118966
51	0x3f377226	0.7165855
52	0x3c78b008	0.015178688
53	0xbcadd428	-0.021219328
54	0x3f000814	0.50012326
55	0x3dc758a8	0.09733707
56	0xbd0f4c46	-0.03498485
57	0x3f5fe6b0	0.87461376
58	0xbda81aa6	-0.08208208
59	0x3d601d50	0.054715455
60	0x3f29ca89	0.6632467
61	0x3dba2222	0.090885416
62	0xbd68e014	-0.056854323
63	0x3f3d7136	0.7400087
64	0x3d7131b0	0.058885276
65	0x3cfe4ae8	0.031041577
66	0x3f16b8cb	0.5887572
67	0x3d8fe80a	0.0702668
68	0xbd8c916e	-0.06863676
69	0x3f018402	0.5059205
70	0x3db86cb2	0.09005107
71	0xbdb6b8e6	-0.08921985
72	0x3f13443b	0.57525986
73	0x3d8b540a	0.068031386
74	0xbbec3050	-0.0072079077
75	0x3f087a0c	0.5331123
76	0xbd925ab0	-0.071462035
77	0xbd1eb1c6	-0.038743757
78	0x3efac370	0.48977232
79	0x3d8e2ffa	0.069427446
80	0x3db7cda0	0.08974767
81	0x3f182428	0.5943017
82	0x3d8a50b8	0.06753677
83	0x3b9d0160	0.0047914237
84	0x3f4cd9e4	0.80019975
85	0x3dc0147e	0.093789086
86	0x3d4a1cbc	0.04934381
87	0x3f0c8a16	0.548982
88	0xbdb98735	-0.09058992
89	0xbd950b69	-0.07277567
90	0x3edf0811	0.43560842
91	0x3daadd7a	0.083430246
92	0x3dc2787e	0.09495638
93	0x3f144d0c	0.57930064
94	0x3d8a0da0	0.0674088
95	0x3c76d880	0.015066266
96	0x3f2de02c	0.67920184
97	0x3da601c8	0.081058085
98	0x3d9d1eb8	0.07671875
99	0x3f29e9ea	0.6637255
100	0xbd11f6da	-0.035635807
101	0x3ce41f98	0.027847096
102	0x3f24d571	0.64388186
103	0xbd966894	-0.073441654
104	0x3d737ccc	0.059445187
105	0x3f398351	0.72466
106	0xbd44d090	-0.048050463
107	0x3da06988	0.078326285
108	0x3ef8b9b9	0.48579195
109	0x3d92b1f6	0.071628496
110	0xbda5d005	-0.08096317
111	0x3f2506ec	0.64463687
112	0xbdb00dc5	-0.08596376
113	0x3d869e02	0.06573106
114	0x3f3c4b83	0.7355272
115	0xbdcc2ac3	-0.09969094
116	0xbd95d836	-0.073166296
117	0x3f1a13e1	0.6018658
118	0xbd99d561	-0.07511402
119	0x3dbddcc6	0.09270625
120	0x3f0d1725	0.5511344
121	0xbd0f1f1c	-0.034941778
122	0x3db4a5de	0.08820699
123	0x3f2c14f0	0.6721945
124	0xbd2a41a3	-0.041566502
125	0x3d00aa04	0.03141214
126	0x3f464876	0.77454317
127	0xbcdbb1b0	-0.026818126
128	0xbcb67a94	-0.022275247
129	0x3ef4a63d	0.4778308
130	0x3dc4d850	0.09611571
131	0xbdc6ea68	-0.09712678
132	0x3f442d9a	0.7663208
133	0x3c97e148	0.01854004
134	0x3dc48d9c	0.09597322
135	0x3f21e501	0.6324006
136	0xbdaf2fe6	-0.08554058
137	0xbd7d0887	-0.06177571
138	0x3edf858d	0.4365658
139	0xbbcef5f0	-0.006315939
140	0xbcc23d54	-0.023710884
141	0x3f1c8b72	0.61150277
142	0xbd831d9e	-0.064021334
143	0x3d933868	0.07188493
144	0x3f2b1b68	0.66838694
145	0xbca6f3b8	-0.020379886
146	0x3d9d105c	0.07669136
147	0x3f2f287e	0.6842116
148	0x3d09cf48	0.033644944
149	0xbca42c10	-0.020040542
150	0x3f2b8eab	0.6701457
151	0x3dc2402e	0.094848976
152	0xbda1332b	-0.07871088
153	0x3f432c03	0.7623903
154	0x3b893610	0.004187353
155	0xbd380847	-0.04492977
156	0x3f14549f	0.5794162
157	0xbd8d6002	-0.06903078
158	0x3d9160ce	0.07098542
159	0x3f391969	0.723044
160	0x3d08bb5c	0.033381805
161	0x3d10c9e4	0.035348788
162	0x3f1bde6f	0.6088628
163	0x3dac0ea4	0.0840123
164	0xbd8b0ff0	-0.06790149
165	0x3f1085d2	0.56454194
166	0x3ca7c478	0.020479426
167	0x3bc97290	0.00614769
168	0x3f118646	0.5684551
169	0xbd5e50fe	-0.05427646
170	0xbd65cc71	-0.056103174
171	0x3edaa390	0.42702913
172	0x3b6dcb80	0.0036284626
173	0xbd91aec0	-0.07113409
174	0x3f26eab5	0.65201885
175	0xbcf1444c	-0.029451512
176	0x3d7451e8	0.059648424
177	0x3f14f39b	0.5818421
178	0x3d8246d4	0.06361166
179	0xbb9bd3c0	-0.004755467
180	0x3f29f638	0.66391325
181	0x3d67d1a8	0.05659643
182	0x3dabb84c	0.08384761
183	0x3f2e3733	0.6805298
184	0x3d086bbc	0.03330587
185	0xbcba7794	-0.022762097
186	0x3ed58b38	0.41707778
187	0x3d997fc8	0.074950755
188	0xbd01dcb8	-0.031704634
189	0x3f134af4	0.57536244
190	0xbd8fec56	-0.070274994
191	0xbc183768	-0.009290554
192	0x3f19c8b5	0.6007188
193	0x3dc7d508	0.09757429
194	0x3d9ab794	0.07554546
195	0x3f337808	0.7010503
196	0xbdbeb79c	-0.093123645
197	0xbc779ed0	-0.015113547
198	0x3f429085	0.7600177
199	0xbd90684b	-0.07051142
200	0x3da107ee	0.078628406
201	0x3f4eb99b	0.8075196
202	0xbc80aa58	-0.015706226
203	0xbda93c1f	-0.0826342
204	0x3f23f3e7	0.6404404
205	0xbcf8c0a8	-0.030365303
206	0xbd8ef3ef	-0.069801204
207	0x3f2c5b92	0.67327225
208	0xbc44ec70	-0.012019262
209	0x3d178634	0.03699322
210	0x3f419483	0.75617236
211	0xbcd1cf6c	-0.025611602
212	0xbd02714c	-0.03184633
213	0x3f237267	0.6384644
214	0xbd5a7123	-0.05333055
215	0x3d9f859e	0.07789157
216	0x3f20325a	0.6257683
217	0x3db791fa	0.0896339
218	0x3d9c2f12	0.076261654
219	0x3f129183	0.57253283
220	0x3cfdc3e8	0.030977204
221	0xbd8e58de	-0.06950544
222	0x3f4add49	0.79243904
223	0x3c109358	0.008824192
224	0xbd257f45	-0.040404577
225	0x3ef7e102	0.48413855
226	0xbcec9ce4	-0.028883405
227	0x3ca5c6b8	0.020236358
228	0x3f371532	0.71516716
229	0xbd5fbfca	-0.054626264
230	0xbcfb0bc8	-0.030645266
231	0x3f3ce233	0.7378265
232	0xbda14f82	-0.07876493
233	0xbd568b78	-0.0523791
234	0x3eed78f0	0.4638133
235	0xbbfc6320	-0.0077022463
236	0x3c432fa8	0.011913218
237	0x3f18f8a4	0.59754395
238	0x3cac9f88	0.021072164
239	0x3d168940	0.036751986
240	0x3f2bdd9e	0.67135036
241	0x3ca95978	0.020672545
242	0xbcf19238	-0.029488668
243	0x3f286d7b	0.65792054
244	0x3ca1d83c	0.019756429
245	0x3d4a3f48	0.049376756
246	0x3f02693b	0.5094182
247	0x3d7d9104	0.061905876
248	0xbcca5f8c	-0.024703763
249	0x3f7777b7	0.96667045
250	0x3cb288b8	0.021793708
251	0x3d3e2214	0.04641922
252	0x3f322049	0.69580513
253	0xbb9bf9a0	-0.004759982
254	0xbba69d10	-0.0050846413
255	0x3f521b2f	0.8207273

net.2.bias f4 [64]
0	0x3f3ad3a3	0.7297918
1	0x3f3cbb23	0.7372305
2	0x3f356480	0.70856476
3	0xbdb2f4d9	-0.08738107
4	0x3f2485e4	0.642668
5	0x3f4db402	0.80352795
6	0x3f37ee2c	0.71847796
7	0xbc97f6aa	-0.018550236
8	0x3f2a961f	0.66635317
9	0x3f2f8505	0.68562347
10	0x3c36a468	0.011147596
11	0x3f4ee575	0.80818874
12	0x3f4ef5b1	0.80843645
13	0x3f3800ef	0.71876425
14	0x3f32c01a	0.69824374
15	0x3f42ddbe	0.761196
16	0xbda02482	-0.07819463
17	0x3f37ab91	0.71746165
18	0x3f41bedd	0.7568186
19	0x3f28d928	0.65956354
20	0x3d064127	0.032776978
21	0x3f31a0b2	0.69385827
22	0x3f53fce4	0.82807755
23	0x3ccc894e	0.024967816
24	0xbd3e7dd3	-0.046506714
25	0x3f5770b4	0.84156346
26	0x3f218094	0.6308682
27	0x3b65819c	0.003501988
28	0x3f4606fa	0.77354395
29	0x3f3abdbc	0.7294576
30	0x3f470b5e	0.7775172
31	0x3f36c0d9	0.7138801
32	0x3f3f4b1c	0.7472398
33	0x3f4b605f	0.79443926
34	0x3f3531b1	0.7077895
35	0x3f512fb3	0.8171341
36	0x3f1a8851	0.6036425
37	0xbe9733aa	-0.29531604
38	0x3f1bbb52	0.60832703
39	0x3f4728ca	0.77796614
40	0xbd89f6ab	-0.06736501
41	0x3f30414c	0.68849635
42	0xbd3af2b4	-0.045641616
43	0x3f3684b9	0.7129627
44	0x3f4c20a6	0.7973732
45	0x3f3828d2	0.71937287
46	0x3f206788	0.62657976
47	0x3f397843	0.7244913
48	0xbd395b36	-0.045253
49	0x3f52f684	0.82407403
50	0xbd849473	-0.06473627
51	0x3f254f79	0.6457439
52	0xbd82af9a	-0.063811496
53	0x3f215beb	0.6303088
54	0xbdf07031	-0.11740149
55	0x3f305ab6	0.68888414
56	0xbda42e3b	-0.0801663
57	0xbe23acab	-0.15983836
58	0xbc6482c2	-0.013947191
59	0x3f437bb0	0.7636061
60	0x3f29849c	0.6621797
61	0xbd850312	-0.06494726
62	0x3f3230ee	0.6960591
63	0x3f2eef09	0.6833349

fc.weight f4 [13, 64]
0	0xbdd6f507	-0.10495954
1	0xbd712c87	-0.058880355
2	0xbd46a203	-0.04849435
3	0xbdcdc200	-0.10046768
4	0xbd685f26	-0.056731366
5	0x3d828d68	0.06374627
6	0xbd4fee3a	-0.0507643
7	0xbdb71a27	-0.08940535
8	0x3d8402b8	0.06445831
9	0x3db29ff0	0.08721912
10	0xbda6f1f9	-0.08151621
11	0xbdc3f4cc	-0.09568176
12	0x3dcfb0da	0.10141154
13	0x3c202065	0.009773348
14	0xbdb46d21	-0.08809877
15	0x3e092ae8	0.13395274
16	0x3de6aa41	0.11262942
17	0x3da6cd1d	0.08144591
18	0xbd471491	-0.048603598
19	0x3e08327c	0.13300508
20	0x3d2acd06	0.04169943
21	0x3c9c1f40	0.01905787
22	0xbad39e61	-0.0016145223
23	0xbd579c64	-0.05263938
24	0xbdb931ef	-0.09042727
25	0x3d9bf20b	0.076145254
26	0x3bf2bbaa	0.007407625
27	0x3e0bbf45	0.13647182
28	0x3e08603e	0.13317963
29	0x3e199267	0.14997254
30	0x3d8fe5ca	0.07026251
31	0x3ca7727a	0.020440329
32	0x3d381bd1	0.044948403
33	0x3d57e90c	0.052712485
34	0x3db459f3	0.08806219
35	0x3da29506	0.0793858
36	0xbc13d17a	-0.009022111
37	0xbd79f1e8	-0.061021715
38	0xbcfe6201	-0.031052591
39	0x3c79233d	0.015206155
40	0x3c9f815d	0.019470865
41	0xbd86cde0	-0.06582236
42	0xb930ab01	-0.00016848372
43	0x3d7d165f	0.061788913
44	0x3caba143	0.020950919
45	0xbb59cf30	-0.0033235066
46	0xbc5ce32f	-0.013481899
47	0xbd4434e1	-0.04790199
48	0xbd9cc6d0	-0.07655108
49	0x3e31bff2	0.17358378
50	0xbda4da82	-0.080494896
51	0x3c55434a	0.013016531
52	0x3dde012c	0.10840067
53	0xbdc79823	-0.09745815
54	0x3d9735f0	0.07383335
55	0xbcb06248	-0.02153124
56	0xbd41ae07	-0.047285106
57	0xbd0c4960	-0.034249663
58	0x3ddb3c05	0.10704807
59	0xbe215833	-0.15756302
60	0xbd754559	-0.05988059
61	0xba5de3d3	-0.00084644294
62	0x3e2214ec	0.15828294
63	0x3d99b353	0.075049065
64	0xbbcf6472	-0.0063291127
65	0xbb8eb07e	-0.0043545356
66	0x3d58d3b5	0.052936275
67	0xbd9ea46d	-0.077462055
68	0x3d19f1a6	0.03758397
69	0xbd4c9a39	-0.049951766
70	0x3ae54163	0.00174908
71	0x3b824a1e	0.0039761206
72	0x3d050d94	0.032483652
73	0x3dc110b0	0.09427011
74	0x3b282a83	0.0025660105
75	0xba908074	-0.001102461
76	0xbd616932	-0.055031963
77	0xbdb79bce	-0.08965264
78	0x3dd8494a	0.10560854
79	0x3e0f49ae	0.1399295
80	0xbce556f1	-0.027995558
81	0x3dd5200f	0.10406505
82	0x3cc02431	0.023454757
83	0xbcb2d30c	-0.02182915
84	0x3deec32d	0.116583206
85	0x3be741a6	0.0070573865
86	0xbdde119b	-0.10843202
87	0x3cb5b401	0.02218056
88	0x3d94f7da	0.072738364
89	0x3e268afe	0.16263959
90	0x3dc1e4ae	0.09467445
91	0x3d1d40a6	0.03839173
92	0x3d25ab93	0.04044683
93	0x3da47641	0.08030368
94	0xbda07da2	-0.078364626
95	0x3e44e1a3	0.19226699
96	0xbda17182	-0.07882978
97	0x3d371345	0.04469611
98	0xbd7d5102	-0.061844833
99	0xbd1ef68f	-0.038809355
100	0x3dd25a8f	0.10271179
101	0xbe2b095a	-0.16702786
102	0xbd848306	-0.06470303
103	0x3de27503	0.110574745
104	0xbd46d45e	-0.048542373
105	0xbc96cba2	-0.018407647
106	0x3e0d0315	0.13770707
107	0xbb9d0d8d	-0.004792875
108	0xbd57955d	-0.05263268
109	0x3d9bb2c2	0.07602455
110	0x3df94fc6	0.12173419
111	0xbd2c8720	-0.042121053
112	0x3cc2e727	0.023791863
113	0x3b1ce6cf	0.0023941284
114	0x3cd321b2	0.025772903
115	0x3ce91714	0.028453387
116	0x3e0bc5e5	0.1364971
117	0x3d6eeacc	0.05832939
118	0x3c88be37	0.016692264
119	0x3d1da999	0.03849182
120	0x3deebb94	0.116568714
121	0xbd6073e6	-0.05479803
122	0x3d2ceb71	0.042216722
123	0xbdb22d5d	-0.087000586
124	0x3da82411	0.08210004
125	0x3d22847a	0.03967712
126	0x3dcbd3cd	0.09952507
127	0xbd69446b	-0.056950014
128	0x3dd2b4bf	0.10288381
129	0x3d07a406	0.03311541
130	0x3dbfc643	0.09363987
131	0x3dffcf21	0.124906786
132	0x3d5d695e	0.054055564
133	0x3d5942f7	0.05304238
134	0xbe14c3f5	-0.14527877
135	0x3d8d5ba2	0.06902243
136	0x3d6202af	0.05517834
137	0x3dbf477f	0.09339809
138	0x3db0b780	0.0862875
139	0x3ab0717a	0.0013461553
140	0x3e106c24	0.14103752
141	0xbcd923ae	-0.026506271
142	0x3e0a1a5f	0.13486622
143	0x3d1ad3ae	0.03779953
144	0x3d1db1ba	0.03849957
145	0x3c90d775	0.017680863
146	0xbd1b4009	-0.037902866
147	0x3e2fb7e3	0.17159991
148	0x3bb7f59f	0.005613997
149	0xbb8bb772	-0.0042638117
150	0x3db3cd51	0.08779395
151	0x3c0e2eb7	0.00867813
152	0x3dcb75ba	0.09934564
153	0x3e2e6f77	0.17034708
154	0xbc955cb1	-0.018232675
155	0x3d93faa6	0.07225542
156	0x3dccd73b	0.100019895
157	0x3db1226c	0.086491436
158	0x3dfb0067	0.12255936
159	0xbc763e33	-0.015029478
160	0x3d87c584	0.0662947
161	0x3e25dad8	0.16196764
162	0xbcd5a828	-0.02608116
163	0x3e158a8a	0.1460363
164	0x3d863af2	0.06554212
165	0xbf35ea6f	-0.7106084
166	0xbd570813	-0.052497935
167	0x3d0f5691	0.034994666
168	0xbd8da5d0	-0.06916392
169	0x3dd7643d	0.10517166
170	0x3e05b832	0.13058546
171	0x3dc010c0	0.09378195
172	0xbc8c179b	-0.0171011
173	0x3da9ecf9	0.08297152
174	0xbc350fe5	-0.011051153
175	0xbcf8c648	-0.030367985
176	0x3d68df82	0.05685378
177	0x3deb9aeb	0.11504158
178	0xbdc61bfc	-0.09673306
179	0x3e349f24	0.17638832
180	0x3c75c177	0.014999739
181	0x3d6d4b5f	0.057933208
182	0xbc3bd8a3	-0.011465224
183	0x3d81e358	0.063421905
184	0x3dece56c	0.11567196
185	0xbe17a9be	-0.14810845
186	0x3d8bcc43	0.06826069
187	0x3c9cebef	0.01915547
188	0x3d0ee544	0.034886613
189	0xbd46e4ed	-0.048558164
190	0x3e3181fc	0.17334741
191	0x3c7eb73f	0.015546619
192	0x3d195127	0.03743091
193	0xbd64aa70	-0.055826604
194	0x3c5280b7	0.012848071
195	0xbd7cbb10	-0.061701834
196	0x3dab4f8d	0.083647825
197	0x3e331712	0.1748927
198	0xbe30acc4	-0.17253405
199	0xbce9b0e2	-0.028526727
200	0x3d8c56a6	0.068524644
201	0xbc7f6302	-0.01558757
202	0xbdbc9be2	-0.0920942
203	0xbdb72ed2	-0.08944477
204	0x3db2e9d9	0.08736009
205	0x3d11fb16	0.035639845
206	0x3d785a2c	0.06063287
207	0xbd6838cb	-0.056694787
208	0x3d83deb8	0.064389646
209	0x3ceccc20	0.028905928
210	0x3e1d746d	0.15376444
211	0x3d1ed163	0.038773905
212	0xbd0d7ac9	-0.034540925
213	0x3bb24fcd	0.005441642
214	0x3e01f34b	0.12690465
215	0x3dfd0b08	0.1235562
216	0xbd694025	-0.05694594
217	0x3cdb07e1	0.026737155
218	0xbc7e511c	-0.015522268
219	0xbdad7cd7	-0.08471077
220	0x3db9c874	0.090714365
221	0xbcb9b63d	-0.022669906
222	0x3deb5fdd	0.11492894
223	0xbd13a176	-0.036042653
224	0xbd9c9e54	-0.07647386
225	0xbdbf6528	-0.09345466
226	0xbcf74865	-0.030185888
227	0xbda61293	-0.081090115
228	0x3db3e37a	0.08783622
229	0xbf657114	-0.8962567
230	0xbd5b9e63	-0.053617846
231	0x3c5f8ed3	0.013644892
232	0x3d30053c	0.042973742
233	0x3d4e5c1b	0.050380807
234	0xbda01a8c	-0.078175634
235	0x3e0fe1b5	0.14050944
236	0xbe33759b	-0.17525332
237	0xbddc8c94	-0.10769001
238	0xbd40afce	-0.04704266
239	0x3d25b64c	0.040457055
240	0xbd4e8964	-0.050423995
241	0x3e0cee4c	0.13762778
242	0x3db2e2ea	0.08734687
243	0x3e283e08	0.16429913
244	0x3dd2c8ed	0.1029223
245	0xbd218d76	-0.03944155
246	0xbc01bd8f	-0.007918729
247	0x3db534e6	0.0884798
248	0x3d9c5ba9	0.0763467
249	0x3e237a81	0.159647
250	0x3d66a2d6	0.056307636
251	0xbe1dd273	-0.15412311
252	0x3dc11680	0.0942812
253	0xbd2ec990	-0.042672694
254	0x3d058cde	0.032605045
255	0xbdfdd037	-0.123932295

fc.bias f4 [13]
0	0x3e4b24f1	0.19838311
1	0x3eccf628	0.40031552
2	0x3e6ed137	0.23321997
3	0x3eac11ba	0.33607274
4	0x3e8cb3ad	0.27480832
5	0x3f00b399	0.50274044
6	0x3e3a0ad9	0.181682
7	0x3eaf9e13	0.3430029
8	0x3d0caf27	0.034346726
9	0x3e33aab3	0.17545585
10	0x3eb0f8e5	0.3456489
11	0x3e8846ca	0.26616508
12	0x3e76457a	0.2404994
