models/h6_ep50_bs64.pth (torch, 36113 bytes, 6 tensors)

net.0.weight f4 [32, 15, 3]
000000 3a 61 cc bd 7e 3c 97 3d 18 ab 2e 3d f6 4e 5f bd
       -0.09979482 0.07384585 0.042643636 -0.054518662
000010 60 91 0d 3c 00 76 4e 3d a7 a3 24 3e 34 07 76 3d
       0.008640617 0.050405502 0.16078053 0.060065463
000020 f8 82 99 bd 4b 06 17 3d c4 f1 c6 bc 04 ce 03 be
       -0.074956834 0.036871236 -0.024285205 -0.12871557
000030 d4 1f 03 be 48 6a 39 3d 12 f0 f9 bd 60 ff 08 bc
       -0.1280511 0.045267373 -0.12203993 -0.008361667
000040 d8 a0 96 bd e0 12 61 bc c8 79 7f 3e 98 54 86 bd
       -0.07354897 -0.01373741 0.249488 -0.06559104
000050 c0 3f ab bc 0a 7c 04 3d c0 fc c8 3c f4 c7 2c 3d
       -0.020904422 0.032344855 0.024534583 0.042182878
000060 4e 35 34 3e 70 49 c9 bc 35 45 10 3e 22 8a 93 3d
       0.17598459 -0.02457115 0.140889 0.07204081
000070 94 0b b1 3d 96 64 c0 3d 90 40 84 be c6 18 ee 3d
       0.086447865 0.09394185 -0.25830507 0.11625819
000080 cd bc 07 3e 40 fc c2 3d 22 75 4a bd 2c 9d a8 3d
       0.13255616 0.09520769 -0.049428113 0.08233103
000090 e4 92 ad 3d 8e 63 18 be 2c f9 7f 3d a3 c4 b0 3e
       0.08475283 -0.14881727 0.06249349 0.34525022
0000a0 ac 77 51 3d cb f4 97 bd a7 1d 6c 3e 3c 79 8b 3d
       0.05113952 -0.074197374 0.23058186 0.06810233
0000b0 e0 0d 1e bc 82 44 ab 3d 14 8b 21 3d 4f 00 18 3e
       -0.009646863 0.08362676 0.039439276 0.14843868
0000c0 98 cd 10 be bc 88 e8 bd 6c 12 80 bd 89 ab 1f be
       -0.14140928 -0.11354205 -0.06253514 -0.15592779
0000d0 94 b2 ff bc e0 5f 85 3c 75 91 11 3e d2 6f 94 3d
       -0.031213082 0.016281068 0.14215644 0.072478905
0000e0 39 d7 db bd 89 ed cb bd 5c 39 d1 bd 60 3e 1d 3d
       -0.1073441 -0.099574156 -0.102160186 0.038389564
0000f0 6e 2a 74 3e 68 fe f3 3c b0 b2 77 3c f3 33 af 3d
       0.2384431 0.029784396 0.015118286 0.085548304
000100 60 2a be 3d ef b2 04 be 03 1e 8c 3d 50 6c ee bc
       0.09285426 -0.12958883 0.06841662 -0.029104382
000110 30 1b 15 be fd 5e 26 3e 10 da 06 be 6a 2e 70 bd
       -0.14561152 0.16247173 -0.13169122 -0.058638014
000120 f2 8e fd 3d f6 62 54 bd e8 20 ed bd 68 19 07 bf
       0.1238078 -0.05185219 -0.11578542 -0.5277314
000130 ea 48 f0 3d 80 92 d6 bb dc f4 a7 3e c0 cc a4 3b
       0.11732657 -0.006548226 0.32804 0.005029291
000140 82 df 69 bd 88 95 3a be 9a 4d f5 bd ea ca e1 3d
       -0.05709792 -0.18221104 -0.11977692 0.11025031
000150 6f 0f 36 3e 80 5d dc bb 00 09 83 bb cf 1c 65 3b
       0.17779325 -0.0067250133 -0.0039988756 0.0034959798
000160 20 98 5a bc f4 d0 eb bc 9e da 95 3d b2 ca ac 3d
       -0.0133419335 -0.02878616 0.073170885 0.084370986
000170 56 46 a4 3d 27 45 2e 3d 40 a7 89 3d d8 ee b5 bd
       0.08021228 0.042546418 0.067213535 -0.088834465
000180 21 b7 64 be d6 00 e9 3d d0 ea a7 3d 63 fb c5 bd
       -0.22335483 0.113771126 0.08199084 -0.09667089
000190 7f 53 11 3e 50 b9 56 3d 17 44 1f be 52 87 79 bd
       0.14192007 0.05242282 -0.15553318 -0.060920067
0001a0 c9 b2 fe bd c5 95 be 3d a7 b3 b3 bd 30 c1 03 bd
       -0.12436444 0.0930591 -0.087745 -0.03216666
0001b0 78 91 2e be 36 c8 c4 bd 08 e1 49 bd 40 3f cb bd
       -0.1704768 -0.096085 -0.049286872 -0.09924173
0001c0 0b 14 06 3e 70 53 7d bc bb c5 2e bc 98 6d 7b bd
       0.13093583 -0.015461788 -0.01066726 -0.061383814
0001d0 04 36 0c be 30 f6 5c 3d 76 de b0 3d 68 6d 93 bc
       -0.1369248 0.05394572 0.08636181 -0.017996505
0001e0 76 58 08 bf 9f a2 94 bd 8a 3a 85 bd b6 65 96 3e
       -0.5325998 -0.0725758 -0.06505306 0.29374474
0001f0 8f 0a 08 be a2 a0 c5 3d 6e d3 16 be b8 18 3d 3d
       -0.13285278 0.09649779 -0.14729092 0.04616615
000200 c7 b4 17 3e 35 f8 3a 3e 7f 1e 0e 3e 23 4b 0f be
       0.14815055 0.18258746 0.13878821 -0.13993506
000210 92 52 b3 bd d4 f4 d5 bd 00 c5 a4 bc 31 73 83 bd
       -0.087559834 -0.10447088 -0.020113468 -0.064184554
000220 de de c9 bd 1b 0a 91 bd 29 f6 11 be 58 ac a6 3c
       -0.09856962 -0.070820056 -0.14254059 0.020345852
000230 d8 a7 b0 3d 75 cb 85 3e 62 ed d5 3d 00 8c ab 3a
       0.08625764 0.26131788 0.10445668 0.0013087988
000240 2b 62 2d 3c ee de 09 be 00 6f c7 3b 9f 48 a2 be
       0.010582487 -0.13463947 0.0060862303 -0.3169603
000250 74 80 67 3d 8e 24 da 3d 24 0c 53 3e d8 a5 c1 3c
       0.056518987 0.106515035 0.206101 0.02363865
000260 c0 f9 7e 3d e8 c0 84 be 1e 08 10 be 84 13 3f 3d
       0.0622499 -0.25928426 -0.14065596 0.04664947
000270 7c 1f a6 be 64 f9 d1 bc a8 15 88 bc 2e 9e 12 3d
       -0.32445896 -0.025631614 -0.016611889 0.035795383
000280 70 89 81 3d 98 79 ac 3c 10 fd ee 3c d4 4b d0 bd
       0.06325042 0.021054074 0.029173404 -0.10170713
000290 30 c6 1d 3c d5 03 9a bd 2e 97 98 3d ce d1 cf 3d
       0.009629771 -0.07520262 0.0745071 0.10147439
0002a0 09 a5 9e 3e 20 c2 7b 3c a3 33 a4 bd b1 54 12 bd
       0.30985287 0.015366107 -0.080176614 -0.0357253
0002b0 96 d0 e3 bd a0 13 87 3c ad 2e 76 3d a0 0a a3 3d
       -0.11123769 0.01648885 0.060103107 0.07961011
0002c0 5e f5 e1 bd 09 e3 13 3d 20 6b e3 bd ee 9f aa bd
       -0.11033128 0.03610519 -0.11104417 -0.083312854
0002d0 d8 76 52 3d 44 ba 2c bd de ae ba bd 02 6f 95 3c
       0.05138287 -0.042169824 -0.091153845 0.01824141
0002e0 4e ee eb 3d fc e8 9e 3d 73 71 01 be 4c 78 01 be
       0.115200624 0.07759282 -0.12640934 -0.12643546
0002f0 86 cb 01 bd f7 25 73 be 00 46 4d 3b c2 85 87 3d
       -0.031688236 -0.23744951 0.003132224 0.06617309
000300 3a 6f 2e 3e 80 e2 06 bd 60 5e d2 bb 88 ac 6a be
       0.17034617 -0.03293085 -0.006419942 -0.22917378
000310 1a 24 fb 3d 16 53 d4 bd 32 e8 14 3e e6 77 02 be
       0.12262745 -0.1036741 0.145417 -0.1274105
000320 5b 1e c6 bd d6 43 be be 7e 51 26 bd 66 9b a7 bd
       -0.096737586 -0.3716113 -0.04060506 -0.08183937
000330 a7 d3 24 be 90 47 9d 3c a0 c9 98 bc d6 f1 00 be
       -0.16096364 0.019199163 -0.01865083 -0.12592253
000340 4a b0 90 bd 38 c3 12 bd 30 f8 be 3e 24 50 33 3d
       -0.070648745 -0.035830706 0.37298727 0.0437776
000350 35 22 15 3e df 15 09 bd 23 bd 10 3e 52 7d b6 bd
       0.1456383 -0.033468124 0.1413465 -0.08910622
000360 51 12 02 3f 3a c4 c7 bd d4 45 78 3d 34 05 51 bd
       0.508092 -0.09754224 0.06061347 -0.051030353
000370 c0 47 62 3c 7e 0b e7 bd b2 c0 f4 bd 00 b4 ac 3b
       0.013811052 -0.11281489 -0.11950816 0.005270481
000380 8e ee 9f bd 5a b4 f8 3d 48 29 49 bd 1c 28 93 bd
       -0.078091726 0.12143774 -0.049111634 -0.07185385
000390 78 58 fe 3d a6 2d e0 3d 14 77 41 bd 2c 5a ba 3d
       0.12419218 0.10946207 -0.047232702 0.0909923
0003a0 06 5d 9f 3d 80 c5 9e bb f5 f3 d9 be 42 f4 b8 bd
       0.07781415 -0.004845321 -0.42568937 -0.090309635
0003b0 10 c0 6d 3d 8d 85 a0 3e 80 a2 2d bc be f1 b3 bd
       0.058044493 0.3135189 -0.010597825 -0.08786343
0003c0 9c 66 e6 be e6 54 18 bd 70 d8 63 3d 91 1e 9e 3d
       -0.4500016 -0.03719034 0.055626333 0.07720674
0003d0 3c 7b 76 3d b5 0b 07 3e dd 5d 4b 3d 62 9b fe 3d
       0.06017612 0.1318806 0.049650062 0.12431981
0003e0 9d 4e a6 bd 9d 50 f3 3e 48 36 ac bc 2b 22 11 3e
       -0.08120463 0.4752244 -0.021021977 0.1417319
0003f0 e4 1d 12 be 80 78 d1 bd a6 f6 50 bd ff 80 7a 3e
       -0.14269215 -0.10228062 -0.051016472 0.2446327

net.0.bias f4 [32]
000000 70 5e 07 3f aa fe ac 3e 45 f9 bd 3e 78 63 bb 3e
       0.52878475 0.33788043 0.3710424 0.36599326
000010 a8 7c b9 3e 47 8a fd 3e cf d6 ce 3e b6 a5 f5 3e
       0.36227918 0.4951956 0.4039826 0.4797799
000020 34 3c ac 3e 4b f0 d8 3e 3b 1e e3 3e 60 11 af 3e
       0.3363968 0.4237083 0.44359002 0.34192944
000030 6f d5 a3 3e c3 b4 af 3e 16 26 dd 3e 4e c8 b9 3e
       0.31998774 0.34317598 0.4319312 0.36285633
000040 d7 e8 c9 3e e2 1b c5 3e 15 7c 9f 3e 4e b8 c0 3e
       0.39435455 0.38497835 0.31149355 0.37640613
000050 9b 28 d6 3e b8 15 b3 3e 1a 81 b8 3e 09 88 b3 3e
       0.41827855 0.34977508 0.36035997 0.35064724
000060 f5 84 06 3f d4 9e d3 3e d2 47 81 3e 84 57 e3 3e
       0.52546626 0.41332114 0.25250107 0.44402707
000070 ea 75 e0 3e 08 56 a7 3e 12 c2 ea 3e 67 79 01 3f
       0.4383996 0.32682824 0.4585119 0.5057587

net.2.weight f4 [64, 32, 3]
000000 50 f4 89 3e cf 4b 4c bd 74 c3 8e bd 0a 1b 47 3e
       0.26944208 -0.049876984 -0.069708735 0.19443908
000010 b0 de e1 bc 38 f7 9c bd ad c8 5e 3e 04 87 2f 3d
       -0.027572006 -0.07664341 0.21756239 0.04285337
000020 00 b0 45 ba ef e3 a2 3e f0 99 cd 3c d4 06 6e 3d
       -0.00075411797 0.31814525 0.025097817 0.05811198
000030 e0 32 b1 3e 90 3c 43 3c af c5 91 bd b3 5e 98 3e
       0.34609127 0.011916295 -0.07117783 0.2975975
000040 8d 7d 5f bd f4 51 5a 3d c0 35 47 3e 8c b8 95 3d
       -0.054563094 0.053300813 0.19454098 0.0731059
000050 9f a8 9d bd 40 0f 82 3e 2b 1b 94 bd 66 81 41 bd
       -0.076981775 0.2540226 -0.072317444 -0.047242545
000060 3d a1 98 3e e8 eb af bd 40 15 ea 3b b1 62 6e 3e
       0.29810515 -0.085899174 0.0071436465 0.23279835
000070 40 e8 20 bc 50 9c 0c bc d8 5b 9c 3e ac 4c ca bc
       -0.009820998 -0.00858219 0.3053882 -0.024694763
000080 24 17 aa bd 7d 19 a1 3e a1 77 a0 bd 10 ce 3c bc
       -0.08305195 0.3146476 -0.078353174 -0.0115237385
000090 49 41 8c 3e ae f6 b4 bd e0 cf b0 3d 73 47 8a 3e
       0.2739356 -0.08836113 0.08633399 0.27007636
0000a0 e0 3f 43 3d 06 24 3c bd d1 f2 9d 3e dc 3e ca bd
       0.047668338 -0.045932792 0.30849317 -0.09875271
0000b0 ae e6 26 bd 1f 9c 33 3e a4 bf 7b 3d b4 ac 12 3d
       -0.040747337 0.17540024 0.06146206 0.035809234
0000c0 6d d4 94 3e 6e 8d a2 3d d4 16 b0 3d de 0d 99 3e
       0.29068318 0.07937132 0.08598104 0.29893392
0000d0 e4 0e f0 bc 00 6a ca b9 e4 ba a8 3e 50 45 aa 3d
       -0.029303975 -0.00038607419 0.32955086 0.083140016
0000e0 1a 93 a1 bd 11 1f 5a 3e 09 d1 b7 bd 17 9a 63 bd
       -0.078893855 0.21300913 -0.08975417 -0.055566873
0000f0 5e 94 9d 3e 39 6e 9d bd 46 e3 01 bd 56 7e ae 3e
       0.30777258 -0.07687039 -0.031710885 0.34080762
000100 5e 20 5f bd 4c 0d 9f 3d cb dd b0 3e b0 7a eb bb
       -0.054474227 0.07766208 0.34544215 -0.0071862563
000110 a0 68 71 3b 41 96 5d 3e 04 ea b4 3c ea 54 82 3d
       0.0036836043 0.21639349 0.022084244 0.06363852
000120 c6 da 8a 3e ae b0 80 3d 61 b6 4b bd 6b 2d 9e 3e
       0.27120036 0.06283699 -0.049734477 0.30894026
000130 20 76 04 bc b8 56 3e bd 43 7d 63 3e 54 64 b0 bd
       -0.008084804 -0.04646942 0.22215752 -0.08612886
000140 82 1e 3a bd e0 e8 99 3e 60 0f 1a 3d 00 4e 9d ba
       -0.04543925 0.30060482 0.03761232 -0.0012001395
000150 f7 a6 8c 3e 86 71 98 3d 7e e8 a7 3d 4f ee 98 3e
       0.27471134 0.07443528 0.08198641 0.29869315
000160 88 5a 1e bd 70 bd 9a bd 8f 48 79 3e 7d ce 35 bd
       -0.038660556 -0.075556636 0.24344085 -0.044386376
000170 44 80 93 3d 65 3d 9f 3e c6 3c b5 3d 2c 0f e9 bc
       0.07202199 0.31101528 0.08849482 -0.028449617
000180 df 14 b4 3e 98 a5 c2 bd b8 2c 5a bc 44 3e 9d 3e
       0.35172173 -0.09504241 -0.013316326 0.30711567
000190 42 4b 91 3d 28 85 9e 3d 53 2e 98 3e dc 13 a2 bc
       0.070944324 0.07740241 0.29722843 -0.01978486
0001a0 80 e7 b0 3a a6 21 a6 3e 3c c5 22 3d c8 3e 22 bc
       0.0013496727 0.32447547 0.03973888 -0.0099026635
0001b0 8e de 52 3e 00 76 27 3a 4b 51 cd bd 50 2b bc 3e
       0.2059271 0.0006388128 -0.10025271 0.36751795
0001c0 40 c9 c0 ba c7 91 2b bd 23 67 a3 3e 7c 43 1f 3d
       -0.0014708415 -0.04188707 0.31914625 0.038882717
0001d0 08 05 de 3c 7b c6 a4 3e 15 fd 84 bd 7c ec c6 bd
       0.027102008 0.3218268 -0.06493584 -0.097130746
0001e0 26 65 60 3e 43 ab 3f bd 04 e0 b1 3d 96 df b9 3e
       0.21913585 -0.046794187 0.08685306 0.36303395
0001f0 18 b1 a1 bd d8 3c 8f 3d fe 16 8a 3e 9c 7c 05 3d
       -0.07895106 0.06994027 0.26970667 0.03258954
000200 dc fd 62 bd b9 16 5e 3e 14 65 98 3d 76 ce ab 3d
       -0.05541788 0.21688356 0.07441154 0.08388989
000210 af ce 75 3e 10 d2 46 3c 52 96 82 bd 44 08 74 3e
       0.24004625 0.012135044 -0.063763276 0.23831278
000220 3e 59 a8 3d 70 42 74 3d 2b 96 9c 3e 90 53 86 bb
       0.082201466 0.059633672 0.3058332 -0.004099317
000230 a3 88 a1 bd 94 38 2b 3e a3 ae 2f bd bf 9c 4c bd
       -0.078873895 0.16720802 -0.042891156 -0.049954172
000240 5f 69 9b 3e bc 87 0b 3d 46 8c b0 3d 98 16 b8 3e
       0.3035383 0.034064993 0.08620505 0.35954738
000250 d7 bb 6f bd 84 dd a7 3d 6f 6e 8d 3e 9b 3f bf bd
       -0.058528747 0.081965476 0.27623317 -0.09338304
000260 bc 08 5c 3d 44 b9 b3 3e 1c ca 61 3d a2 d4 52 bd
       0.053719267 0.35102284 0.055124387 -0.051472314
000270 b4 f2 5e 3e ec a5 78 3d 46 df be 3d 83 f3 a2 3e
       0.21772271 0.06070511 0.0931993 0.3182641
000280 52 82 be bd f0 5a d7 3c 38 9e 92 3e 64 44 ba bd
       -0.093022004 0.02628848 0.28636336 -0.09095076
000290 08 92 1c 3d 13 da a8 3e 63 48 b7 bd 48 9a c5 bc
       0.038225204 0.32978877 -0.089493535 -0.024121419
0002a0 14 ee b0 3e f4 69 97 3c 8a 62 c5 3d 95 ed aa 3e
       0.3455664 0.01848314 0.096379355 0.33384386
0002b0 a8 88 6d 3d a2 80 61 bd 11 0e 9f 3e 89 47 7f bd
       0.057991654 -0.055054314 0.3106542 -0.06232408
0002c0 9e 9b 8d 3d 12 f0 84 3e b0 42 36 3d c0 9d cb bd
       0.06914447 0.2596441 0.044497192 -0.09942198
0002d0 b7 03 2b 3e d0 58 98 3d 78 23 63 bc e2 7b 67 3e
       0.16700636 0.07438815 -0.013863437 0.22605851
0002e0 0e 95 9b bd f0 29 aa bc c9 0c 79 3e 32 73 84 3d
       -0.07596789 -0.02077195 0.24321283 0.06467284
0002f0 18 dc 01 bd eb 27 2b 3e bd 21 2f bd e8 54 7e bc
       -0.03170404 0.16714446 -0.042756785 -0.015523173
000300 0d fd 6d 3d 95 7b 5c bd 2b 86 6b bd eb c3 d9 3c
       0.058102656 -0.053828795 -0.057501 0.026582679
000310 e4 40 7b 3d 20 2a 1c 3c af 80 c9 bd 8f 1c 2f bd
       0.06134118 0.009531528 -0.098389976 -0.042751845
000320 22 ea b5 3d 93 45 e2 bd 4c 02 f7 bc 40 be 43 3d
       0.08882548 -0.110484265 -0.030152462 0.04778886
000330 9b 58 6a 3d 4c 05 95 bd 20 a6 40 3d 7a 39 38 bd
       0.057213407 -0.07276401 0.04703343 -0.04497669
000340 27 23 bc bd 92 6a af 3d aa cf bb bd bb 3a 74 bd
       -0.09186392 0.085652485 -0.09170468 -0.059626322
000350 78 77 07 3c 4f 74 01 be 88 81 f3 3c 40 25 7a 3d
       0.00826823 -0.12642024 0.029724851 0.06107068
000360 ea cc 94 bd 10 de cf bc 98 f8 c9 3c 32 be 8e 3d
       -0.07265647 -0.025374442 0.024654672 0.069698706
000370 20 d9 8f 3c d6 e9 bd 3d 69 ac a7 bd 2e d6 19 bd
       0.017559588 0.09273116 -0.081871815 -0.037557773
000380 b8 91 44 3d cd 1a 5e 3c 45 74 22 bd 33 ed 8d bd
       0.04799053 0.0135561945 -0.039661665 -0.06930008
000390 78 f6 ba bd 70 b9 ee 3c c8 23 99 3d 10 e6 d3 bc
       -0.091290414 0.029141158 0.07477528 -0.025866538
0003a0 60 1f 7d 3c b4 12 95 bd 12 85 94 bd e8 4b ae 3d
       0.015449375 -0.07278958 -0.07251944 0.08510572
0003b0 21 f4 33 bd 49 06 f6 bc 68 bc 56 3d 84 c7 4d 3d
       -0.04393399 -0.030032294 0.052425772 0.0502391
0003c0 c3 f2 ec bc c0 0c a4 bd dc 0c 85 bd 58 9a 05 3d
       -0.028924352 -0.08010244 -0.06496593 0.032617897
0003d0 a4 e3 10 bd 7b 70 cf bd d4 14 a2 bc 0c be a3 3c
       -0.035373345 -0.10128876 -0.019785322 0.019988082
0003e0 a3 51 b7 bd 45 b0 a3 bd f5 8f 95 bd f8 d8 25 3c
       -0.08951118 -0.07992605 -0.07302848 0.01012253
0003f0 47 e3 26 bd 3e 3f b9 3d 5c c8 45 3d 34 3d 8f bd
       -0.040744092 0.090452656 0.04828678 -0.069940954

net.2.bias f4 [64]
000000 72 ef 9c 3e 20 34 94 3e 6f 58 6e 3d d9 71 56 3e
       0.30651432 0.28946018 0.058189806 0.20941867
000010 b8 1f 9a 3e 55 71 99 3e f1 33 0b 3d 5c e3 8f 3e
       0.30102324 0.29969278 0.033985082 0.2810315
000020 11 a2 a0 3e 34 59 61 3e b5 24 43 bd d8 8b 7d bd
       0.31373647 0.22006685 -0.04764243 -0.061900944
000030 56 3e 81 bd 1c 45 69 bd 40 cd 91 3e f9 c8 98 3e
       -0.06310718 -0.056950673 0.28476906 0.2984083
000040 b1 4a a3 3e d9 0f bf 3e 7f 58 a8 bd 55 6c 9f 3e
       0.31892923 0.37316778 -0.08220004 0.31137338
000050 74 e1 b4 bd c7 94 9e 3e cc 25 a1 3e 9e a4 9f 3e
       -0.08832064 0.30972883 0.3147415 0.3118028
000060 63 10 4f 3d 42 3d 94 3e 3c cf 73 3e 44 1a 68 3e
       0.050552737 0.28952986 0.23809522 0.2266627
000070 70 f8 62 3e da e2 a5 3e da e9 9c 3e b7 39 c8 3e
       0.22165084 0.32399637 0.30647165 0.39106533
000080 e3 13 9d 3e 50 ec d2 bc fa 99 c8 3e 9e c1 a6 3e
       0.30679235 -0.025747448 0.39179975 0.32569593
000090 b4 2a 6b 3c c3 de 16 bd 0d dc 6e 3e 9c 85 4b be
       0.014353443 -0.036833536 0.2332613 -0.19875187
0000a0 da e3 a7 3e 60 59 ad 3e b1 c3 39 ba e3 ae 26 3c
       0.32791024 0.3385725 -0.000708635 0.010173532
0000b0 9f 7a ae 3e 3c 37 cb bc 32 0c 8e 3e 7a a4 9d 3e
       0.34077927 -0.024806611 0.2774368 0.30789548
0000c0 ae 70 49 3e 09 60 b9 3c 35 87 0f bd ae 00 74 3d
       0.1967189 0.022628801 -0.035041053 0.05957096
0000d0 31 91 9f 3e 58 45 28 3d 98 19 d9 3c 76 e3 69 3e
       0.3116546 0.041081756 0.026501462 0.22840676
0000e0 c9 3a ac 3e 95 13 a3 bd 4f bd 5c 3e 1a 77 c5 bd
       0.336386 -0.07962719 0.2155659 -0.096418574
0000f0 ca ea 1b 3d 01 b2 21 3c 47 1f 97 bc 1f c3 0c bd
       0.03806571 0.0098691 -0.018447531 -0.03436577

fc.weight f4 [2, 64]
000000 01 6f 7d 3d df 27 d0 3c 51 df 51 bd 5f 3b 7b 3d
       0.06187344 0.025409637 -0.05123836 0.061335918
000010 1b 31 f3 3d f4 c9 c8 3d 0f 3a 75 3d 4e 4d 8c 3d
       0.118746005 0.098041445 0.059869822 0.06850682
000020 b8 14 27 3e 1f a1 05 3c 5f b6 87 3d 5c 38 56 3d
       0.16316497 0.00815609 0.066265814 0.052299842
000030 b8 70 75 bd bc cb b1 3d 11 c3 00 3e ae 12 14 3e
       -0.05992195 0.086814374 0.12574412 0.1446025
000040 cd a4 fc 3d 42 43 c1 3e ba c9 36 be 9b 89 7e 3d
       0.12336121 0.37746626 -0.1785039 0.06214295
000050 3d 78 60 3d 1a 35 d7 3d 8a 3a 42 3e ac ea 3b 3e
       0.05480217 0.10508175 0.18967643 0.18351239
000060 c4 01 d3 3d d8 34 48 3e 59 db 74 3b 2a 05 3d 3e
       0.10303071 0.19551408 0.0037362187 0.18459001
000070 4a ab 59 ba 95 47 bc 3d c1 38 ad 3d 37 e8 98 3d
       -0.0008303417 0.09193341 0.084580906 0.074661665
000080 05 29 d8 3d 85 4d 18 3e 57 39 60 3e 69 e1 10 3e
       0.10554699 0.14873321 0.21896873 0.14148487
000090 59 4a 9b bd 38 4d 29 3d 7f 20 64 3e 98 46 d7 3d
       -0.0758254 0.041333407 0.22278021 0.105115116
0000a0 19 e1 3e 3e c3 e6 00 3e eb 16 99 3d af 69 bf bd
       0.18640555 0.12588029 0.074750744 -0.093463294
0000b0 12 b8 8e 3d 8b df c7 3d 38 cb a8 bd f4 42 bf 3d
       0.069687024 0.09759434 -0.08241886 0.09338942
0000c0 f4 50 6f 3d fe e4 8f bd 58 2a 91 bc 58 59 ba bd
       0.058426812 -0.07026099 -0.017720386 -0.09099072
0000d0 90 9d 7f 3c 3d 5f 1f 3c 60 e4 c2 bd bb 88 27 3e
       0.015601531 0.009727296 -0.09516215 0.16360752
0000e0 98 e0 51 3e 1e 85 ee bc 7e bf 51 3e b6 b9 ba bc
       0.20495832 -0.02911621 0.20483205 -0.022793632
0000f0 9e 9f 56 bd cf d3 df 3d 43 ab bf 3d 17 ca 93 3d
       -0.052398317 0.10929071 0.093588375 0.0721628
000100 73 6f 9c 3e cd 39 bd 3e 20 25 82 bd 7d fa d9 3e
       0.3055378 0.3695816 -0.06354737 0.4257392
000110 c4 71 98 3e 0c f9 bc 3e 06 98 9f bd 7c d8 a4 3e
       0.29774296 0.36908758 -0.07792668 0.32196414
000120 4c 5e ba 3e b6 c9 a4 3e 57 d8 42 bd c0 f0 c5 bc
       0.36400068 0.32185143 -0.0475696 -0.02416265
000130 60 73 e1 bb 94 e6 db bd c2 e0 d6 3e 90 b5 c9 3e
       -0.006880209 -0.10737339 0.41968352 0.39396334
000140 93 d2 b3 3e 4b 2f 99 3e e8 d0 b9 bd 82 fd 99 3e
       0.35121593 0.29918894 -0.09073049 0.30076224
000150 80 e7 0d bd a5 9d 9a 3e 53 28 c3 3e 0f d6 9f 3e
       -0.034644604 0.30198398 0.38116702 0.31218
000160 8b 57 9c bd 9d 65 cb 3e ab 6a cf 3e d0 f2 a7 3e
       -0.07633885 0.39725962 0.4051107 0.3280244
000170 46 1f d7 3e 24 07 d3 3e 29 fa b7 3e f8 d9 a0 3e
       0.42016047 0.41216385 0.35933045 0.31416297
000180 13 75 d5 3e a9 03 80 bd 58 22 86 3e 78 9e a2 3e
       0.41690883 -0.06250698 0.26198077 0.31761527
000190 1a cc 94 bc 09 69 60 bd fc 11 c9 3e 8b 23 f4 be
       -0.01816373 -0.05478767 0.39271533 -0.47683367
0001a0 99 a4 c3 3e 8b 24 d6 3e b2 48 9c bc a7 95 96 bc
       0.38211516 0.41824755 -0.019077633 -0.018381907
0001b0 7a 55 a3 3e 89 e0 89 bd 81 85 94 3e 9b f8 dd 3e
       0.3190115 -0.0673228 0.29008105 0.43353733
0001c0 bd 35 a9 3e 89 18 00 bd 6c ae b2 b9 bc 74 2c bc
       0.33048812 -0.0312734 -0.0003408076 -0.0105258785
0001d0 4c 85 cd 3e 1c ff a1 bd 70 6c d2 bd 14 7f c6 3e
       0.4014076 -0.079099864 -0.10274589 0.38768828
0001e0 26 7e 9c 3e a1 97 54 bd 27 e2 c7 3e 82 31 b0 3b
       0.30564994 -0.051902417 0.39039728 0.0053769955
0001f0 f9 27 3f bd ed 4e 1e bd 52 db c1 bd 7a 44 1b bd
       -0.04666898 -0.03864949 -0.0946566 -0.0379071

fc.bias f4 [2]
000000 08 08 f9 3c 61 8f 62 3e
       0.030399337 0.22125007
