models/h6_ep30_bs128.pth (torch, 38493 bytes, 6 tensors)

net.0.weight f4 [32, 13, 3]
000000 d8 d2 b0 be a4 25 16 be 2e 12 a2 3d c3 0e ae be
       -0.3453586 -0.14662796 0.07913624 -0.33995637
000010 dc 87 0a bd 3c 59 73 3d 97 6a 1d 3f 00 3b e5 bd
       -0.03382097 0.059411272 0.6149077 -0.11192894
000020 5c 72 0e 3e 2a 1f 70 3e ba 30 4a bd c2 0b 47 bd
       0.13910812 0.23449388 -0.049362876 -0.048595197
000030 2e a4 66 3e d8 66 cb bc cc 21 f9 3d 4b bf fc be
       0.22523567 -0.024829313 0.12164649 -0.49364695
000040 80 a7 6a 3b 21 0d 05 be 11 b0 9f 3e 48 16 1f 3e
       0.0035805404 -0.1299329 0.31189016 0.15535843
000050 e1 eb 9c bd b9 50 94 3f 4c 8d bf 3d bd 82 be bd
       -0.07662178 1.1587135 0.09353122 -0.0930228
000060 3e d4 e2 bd 30 1e f4 3d b6 1d 03 be 84 2b 43 bf
       -0.11075638 0.1191982 -0.12804303 -0.76238275
000070 6b b6 94 bd 46 1f 0b 3e a7 fc 2c 3f 1e 10 10 3e
       -0.07261356 0.13586149 0.67573017 0.14068648
000080 5e 51 f9 bd 41 cb 8a be 50 f4 f4 3c 1c 8c a8 bd
       -0.12173723 -0.27108195 0.029901654 -0.08229849
000090 9b 6f 51 3f f4 86 87 3d 40 0d 14 3d 64 a5 c9 bd
       0.8181092 0.06617537 0.03614545 -0.09845999
0000a0 70 0f 74 3d 56 35 df bd 6b 7f f4 be cf f5 88 bd
       0.059585035 -0.10898845 -0.47753462 -0.06687509
0000b0 23 ce a7 bd 5c 14 42 be f4 2c f5 3d 88 a3 95 bc
       -0.08193614 -0.18953079 0.11971465 -0.018266454
0000c0 f0 31 2a 3f 3c 53 63 3d e0 e4 90 bd 83 d4 1f 3f
       0.6648245 0.0554993 -0.070749044 0.6243364
0000d0 16 b1 d0 bd 40 ba c2 3c b3 31 9b 3e b8 20 b8 bc
       -0.101900265 0.023770452 0.30311355 -0.022476539
0000e0 9d e7 aa bd 74 e6 78 bf a6 86 8a bd 42 bc b0 3d
       -0.08344958 -0.97226644 -0.067639634 0.08629657
0000f0 6f 00 6e bf e6 b7 19 be 6c 20 0e bd 10 18 a1 3d
       -0.9296941 -0.15011558 -0.03469889 0.07865918
000100 04 06 0f 3d b1 d0 93 bd 51 a9 ec bd 94 5f f5 bd
       0.034917846 -0.07217539 -0.11555732 -0.11981121
000110 f0 75 f4 3d e6 40 20 be 14 f1 68 3d 84 73 ea 3d
       0.11936557 -0.15649757 0.056870535 0.11447814
000120 c7 30 3f 3f c8 88 3f bd 64 86 ad bd f3 93 0d bf
       0.74683803 -0.046761304 -0.084728986 -0.5530388
000130 da ea 98 3d fc b7 fb 3d 3c 1e 01 3e 50 27 14 bd
       0.074666694 0.122909516 0.1260919 -0.036170304
000140 94 f3 dd 3d 8b ff 30 be 21 af 22 be 00 4d c8 3b
       0.108374745 -0.17284982 -0.15887119 0.0061126947
000150 84 76 dd be d0 70 d7 3d d2 f7 3a bd ba e8 c7 be
       -0.43254483 0.10519564 -0.045646496 -0.39044744
000160 cc bc a3 bd 0c 08 4c 3d e8 66 a5 be 44 fa c7 3d
       -0.079949945 0.04981236 -0.32305074 0.09764531
000170 40 d9 af 3b 2a d5 55 3c 48 65 66 3d b4 b0 63 bd
       0.0053664744 0.013051311 0.056248933 -0.05558844
000180 3b 65 80 3e 62 aa 19 be ca 09 56 bd 0d 5e 8a 3f
       0.25077233 -0.15006402 -0.05225543 1.0809952
000190 94 e6 07 3e 00 c4 36 bc b5 d7 00 be f8 e3 cb bc
       0.13271552 -0.0111551285 -0.12582286 -0.024888977
0001a0 64 42 11 3e d6 c7 1f 3f c1 e0 a5 bd 86 d3 20 be
       0.14185482 0.624143 -0.08099509 -0.1570569
0001b0 11 8c d2 bd 4a 6e 1d 3e 48 17 3f 3d 9c 67 e5 3e
       -0.10280622 0.15374103 0.046653062 0.4480561
0001c0 10 db 67 3d 42 98 ed bd d7 11 5c 3f 50 39 35 bc
       0.0566054 -0.116013065 0.8596472 -0.011061028
0001d0 9b e3 08 be 84 73 c4 3d 56 a1 02 3e 78 3d 8a 3d
       -0.13368075 0.09592345 0.12756857 0.067500055
0001e0 79 b5 a7 be c6 08 93 3d 83 db 85 bd 6e 06 d4 3e
       -0.3275564 0.07179408 -0.06536009 0.41411155
0001f0 14 a7 e2 3d 48 48 e0 bd 31 ad ff 3e 80 6c 8c 3d
       0.11067024 -0.109512866 0.49936822 0.06856632
000200 29 9b 9b bd 9e 1b 1a 3f 90 80 e9 3c a1 25 bb bd
       -0.07597954 0.6019839 0.028503686 -0.091380365
000210 53 50 92 3e 98 3a e8 3d 1c 00 a8 3d 6b 2f 53 bf
       0.28576908 0.11339301 0.08203146 -0.8249423
000220 90 94 07 3e ed 10 0d be af 3f 86 bf 28 c8 1f 3e
       0.13240266 -0.13775988 -1.0488185 0.15603697
000230 70 36 6d 3c 60 ca 66 bc 80 52 52 3b b8 f2 ea 3d
       0.014478311 -0.014086336 0.003209263 0.11472076
000240 f6 45 bc be 58 af 9b 3d 5c 96 03 3e f4 a9 9f 3d
       -0.36772126 0.076018035 0.12850326 0.07796088
000250 88 1e d6 3d c2 6f e2 bd 41 0c 87 3e 20 13 06 bc
       0.10455042 -0.11056472 0.26376536 -0.008183271
000260 9c 2d 48 bd a1 29 ce be 89 1f a0 bd 78 c9 9c 3d
       -0.04887162 -0.40266135 -0.07818515 0.076556146
000270 04 57 37 be e4 af 9e bd 0a 64 ae 3d da 73 b2 be
       -0.17904288 -0.07748392 0.08515175 -0.34854013
000280 ef 9a a0 bd 70 49 06 3e 78 18 de 3d 64 40 87 bd
       -0.07842051 0.13113952 0.10844511 -0.066040784
000290 f3 bc fc bd bf 6d 3c 3e d4 4b 68 3d 7e 37 22 bd
       -0.12340727 0.1840124 0.05671294 -0.039603703
0002a0 77 2b d1 3e 00 67 58 ba a0 72 b4 3d 89 01 33 3f
       0.40853474 -0.0008255094 0.088109255 0.6992422
0002b0 64 e8 e9 bd 9e ba ee bd 7b 09 a6 3e a0 61 4e 3c
       -0.11421278 -0.11656688 0.32429108 0.012596518
0002c0 80 26 b9 3c 15 7d a7 3f 1c cc 7b 3d f6 e0 9f 3d
       0.022601366 1.3085047 0.06147395 0.0780658
0002d0 9e 53 1d 3e 04 fb fa bd 38 18 ac bc d8 e1 1a bf
       0.15363929 -0.12254909 -0.021007642 -0.6050086
0002e0 0e b0 0f 3e 3c 61 d3 bd 2f 17 93 3c fa 80 75 bd
       0.14032003 -0.1032128 0.01795539 -0.059937455
0002f0 34 8b af 3d 67 a3 cb bd d0 87 7a bc 92 a1 94 3d
       0.08571473 -0.09943276 -0.015291169 0.072573796
000300 d4 7d 73 3f f6 e6 0b be 83 64 96 bd 13 04 e2 3e
       0.95113873 -0.13662323 -0.0734339 0.44143733
000310 45 a8 a9 bd 94 9b e8 3d 42 7d b3 3c 4c e9 e3 3d
       -0.08284048 0.11357799 0.021910314 0.11128482
000320 25 18 c6 bd 63 db da 3e 40 e3 06 be 64 06 20 be
       -0.09672574 0.42745504 -0.13172626 -0.15627438
000330 39 58 b4 3e ca ea bb bd 5c 7b f1 3d e0 9b 5f 3d
       0.3522356 -0.09175642 0.11791107 0.054592013
000340 bc 20 5a 3d 98 8d 9c bc 26 4b bf be f0 8d bc 3c
       0.053253874 -0.019110486 -0.3736202 0.0230169
000350 f0 c8 10 bc 2c 28 a9 bf c3 51 e3 bd 16 2f c7 bd
       -0.00883697 -1.3215384 -0.11099579 -0.09725778
000360 ff be b9 bf c2 2f 59 bd 50 bc db bc 10 f3 ab 3c
       -1.4511412 -0.05302406 -0.026823193 0.020989925
000370 f2 f8 74 bd 4b b9 e7 bd c1 c8 0a bf 0c 4a a2 bd
       -0.059807725 -0.11314639 -0.54212576 -0.079242796
000380 1a a2 cc bd 41 4d a4 3e 40 4e 7a bc d8 e1 04 3e
       -0.09991856 0.3209019 -0.015277445 0.12976778
000390 a2 a8 b5 3d 70 80 dc 3d c0 e6 5f 3b 73 28 00 bc
       0.08870055 0.10766685 0.0034164637 -0.007822144
0003a0 46 0c 0a be 70 73 74 bd 7c ac c0 bd 41 da 00 be
       -0.13481244 -0.059680402 -0.09407899 -0.12583257
0003b0 6c e2 50 3d 63 f4 b6 be 6f 9b 1b be f8 11 de 3d
       0.050997183 -0.35733327 -0.15196012 0.10843271
0003c0 ee bb da 3e 70 c8 f9 bc 84 a9 05 3e 7d a8 e5 3e
       0.42721504 -0.030491084 0.13052946 0.4485511
0003d0 7e 97 11 be 80 45 c8 bd 41 71 ba 3e 2f ec ef bd
       -0.14217946 -0.09778881 0.3641453 -0.1171497
0003e0 18 de 93 bd 06 ee ec be f8 bf c0 bd 4a 52 10 3e
       -0.072200954 -0.46275347 -0.09411615 0.14093891
0003f0 57 8c 5f bf 36 94 0f be 2e 02 8e 3d dd c2 41 bf
       -0.87323517 -0.14021382 0.069340095 -0.7568796

net.0.bias f4 [32]
000000 ae 87 7f 3f 60 db 7a 3f 36 fd 9b 3f 31 0b 8d 3f
       0.99816406 0.9799099 1.2186649 1.101904
000010 2e ba 89 3f a1 00 9e 3f db db 7c 3f 79 6b 9c 3f
       1.0759943 1.2343942 0.9877297 1.2220298
000020 62 dd 9d 3f 2d c0 74 3f 55 6e a3 3f 0e c7 94 3f
       1.2333186 0.95605737 1.2768046 1.1623247
000030 96 a2 84 3f 76 a8 7c 3f 1c 01 90 3f 4d ee 95 3f
       1.0362117 0.9869455 1.1250339 1.1713349
000040 09 d4 9c 3f 6d 3f 75 3f b8 53 9a 3f 4c 93 a0 3f
       1.2252208 0.95799905 1.2056799 1.2544951
000050 87 11 7b 3f 80 0d 89 3f e2 04 7a 3f 68 e6 6e 3f
       0.9807362 1.0707245 0.976637 0.9332032
000060 ce 7d aa 3f c4 d8 94 3f c5 61 98 3f 25 22 74 3f
       1.3319643 1.1628652 1.1904837 0.953646
000070 06 5a 82 3f 79 8a 8f 3f 0b 73 8c 3f 4e 3c 8e 3f
       1.0183723 1.1214134 1.0972608 1.1112154

net.2.weight f4 [64, 32, 3]
000000 1a 60 1e bf b6 3c c5 3d 2c bb 2b 3d 49 1d 1b bf
       -0.6186539 0.0963072 0.041926548 -0.6059156
000010 a8 03 2f 3c 50 f0 a0 bd 15 f6 e0 3d c0 9c e8 ba
       0.010682024 -0.07858336 0.109844364 -0.001774691
000020 80 99 5d 3a 50 00 2a bf b8 c2 b0 3d 70 68 99 bc
       0.0008453354 -0.66406727 0.0863089 -0.018726557
000030 f4 56 88 bf 40 29 83 3d e0 a1 ee 3c 94 cf fb 3e
       -1.0651536 0.06404352 0.029129922 0.49181807
000040 71 c4 73 bd d0 d6 15 3c ba e5 0d bf e0 59 68 bc
       -0.059513513 0.009145454 -0.5542866 -0.014181584
000050 f8 9c 43 bc f5 7f a9 bf e0 fa e0 bb 23 ef ab bd
       -0.01193928 -1.3242174 -0.006865844 -0.08395221
000060 d0 6d e4 3e 96 fc 90 3d 1c 8b 8b 3d 73 d0 1d 3f
       0.4461503 0.07079427 0.068136424 0.61646193
000070 f4 0e b8 3c 88 24 23 3d 9d e2 3b bf e4 05 93 bd
       0.022468068 0.03982976 -0.7339266 -0.07178858
000080 fa 0d 90 bd 03 3c 76 bf 14 a3 1e bd d4 a1 46 3d
       -0.07033916 -0.9618532 -0.038729742 0.048494175
000090 a1 d1 86 bf 20 a0 25 3d 9b cd 32 bd c9 fb 66 3f
       -1.0532724 0.04043591 -0.043653112 0.90227944
0000a0 58 0a d3 3c 70 05 f5 bc a6 22 54 3f d2 ed 82 3d
       0.025761768 -0.02990982 0.8286537 0.06393017
0000b0 ec 83 5e 3d 54 63 bf 3e d8 71 bd 3d 00 9c 43 bb
       0.05432503 0.3738047 0.092502296 -0.0029847622
0000c0 81 9d 62 bf 78 e1 72 3d a6 c2 99 3d c9 bf 50 3f
       -0.8852158 0.059297055 0.07507829 0.8154264
0000d0 90 68 2b 3c 30 3c 9d bb 97 34 0c 3f 90 67 f4 3c
       0.010461941 -0.0047984347 0.54767746 0.029834539
0000e0 b2 74 83 bd 5e 34 53 bf 78 ad 75 3c 36 f4 b9 3d
       -0.06418742 -0.8250178 0.014994971 0.09079783
0000f0 ab 29 6d 3f b9 b8 a3 bd b4 3a 3a bd fd c0 8e bf
       0.92641705 -0.079942174 -0.04546614 -1.1152645
000100 b8 ba 8a bc 30 66 8b 3d 20 19 01 3f e0 f1 b2 3c
       -0.016934738 0.068066 0.5042896 0.02184385
000110 16 82 aa bd ee 27 72 bf 1f 0a d0 bd 78 69 8b bd
       -0.08325593 -0.9459218 -0.101581804 -0.06807226
000120 50 34 3e 3f 7f 21 a2 bd 80 11 31 3d e2 ca 66 bf
       0.7429857 -0.07916545 0.04322958 -0.90153325
000130 9a b3 a2 3d 48 ab 9a bc 0d 7f 0f 3f 08 fe 06 bd
       0.079444125 -0.018880501 0.5605324 -0.032957107
000140 40 11 4d bc 06 c5 83 3f 78 73 3c 3d 70 e6 bd bd
       -0.01251632 1.0294502 0.046008557 -0.09272468
000150 33 aa 3f bf 72 13 81 bd 38 b6 38 3d 45 ad 74 bf
       -0.7486908 -0.06302537 0.045095652 -0.9557689
000160 1a 79 bf 3d 07 2d bb bd fb 64 5a 3e 9c 0a 6a 3d
       0.0934927 -0.09139448 0.21327583 0.057139024
000170 e4 80 9c 3d f7 a8 fb 3d ba 99 a4 bd 40 34 b1 3d
       0.076417714 0.12288087 -0.080371335 0.08652544
000180 d6 c7 47 3f 36 0b 8f 3d 16 ac 94 bd 55 7b 24 3f
       0.780393 0.0698456 -0.07259385 0.6425069
000190 2c 92 11 3d 62 04 ae bd d1 7e 31 3f a6 7a b1 3d
       0.03553979 -0.0849693 0.6933413 0.086659715
0001a0 f0 8a 09 3d c9 9e 3d 3f 16 89 c8 bd 10 58 ac 3c
       0.033579767 0.7407041 -0.09791772 0.021038085
0001b0 1e 46 5b 3f 83 c1 cc bd 08 fe c3 3c 7a d7 58 3f
       0.85653865 -0.09997847 0.023924842 0.8470379
0001c0 14 12 bb 3c b1 36 c2 bd a5 a9 44 3f a4 6a aa 3c
       0.022835769 -0.09483088 0.76821357 0.020802803
0001d0 b4 84 c1 bc 63 57 64 3f ef a3 2a bd e8 ec 5d 3d
       -0.023622848 0.8919584 -0.041660246 0.05418101
0001e0 8d a4 3e 3f e0 8d 19 bb 80 db 75 3d 6d 4e 19 3f
       0.74469835 -0.0023430511 0.060023785 0.59885293
0001f0 1f c5 44 bd 80 ee 13 ba 5e ef 2e 3f 82 2f 90 3d
       -0.04803955 -0.0005643144 0.68333995 0.070403114
000200 d8 69 10 bc c7 d9 1a 3f f0 6e 80 3d 40 e7 0d bc
       -0.008814298 0.6048855 0.0627116 -0.008661091
000210 0d e1 61 3f d8 e6 ad 3d 94 d5 82 bc 36 a5 4d 3f
       0.88234025 0.084912956 -0.015970983 0.80330217
000220 26 cd a3 3d 4c 3c 70 3d 1a 15 54 3f 88 f5 a5 bc
       0.07998113 0.058651254 0.828447 -0.02025868
000230 9f 02 b5 bd 7a cb 3b 3f 20 9b 9b bb e0 8f 04 3d
       -0.088383906 0.73357356 -0.004748717 0.032363772
000240 2d 25 39 3f 18 83 b0 3d 10 8e c0 3b 3a f6 06 3f
       0.7232235 0.08618754 0.00587631 0.5271946
000250 ea ed ce 3d 00 9b 8e bc 45 8d 0b 3f 00 b6 84 bb
       0.10103972 -0.017407894 0.54512435 -0.0040500164
000260 dc 63 a4 3d 61 36 62 3f 24 24 33 bd 08 b5 1d 3d
       0.08026859 0.88364226 -0.04373564 0.038502723
000270 11 53 27 3f c4 e8 46 3d 50 de 9d 3c 94 dd 33 3f
       0.65361124 0.048561826 0.019271046 0.70259976
000280 70 46 8c bd c4 4e 00 3d 4d 4c 32 3f 7a 6f 52 bd
       -0.068493724 0.031325117 0.69647676 -0.051375844
000290 68 d7 0c bc 2e 06 06 3f b2 19 b7 3d c8 54 69 3d
       -0.008596279 0.5235318 0.08940448 0.05696562
0002a0 0d e8 37 3f 00 35 4a ba 00 aa 97 bd 87 7a 30 3f
       0.71838456 -0.0007713586 -0.07405472 0.6893696
0002b0 ec ab 65 bd 40 0b 3c bb 1c 79 2e 3f 76 ca 85 3d
       -0.05607216 -0.002869323 0.6815355 0.06532757
0002c0 64 ae 0c 3d 70 a8 2d 3f e6 83 ae 3d c4 65 95 3d
       0.034346 0.6783514 0.085212514 0.07294801
0002d0 41 62 20 3f 52 fd 6d bd 36 47 8d 3d a2 0b 0e 3f
       0.62649924 -0.058102913 0.06898348 0.554865
0002e0 90 ea ea 3b bc a1 b4 3d d6 19 60 3f 29 3f 78 bd
       0.0071690753 0.08819911 0.8753942 -0.06060711
0002f0 a2 19 83 3d 08 9c 19 3f 80 cc c9 3c e0 01 e3 3c
       0.064013734 0.6000371 0.024633646 0.027710855
000300 bc b2 89 bc 43 af b8 bd 32 27 7e bd 4a 49 0a bd
       -0.01680886 -0.090178035 -0.0620491 -0.0337613
000310 86 b0 61 bd e0 52 ed bb 3a 05 7c bd a0 20 a0 3d
       -0.055099986 -0.0072425455 -0.061528422 0.07818723
000320 04 01 e8 bc fc 03 b0 bd d1 a0 ae bd a8 d9 07 bd
       -0.028320797 -0.0859451 -0.08526767 -0.033166558
000330 43 97 d0 bd a4 4e a2 3c b5 1f 55 bd ba 45 22 bd
       -0.10185101 0.01981289 -0.05203219 -0.039617278
000340 98 34 bf bd 50 71 b9 3c 65 32 52 bd 52 08 a4 bd
       -0.09336203 0.02263704 -0.05131759 -0.080093995
000350 c0 7d a7 3d b1 ce 95 bd c0 6e 00 bd be 21 93 bd
       0.08178282 -0.07314814 -0.03135562 -0.0718417
000360 c4 13 a6 3c bc b8 bf bc 16 ac 83 3d a5 37 bd bd
       0.020273097 -0.023403518 0.06429307 -0.09239129
000370 57 9f af bd 7c 31 72 3d 88 54 66 3c 88 4c 75 3d
       -0.085753135 0.059129223 0.01405824 0.05988744
000380 ef 91 53 bd 6f 5a 92 bd 74 3d 5a 3d aa f1 aa 3d
       -0.051652845 -0.07146155 0.053281263 0.08346875
000390 8a 7e c1 bd 20 14 bb 3c 76 e8 c8 bd 68 e2 26 bc
       -0.094479635 0.022836745 -0.098099634 -0.010185815
0003a0 90 81 50 bc 6c b2 9c 3c a3 80 c8 bd 38 ef 26 3c
       -0.012726203 0.019128047 -0.097901605 0.01018887
0003b0 72 40 8b bd 38 1b c9 bd 80 bc b2 3d 37 7e 43 bd
       -0.06799401 -0.09819645 0.0872736 -0.04772779
0003c0 6f 7a 8e bd bc ad 7e 3d f0 43 7a 3c 7a a9 07 bd
       -0.06956946 0.062177405 0.015274987 -0.03312061
0003d0 c8 7a 0c bd f7 9a ba bd 8e bc 8b bd c0 c2 b8 bc
       -0.03429678 -0.091115884 -0.06823073 -0.022553802
0003e0 88 53 98 bd 48 1d 4e 3d b4 94 08 bd 6f 28 75 bd
       -0.07437807 0.050320894 -0.03334494 -0.059853014
0003f0 00 51 e1 bc 18 89 e8 3c 30 36 18 3c 44 05 c6 bd
       -0.027504444 0.028385684 0.009290263 -0.09668973

net.2.bias f4 [64]
000000 7d 78 2e bf 48 98 60 3f 3c c6 ac bd b0 88 93 bd
       -0.681526 0.8773236 -0.08436248 -0.072038054
000010 3e bf 78 bd 00 3d 42 3f fe 89 27 3f a6 c4 b9 3c
       -0.060729258 0.7587433 0.65444934 0.022676777
000020 88 a4 37 3f 84 46 55 3f cc 03 32 3f 73 0f 4d 3f
       0.7173543 0.83310723 0.69537044 0.801017
000030 ba c9 a0 bf 7a 9f 2d 3f bd 92 1e 3f 8c 4e 9f 3f
       -1.2561562 0.67821467 0.61942655 1.2445846
000040 3b 46 3a 3f 57 a4 3b 3f 10 69 7b 3d 98 fc 9e bd
       0.72763413 0.7329764 0.061379492 -0.07763022
000050 c2 03 2d 3f be b4 a5 bc 32 32 30 3f 96 03 52 3f
       0.6758386 -0.020227786 0.6882659 0.8203672
000060 88 99 32 3f 49 79 45 3f f9 8f 98 bc 32 63 fa be
       0.6976552 0.7713819 -0.018623339 -0.48903805
000070 cb 80 25 bd 5d 8a 00 bc fa 71 40 3f ae 57 1d 3f
       -0.04040603 -0.007845488 0.75173914 0.61461914
000080 fd e3 3b 3f c5 5b 51 3f 7c a4 5e 3f 17 ac 4f 3f
       0.7339476 0.81780654 0.86969733 0.81121963
000090 61 eb b5 bd 0a ee 94 3d 3b 0e 46 3f ac 02 42 3f
       -0.088827856 0.07271965 0.77365464 0.75785327
0000a0 9d b7 c7 bd 1a b7 2a bd 43 cc 1e 3f 34 c6 23 bd
       -0.09751818 -0.041678526 0.6203043 -0.039983943
0000b0 ec 6f 6c bd bd f5 b5 bd 39 e0 43 3f 38 94 2d 3f
       -0.057723925 -0.088847615 0.7651401 0.6780429
0000c0 f3 11 2e 3f 6f 23 d9 bd 92 b8 e2 bd 20 ca 22 3f
       0.6799614 -0.106024615 -0.1107036 0.6358967
0000d0 ac 48 41 3f e2 e3 c3 bb 67 ca 55 3f f3 44 2b bd
       0.75501513 -0.0059780935 0.83511966 -0.041813802
0000e0 1f cb 25 bd 3c d6 8f bd a0 7e 48 3d 2e 7b 30 3f
       -0.040476914 -0.07023284 0.048948884 0.6893796
0000f0 83 c6 24 3f 94 75 89 bd 78 22 1e bd 2d b3 19 3f
       0.64365405 -0.067118794 -0.03860709 0.60039026

fc.weight f4 [13, 64]
000000 4b 94 97 bd 36 a4 b2 3d e8 38 84 3c 33 60 8e 3c
       -0.074013315 0.08722727 0.016140416 0.017379856
000010 bf 96 92 3a 99 87 02 bd cd 80 ba 3d 14 2a 8f 3b
       0.0011183842 -0.031867597 0.09106598 0.00436903
000020 68 50 ad 3d 8c 6f 6c 3d f7 0c d5 ba 7c 44 b6 3d
       0.08462602 0.057723567 -0.0016254474 0.08899781
000030 a6 a1 26 be 43 21 03 3d ce 80 1b bb ff 1b b2 bd
       -0.16272601 0.032014143 -0.0023727897 -0.08696746
000040 8b 80 e2 bd f6 71 20 3d af 36 a2 bd 34 d3 ce ba
       -0.11059674 0.03917118 -0.07920586 -0.0015779496
000050 d8 dc 04 3c 95 8e 3a 3d 7e bb 2b bc cd b8 01 3e
       0.008109294 0.045546133 -0.010481713 0.12668152
000060 97 6a a0 bc cd d7 df 3b 50 50 68 bd ce 4d 94 be
       -0.019582076 0.0068311454 -0.056717217 -0.2896561
000070 9f d5 14 3e 1c ef 69 bd b2 cd ea bc 50 03 35 3d
       0.14534615 -0.057112798 -0.028662536 0.044192612
000080 43 6a 68 bd 7b db cd bc ca 57 91 bd 80 d8 be bc
       -0.056741964 -0.02512907 -0.070968226 -0.023296595
000090 5b 79 05 be ff c7 a1 3d 7a de 94 3d 2f 82 fe 3d
       -0.13034575 0.07899474 0.072689965 0.12427174
0000a0 0d fb 5d 3d bf 6b 49 bd e4 c6 ae 3d f8 a4 e0 bd
       0.0541945 -0.04917502 0.08534029 -0.10968965
0000b0 a5 0f 9f 3d db 9c c5 3d 25 dc 04 bd e9 a5 9c 3d
       0.07766656 0.096490584 -0.03243651 0.07648832
0000c0 a1 c2 b0 bc 1d f3 f3 3c e5 f2 72 bc c1 be da 3d
       -0.021577181 0.029779011 -0.014828418 0.10680915
0000d0 f5 72 c7 bd 2f 9e bc 3d 11 30 10 3e 02 fa d9 3a
       -0.09738723 0.092098586 0.14080836 0.0016630294
0000e0 f8 09 61 3d 6c f6 a0 3a 20 0e 16 3e ca b3 03 3d
       0.054941148 0.0012280471 0.14653826 0.032153882
0000f0 16 20 ce 3c 87 9c 24 3d 06 c7 b3 3c cc 76 10 3d
       0.025161784 0.04018834 0.021945488 0.035269544
000100 a0 a4 6e bd cc 22 b5 3d a8 04 97 bd e9 39 c5 3d
       -0.058262467 0.088445276 -0.07373935 0.09630186
000110 2c 4d 10 3d 40 1e 40 3d 88 a2 12 3d 8c b6 f4 3d
       0.035229847 0.04690385 0.035799533 0.119488806
000120 3f e1 a9 3d c7 fb 4e 3d b0 be c2 3d ee 80 99 3d
       0.082949154 0.050533082 0.09509027 0.074952945
000130 97 df 7f be 48 77 d9 3d 0f ce 24 bb f8 76 df bd
       -0.24987637 0.10618454 -0.0025147235 -0.10911363
000140 9e f1 ba bd 93 19 f6 bd f2 74 cf 3d ba 39 77 bc
       -0.09128116 -0.12016597 0.101297274 -0.015089447
000150 db ff 9c 3d ca 2d d7 3d 2e 6a a0 bc 12 7e 4d 3d
       0.07665988 0.105067804 -0.01958188 0.05016906
000160 44 61 a4 3d aa e6 89 3d 09 71 1c 3d 9d c1 d9 be
       0.080263644 0.06733449 0.038193736 -0.42530528
000170 55 1f a4 3c 5e 28 c1 3d ab a7 0f 3d c0 dc 8f 3d
       0.020034472 0.094315276 0.03507201 0.070245266
000180 48 9b 3c 3d 51 52 ad bd 69 8d ae bd 04 6d b5 3d
       0.046046525 -0.08462966 -0.085230656 0.08858684
000190 28 ca bd bd bb 33 05 bd fc da ab 3c 05 ed 75 bd
       -0.09267074 -0.032520037 0.020978443 -0.060040493
0001a0 a4 94 6c 3d de bf 14 bd c8 9a 03 3e da d1 33 3d
       0.057758942 -0.03631579 0.12852013 0.043901302
0001b0 a9 23 8d bd 4d 5f 11 bc f6 a7 9f 3d 50 bd d6 3d
       -0.06891567 -0.008872819 0.07795708 0.10485327
0001c0 eb 01 66 3d 39 46 2b 3d 94 d2 08 3e 57 51 fa 3c
       0.056154173 0.041815016 0.13361579 0.030556364
0001d0 f2 81 c3 bc 21 27 82 bd 53 6c f7 3d ee 55 66 3d
       -0.023865674 -0.063551195 0.12081208 0.056234293
0001e0 a2 fb 80 3d 8e 66 ea 3c 67 dd ce 3c f2 bf c1 bd
       0.06297995 0.028613355 0.025252057 -0.09460439
0001f0 9f 95 05 3b 41 19 25 3c 53 99 b5 bd a9 48 b3 bd
       0.002038337 0.010076822 -0.08867135 -0.08754093
000200 3a 7e ab be c9 9b 3d 3e a0 51 56 3d ff 65 79 bd
       -0.3349474 0.18516459 0.052323937 -0.060888287
000210 db 1d 50 3d 30 86 e4 3d 65 08 c9 3c 43 95 be 3d
       0.050809722 0.11158407 0.024540136 0.09305813
000220 65 66 f6 bb 11 6e fb bc f1 a5 41 bc 4b 6f dc 3b
       -0.0075195306 -0.030692132 -0.011819349 0.0067271343
000230 d2 6b bb be c8 da e3 3d 6a 8e 39 3e e2 e9 f0 3c
       -0.36605698 0.111257136 0.18120733 0.029408399
000240 92 3e d5 3d 0a 14 51 ba 30 bc 59 bd 0c f0 9e 3d
       0.10412325 -0.00079757033 -0.053157985 0.07760629
000250 1e 4a 78 bc e9 2b 3a bd ec 06 d5 3d 91 f0 0a 3d
       -0.01515439 -0.045452032 0.10401711 0.03392083
000260 e0 7f 18 bd 3e 63 14 bd e7 c6 e2 ba 85 05 88 be
       -0.037231326 -0.036227457 -0.0017301709 -0.2656671
000270 a4 68 b5 bc 97 ba e2 3d 17 8e 31 3e bb 24 3c 3e
       -0.022144623 0.110707454 0.17339359 0.18373387
000280 23 3d 25 3e 73 12 ed 3d ce e4 9b 3d 6f 19 31 3e
       0.16136603 0.115757845 0.076120004 0.17294858
000290 84 36 c2 3c db a1 a7 3d 5a 41 19 3e 44 4f 3d bb
       0.023707636 0.08185168 0.14966336 -0.0028886357
0002a0 ef 4b a7 3d d5 40 b1 3c 66 c7 90 3d 2a 1c a1 3c
       0.0816878 0.02163736 0.07069282 0.01966675
0002b0 e8 10 d5 bd 87 b2 e7 3d 63 55 3f 3e e8 90 02 3d
       -0.10403615 0.11313348 0.18684916 0.031876475
0002c0 51 4a e1 3d d0 c5 40 3d cb a4 12 bd b1 61 70 3d
       0.11000503 0.04706365 -0.03580169 0.058686916
0002d0 17 85 89 3d 8f 7c 1b 3d a0 c7 f7 bc 9e fe 12 3d
       0.06714838 0.037960585 -0.030246556 0.035887353
0002e0 89 5b 42 3d 26 1b 58 3d 6f 21 b0 bd 4d 54 1e bd
       0.047450576 0.052760266 -0.08600127 -0.038654614
0002f0 ad 83 53 3c 87 e3 84 bd e2 d0 41 3c 5b 26 48 bd
       0.012909812 -0.0648871 0.011829587 -0.048864704
000300 a1 2c 0d be 54 86 59 3d 10 da eb 3d 4d fe c6 3d
       -0.13786556 0.05310662 0.115162015 0.09716473
000310 d7 ef c8 3c f5 9a ca bd a5 36 43 3d 66 35 e3 3c
       0.024528427 -0.09892837 0.047659535 0.027735423
000320 30 8b 4a bd a9 66 d5 bd 20 ea 85 3d d1 16 eb bc
       -0.049449146 -0.104199715 0.065387964 -0.028697403
000330 d4 dd a5 be 3f c9 fc 3d e4 79 3a be e9 be c1 bd
       -0.32395804 0.12343072 -0.1821056 -0.09460241
000340 1d 15 39 3e 68 f4 e9 3d 9e c6 d9 bc 7d 09 16 3e
       0.1807446 0.1142357 -0.026583966 0.14652057
000350 87 88 25 3d d2 25 d0 bd 23 58 f0 3c 50 2d 87 bd
       0.040413406 -0.10163464 0.029338902 -0.066004395
000360 d7 e4 80 bd 6d 28 17 bd 65 94 ad 3d 48 6b 27 3f
       -0.06293648 -0.036903787 0.0847557 0.65398073
000370 73 08 bf bd d3 6d ff bc 42 d2 30 3e 13 25 bb bd
       -0.093277834 -0.031180298 0.17267707 -0.09137931
000380 c6 fb 9e 3d 00 d7 00 3e 3b 77 42 bb 3e 36 00 be
       0.07762866 0.12582016 -0.0029673118 -0.12520692
000390 11 5b 93 3e e7 6a d2 3c 58 0f 3a bc b0 ba 90 3d
       0.28780416 0.02568574 -0.011356197 0.07066858
0003a0 4d 7f b2 3c ec 06 a4 3c f7 17 6d 3d 06 d3 05 3e
       0.021789217 0.020022832 0.057884183 0.1306878
0003b0 82 3b c9 3d 78 70 0f 3e ce 22 a0 3d d8 af dc 3d
       0.09825803 0.14007747 0.078191385 0.10775727
0003c0 a9 4c 1a be da e1 e7 3d 17 43 0b bc ec 48 3e 3d
       -0.15068306 0.11322375 -0.008499882 0.046456262
0003d0 66 3b cb 3d 12 3f 4c bd 2c bb 9b bb ce 6c d8 bd
       0.09923439 -0.049864836 -0.0047525372 -0.10567628
0003e0 78 65 de 3c 34 99 e4 3d 8e 7e ac 3d 7c f7 d6 3d
       0.027147993 0.11162034 0.08422576 0.10496423
0003f0 56 d2 a2 bd 2e ad 10 3d cf f2 d9 3d c4 91 50 3d
       -0.07950275 0.035321407 0.10642015 0.050920263

fc.bias f4 [13]
000000 f5 25 81 3e 8e ec 88 3e 94 bc 1e 3e 93 6b 70 3e
       0.2522427 0.26742977 0.15501624 0.23478536
000010 d1 35 9e 3e 64 fc f2 3e 36 13 c3 3d 4e f3 70 3e
       0.30900434 0.47458184 0.095251486 0.23530313
000020 bb c0 84 3d 18 ab 6f 3e a2 73 62 3e cc af a0 3e
       0.06482073 0.23405111 0.22114423 0.31384122
000030 a7 a5 9b 3e
       0.3039982
